results/ppo/ControlCar.onnx (onnx, 82713 bytes, 10 tensors)

discrete_act_size_vector f4 [1, 3]
3.0 3.0 1.0
00000000: 0000 4040 0000 4040 0000 803f

network_body._body_endoder.seq_layers.0.weight f4 [128, 6]
0.30627337 0.2746353 -0.16866103 0.08373235 0.69664115 -0.6161132 0.59764147 -0.013968354
0.18960449 -0.100357644 -0.12133549 0.13684031 -0.27544093 -0.47798753 0.40201765 0.29776776
-0.86836255 0.049182333 -0.3518979 -0.06946936 0.0921108 0.8177865 0.22719172 0.46579888
-0.6217926 -0.55315137 0.14749299 0.6525664 0.4418188 -0.49375558 0.5308779 -0.43922707
0.47724327 0.24223956 0.071927555 0.74264055 0.46414265 0.5618314 -0.36342385 0.17235014
0.2832707 -0.34257933 -0.019977817 -0.5042657 0.01245016 -0.11845587 -0.5699102 -0.5989272
-0.023268702 0.53897244 -0.23172018 0.14633141 1.0049393 -0.32721668 0.40278924 0.049137592
-0.0001761982 -0.16141039 -0.4846309 -0.01755117 0.22315164 -0.29303083 0.51284885 -1.0197282
-0.21516679 0.21712352 0.030459011 0.18802063 0.16540842 -0.6332919 -0.024940128 -0.26494694
-0.43465206 -0.60113424 0.045887854 -0.07884165 0.63497245 -0.63954 0.54282105 0.41582632
0.08189665 -0.4684005 -0.23490584 0.43471783 0.6413019 0.03170997 -0.27569875 -0.045044053
-0.53740937 0.3513219 -0.43580243 0.5651224 -0.21815923 -0.020021379 0.6221888 -0.68479013
-0.38711286 -0.20994411 -0.23887874 -0.39289036 -0.2618326 0.4927779 -0.38022688 0.2078648
-0.19486511 0.10315432 0.20573205 -0.073211126 -0.33780494 0.37659487 -0.60843235 -0.49091962
-0.9281511 0.6045604 -0.016038654 -0.6836453 0.5534059 0.26340058 0.2833743 -0.24791397
-0.3522547 -0.1493665 0.14622363 0.55693823 0.82801664 -0.07159852 -0.0030551825 0.09669502
0.8824494 0.3086839 -0.20807977 0.55229354 0.09274559 -0.93685585 -0.27843472 0.59048164
0.4751059 0.19254342 -0.10151613 0.21164252 0.029757438 0.06871382 1.0412117 -0.5181073
0.15782802 -0.17205405 0.64596885 0.6584983 0.10573231 0.21519805 -0.5319385 0.37722832
-0.67825204 -0.5365841 -0.660538 0.40478948 -0.068691984 0.3777064 0.17034712 0.52063084
0.18290354 0.45779127 -0.31906512 -0.04037826 0.011184105 -0.4513336 -0.18095168 0.10850769
-0.3036372 -0.050464243 -0.36911276 0.28354198 -0.046995282 0.35914695 0.46685153 -0.13850829
0.39901572 -0.09675486 0.059050106 0.31174132 0.38951936 -0.3361359 -0.32405603 0.98246336
0.045773223 -0.6048148 0.219214 -0.10022276 0.87287146 -0.6233987 -0.40658033 -0.28296167
0.16207619 0.9608594 0.2292678 -0.002670767 -0.15560676 -0.100933045 0.20437111 0.08832072
-0.96047646 -0.87858796 -0.40794575 0.21996012 -0.04847022 -0.076279014 0.22581618 -0.04451943
-0.09949406 -0.35352728 -0.29802293 -0.27378124 -0.17438616 0.30722657 0.06341929 -0.39387092
0.11130642 0.18208471 0.4791264 -0.33269405 0.22997037 0.45796627 0.2610931 0.29765442
0.33975035 0.45193148 -0.4446063 0.08599787 0.4756881 -0.41070604 0.89192766 -0.52204794
-0.535101 -0.23111387 0.5737919 -0.5586369 0.17852229 0.26957345 -0.2568302 0.061511036
0.06708478 -0.14084199 0.59246296 -0.26493424 -0.46615112 0.4080086 -0.112431064 -0.43739292
0.29699415 0.18335858 -0.5986813 0.30008852 -0.6394315 0.7725394 0.019359348 -0.2242397
00000000: ddcf 9c3e ff9c 8c3e 7ab5 2cbe de7b ab3d
00000010: 1357 323f 98b9 1dbf 08ff 183f 86db 64bc
00000020: ae27 423e 4f88 cdbd be7e f8bd de1f 0c3e
00000030: 9806 8dbe c8ba f4be 42d5 cd3e 0475 983e
00000040: 024d 5ebf 6a73 493d f62b b4be f445 8ebd
00000050: 96a4 bc3d 755a 513f f2a4 683e 317d ee3e
00000060: cd2d 1fbf 549b 0dbf 6708 173e 970e 273f
00000070: 1336 e23e 88cd fcbe 9de7 073f 5fe2 e0be
00000080: 3b59 f43e a60d 783e c14e 933d b11d 3e3f
00000090: 1ba4 ed3e 2fd4 0f3f b112 babe 8e7c 303e
000000a0: db08 913e 8f66 afbe 85a8 a3bc 8f17 01bf
000000b0: c2fb 4b3c fe98 f2bd a3e5 11bf 4b53 19bf
000000c0: 019e bebc 19fa 093f 0e48 6dbe e7d7 153e
000000d0: daa1 803f f288 a7be 643a ce3e 8044 493d
000000e0: d8c1 38b9 c448 25be 8b21 f8be 79c7 8fbc
000000f0: dd81 643e 2308 96be 104a 033f 7486 82bf
00000100: af54 5cbe a155 5e3e 2d85 f93c 7b88 403e
00000110: d360 293e 6b1f 22bf 3d4f ccbc 20a7 87be
00000120: b78a debe efe3 19bf e7f4 3b3d bb77 a1bd
00000130: 8e8d 223f e5b8 23bf 52f6 0a3f 30e7 d43e
00000140: 6eb9 a73d 31d2 efbe 288b 70be 5693 de3e
00000150: 5c2c 243f 50e2 013d 6328 8dbe 1d80 38bd
00000160: a993 09bf 77e0 b33e 7f21 dfbe ddab 103f
00000170: 2265 5fbe e003 a4bc c447 1f3f 684e 2fbf
00000180: a833 c6be 97fb 56be a19c 74be ed28 c9be
00000190: ec0e 86be 634d fc3e 19ad c2be 83da 543e
000001a0: b88a 47be 9242 d33d 6cab 523e b7ef 95bd
000001b0: c5f4 acbe 0bd1 c03e 39c2 1bbf d159 fbbe
000001c0: 4f9b 6dbf 78c4 1a3f 7f63 83bc 6103 2fbf
000001d0: 02ac 0d3f 71dc 863e 7016 913e 29dd 7dbe
000001e0: ba5a b4be 88f3 18be a6bb 153e 8193 0e3f
000001f0: e6f8 533f 3fa2 92bd 7539 48bb 0a08 c63d
00000200: 34e8 613f d10b 9e3e dd12 55be 1c63 0d3f
00000210: 66f1 bd3d c9d5 6fbf ff8e 8ebe ce29 173f
00000220: 1541 f33e 1a2a 453e b0e7 cfbd d1b8 583e
00000230: dfc5 f33c d5b9 8c3d 6d46 853f aea2 04bf
00000240: ab9d 213e f02e 30be 375e 253f 5893 283f
00000250: 2e8a d83d e15c 5c3e 1f2d 08bf 1224 c13e
00000260: eda1 2dbf 935d 09bf 0519 29bf 9140 cf3e
00000270: 62ae 8cbd bc62 c13e 7a6f 2e3e 1048 053f
00000280: 114b 3b3e 9e63 ea3e 815c a3be ad63 25bd
00000290: 893d 373c 3315 e7be 664b 39be 4839 de3d
000002a0: 5676 9bbe 98b3 4ebd 59fc bcbe 6a2c 913e
000002b0: 207e 40bd 1ce2 b73e 2a07 ef3e 1ed5 0dbe
000002c0: ca4b cc3e 6927 c6bd 86de 713d 8f9c 9f3e
000002d0: 156f c73e 011a acbe acea a5be b882 7b3f
000002e0: b47c 3b3d 25d5 1abf a379 603e 9741 cdbd
000002f0: 8174 5f3f 0f97 1fbf 4c2b d0be 5ae0 90be
00000300: 4df7 253e e2fa 753f 2ec5 6a3e 0908 2fbb
00000310: 6157 1fbe fcb5 cebd a946 513e 7ee1 b43d
00000320: c9e1 75bf 24eb 60bf 44de d0be 3a3d 613e
00000330: b688 46bd 2c38 9cbd 5b3c 673e 015a 36bd
00000340: 8bc3 cbbd 8701 b5be 7696 98be 0e2d 8cbe
00000350: 4992 32be cd4c 9d3e f9e1 813d 73a9 c9be
00000360: 9ff4 e33d 6a74 3a3e 0e50 f53e e056 aabe
00000370: 5a7d 6b3e 8e7a ea3e ffad 853e 2966 983e
00000380: c2f3 ad3e 9063 e73e 70a3 e3be a71f b03d
00000390: 648d f33e 1048 d2be 5f55 643f efa4 05bf
000003a0: 61fc 08bf 1da9 6cbe 07e4 123f d402 0fbf
000003b0: 8cce 363e 8805 8a3e 3f7f 83be fff2 7b3d
000003c0: bf63 893d e238 10be a7ab 173f 76a5 87be
000003d0: 5cab eebe 81e6 d03e 4242 e6bd f7f1 dfbe
000003e0: 9e0f 983e 5ac2 3b3e 2d43 19bf 34a5 993e
000003f0: c8b1 23bf 24c5 453f 7f97 9e3c 189f 65be

network_body._body_endoder.seq_layers.0.bias f4 [128]
7.509737e-17 -0.0005982719 0.0012356752 5.848529e-05 7.308427e-13 0.00057047285 -1.1669683e-06 2.5862703e-17
-8.8507854e-11 0.00281193 -0.00011047003 0.00033002623 -3.3268088e-07 3.0372765e-05 -0.00082596473 -4.206504e-10
-0.001732584 -0.0005512618 -0.0026181282 -9.061034e-05 -0.0023431552 0.00046382134 0.00026091412 2.1930373e-15
-0.00047976171 -0.0050251144 0.0007706403 0.0012097382 -0.0018447146 0.0035507586 1.4250786e-07 0.00016025422
-0.0009017236 -0.003982597 -0.0006294303 -1.4269557e-11 0.00060442265 0.0015148787 -0.00070525095 0.00059772574
0.00026577208 -0.0030287555 0.0038538044 -0.0017074611 -0.001224161 1.167946e-10 -0.00071669725 0.0067471163
-0.0026134963 4.0349776e-12 -0.00016929675 -0.0014099793 -0.0021071096 0.002487654 -0.001861758 -1.7800549e-20
0.004440855 -0.004202571 0.004208989 -0.0022451153 -0.0018277789 -0.0029622652 -3.9666144e-08 6.648035e-05
0.0037997055 -0.0037550966 -0.0015110264 0.00010042925 -0.0005050428 3.0009386e-07 0.0017214202 0.00027546458
2.1862502e-19 -3.1080258e-28 2.0736206e-12 -0.0019671523 3.5703014e-18 0.0001360547 -0.00036887455 -0.00062499376
0.006280511 0.00083119754 0.0011467767 -0.0025516204 -0.0013925463 0.0017232833 -0.000785307 -0.0017175799
-0.0022462923 7.076595e-11 -6.524646e-13 -1.9338338e-05 -0.0015450474 -0.00084583083 -0.00089274807 -0.0024250443
-1.383822e-10 -1.762159e-08 -0.00050852913 -0.001953349 0.00038557194 0.00070650596 -0.0005990525 -0.0071663987
4.4135928e-07 3.1456337e-05 -0.00019475617 -0.0018247444 -0.0007739031 3.838967e-06 -2.7406945e-13 7.179224e-07
-0.0012551282 -0.0005869742 0.00089564105 -3.340528e-07 -0.0001273095 -0.001624664 -0.0014527452 0.00022965668
-0.0007556086 7.0198536e-09 0.00016589445 0.00088922866 0.00057106523 0.00014725956 -0.0013372044 -0.00034098848
00000000: aa29 ad24 59d5 1cba 61f6 a13a 1a4e 7538
00000010: c4b6 4d2b c98b 153a baa0 9cb5 958a ee23
00000020: 7ea1 c2ae 5b48 383b 25ac e7b8 5f07 ad39
00000030: 509b b2b4 04c9 fe37 8e85 58ba 4841 e7af
00000040: df17 e3ba 8e82 10ba e794 2bbb 0e06 beb8
00000050: 9f8f 19bb 0c2d f339 4dcb 8839 6606 1e27
00000060: 8788 fbb9 b7a9 a4bb cc04 4a3a 1490 9e3a
00000070: 5aca f1ba d8b3 683b 4304 1934 ea09 2839
00000080: a561 6cba 7280 82bb 5a00 25ba 5f08 7bad
00000090: 1e72 1e3a e58e c63a 97e0 38ba b2b0 1c3a
000000a0: 5357 8b39 167e 46bb 1c90 7c3b e3cc dfba
000000b0: 0774 a0ba c26a 002f bde0 3bba ea16 dd3b
000000c0: 3147 2bbb d9f7 8d2c 4085 31b9 0ecf b8ba
000000d0: 6f17 0abb e907 233b 3b06 f4ba 161f a89e
000000e0: 9784 913b b9b5 89bb 8feb 893b c922 13bb
000000f0: 1592 efba 9022 42bb 635d 2ab3 5e6b 8b38
00000100: 7b04 793b 1118 76bb a20d c6ba 8b9d d238
00000110: d964 04ba 961c a134 47a1 e13a 3b6c 9039
00000120: ae0d 8120 9afe c491 07eb 112c 57eb 00bb
00000130: 8bb8 8322 e8a9 0e39 8165 c1b9 9fd6 23ba
00000140: bfcc cd3b b9e4 593a 714f 963a 1639 27bb
00000150: 1a86 b6ba cbdf e13a 10dd 4dba 6b20 e1ba
00000160: 8836 13bb b09d 9b2e 07a7 37ab c438 a2b7
00000170: 3083 caba bfba 5dba 4f07 6aba 7eed 1ebb
00000180: 2027 18af 495e 97b2 d04e 05ba c203 00bb
00000190: 9726 ca39 d034 393a bc09 1dba 1cd4 eabb
000001a0: f5f3 ec34 fcef 0338 7637 4cb9 432c efba
000001b0: c2df 4aba 7ad0 8036 9249 9aaa 40b7 4035
000001c0: 1d83 a4ba 2cdf 19ba 74c9 6a3a de57 b3b4
000001d0: 627e 05b9 adf2 d4ba 0a6a beba ffcf 7039
000001e0: 0914 46ba 4933 f131 f4f3 2d39 201b 693a
000001f0: 8ab3 153a b069 1a39 2245 afba b3c6 b2b9

network_body._body_endoder.seq_layers.2.weight f4 [128, 128]
-0.08733239 -0.0593524 0.08797063 -0.17264193 -0.03713984 0.036254913 -0.011966319 -0.13907431
-0.21307674 -0.09261805 -0.0066572125 0.010655395 -0.07058634 0.2619721 0.12243716 0.061094206
0.048159357 -0.11398746 0.10427195 0.02557917 0.2333921 -0.052775655 0.22989377 0.038544536
0.033622608 0.033254735 0.007980951 0.107095316 -0.08898187 -0.11659158 -0.14049055 -0.052110985
0.010840322 0.06592594 -0.023839634 0.121396385 -0.10332398 0.05375805 -0.097679056 0.091589585
0.035160247 0.1468419 0.039671615 0.10796696 -0.14226685 -0.13117385 -0.13491306 0.13238621
0.006211506 -0.09741867 0.10863905 -0.043374036 0.07038471 -0.004274451 0.088782735 -0.0068373084
-0.006115779 0.10906047 0.032472894 0.12625636 0.08328632 -0.14640278 -0.07635791 -0.1732369
0.032323882 0.010627614 0.10579971 0.010109479 -0.1316076 -0.12524825 -0.042199433 -0.14245653
0.043627255 0.118676156 0.0014510361 0.004214876 -0.040408526 0.05985194 0.0027870738 0.07003667
-0.058826827 -0.06737652 0.03094267 -0.13274938 -0.06479658 0.15771627 0.019310845 -0.072368994
-0.016789814 -0.066459015 -0.042917732 0.011812313 0.09731694 0.005370728 0.13074094 -0.016411169
-0.13023093 0.11958508 0.014350422 -0.21581836 -0.041023944 -0.08808056 0.0650746 -0.09970319
0.006336656 0.019249542 -0.15077569 0.0014330065 -0.01917713 -0.10800874 0.0111723915 -0.22162421
0.043655578 -0.23165816 -0.08175146 0.079308085 -0.04486065 -0.08037755 0.008599504 0.030913863
0.075771555 -0.013895741 0.02554089 -0.0042113787 -0.22313002 -0.021223148 0.08039882 -0.061835073
-0.026695937 0.09742623 0.106473245 -0.14198901 0.2225937 0.04311308 -0.06579604 -0.0041857264
-0.19212243 0.035988092 0.085271135 -0.10324755 0.009479764 -0.057238072 -0.110080235 -0.043956384
-0.07120988 0.15690582 -0.049996585 -0.013780012 -0.0039098957 0.041082826 0.068082266 0.03872397
0.05437986 0.005844105 0.09572022 0.12909503 0.07327591 -0.16841343 0.099709444 0.15117574
-0.10261622 -0.09401348 -0.108608276 0.05055449 0.084462784 -0.01995307 -0.10081152 0.02115497
-0.06941453 0.0046182154 -0.07569849 0.056048978 -0.012604527 0.044822868 -0.03872068 0.17533007
-0.13734643 0.04753951 0.00463177 -0.022421453 -0.16955784 -0.02852558 -0.04466877 -0.066271596
0.15604165 -0.1204027 0.14835283 0.03630732 0.16433278 -0.00726576 -0.023575423 0.11266624
0.12560494 0.014196871 -0.0026501853 -0.0017339677 0.09798935 0.025522627 0.0651546 0.020423261
-0.11282798 -0.18227065 0.009556522 -0.122589976 -0.091549024 0.07908411 0.013164674 0.01908657
0.04154041 0.10815334 -0.0075223716 0.049453408 -0.0321341 -0.201415 0.12433237 0.004653719
-0.06387525 -0.10855201 -0.086238064 0.033147465 -0.07636795 0.16261557 0.0039065997 0.112570785
-0.09024188 -0.07869229 -0.053525403 0.16623826 0.13715667 -0.21932049 -0.008930056 0.01792856
-0.068184316 -0.016205648 -0.047880534 0.047944766 -0.05880584 -0.047442563 -0.042485278 -0.038418252
-0.0937305 0.096152715 0.08906478 -0.14080745 0.038299352 -0.0636262 0.1543593 -0.04324812
0.08110388 -0.085273474 0.17673485 -0.027802492 0.01473297 0.15829088 0.116574526 -0.0944483
00000000: 53db b2bd 811b 73bd f229 b43d 0cc9 30be
00000010: f21f 18bd 0880 143d 610e 44bc 7f69 0ebe
00000020: ca30 5abe 88ae bdbd bf24 dabb f793 2e3c
00000030: 928f 90bd 3521 863e 55c0 fa3d eb3d 7a3d
00000040: bf42 453d 4272 e9bd 888c d53d 688b d13c
00000050: 57fe 6e3e 492b 58bd 4669 6b3e e0e0 1d3d
00000060: dcb7 093d 1e36 083d 89c2 023c ca54 db3d
00000070: 203c b6bd 91c7 eebd c1dc 0fbe 5472 55bd
00000080: 9b9b 313c 2e04 873d 564b c3bc ab9e f83d
00000090: 869b d3bd 6731 5c3d f50b c8bd 5293 bb3d
000000a0: 3104 103d b95d 163e b47e 223d c81d dd3d
000000b0: 67ae 11be 7052 06be a626 0abe 4090 073e
000000c0: e489 cb3b 7183 c7bd 267e de3d f9a8 31bd
000000d0: dc25 903d b210 8cbb b9d3 b53d 800b e0bb
000000e0: df66 c8bb 185b df3d 4c02 053d 5949 013e
000000f0: 0592 aa3d 9cea 15be 8961 9cbd 0465 31be
00000100: 0c66 043d 721f 2e3c 85ad d83d 3aa2 253c
00000110: 25c4 06be 1441 00be 50d9 2cbd 20e0 11be
00000120: 7eb2 323d 7c0c f33d b130 be3a f11c 8a3b
00000130: 6983 25bd 4f27 753d 57a7 363b 636f 8f3d
00000140: 66f4 70bd b3fc 89bd 7b7b fd3c 74ef 07be
00000150: 12b4 84bd 6080 213e c731 9e3c 3236 94bd
00000160: cb8a 89bc aa1b 88bd 81ca 2fbd 6f88 413c
00000170: 1b4e c73d effc af3b f4e0 053e b770 86bc
00000180: 425b 05be 06e9 f43d 081e 6b3c 7dff 5cbe
00000190: b908 28bd 9563 b4bd d545 853d 3031 ccbd
000001a0: b9a3 cf3b 37b1 9d3c f164 1abe b8d3 bb3a
000001b0: 5b19 9dbc b033 ddbd 680c 373c 75f1 62be
000001c0: 31d0 323d cc37 6dbe 4f6d a7bd 476c a23d
000001d0: cdbf 37bd fc9c a4bd efe4 0c3c 123f fd3c
000001e0: 1e2e 9b3d f6aa 63bc 213b d13c 9bff 89bb
000001f0: 327c 64be 2bdc adbc 23a8 a43d c646 7dbd
00000200: 70b1 dabc 6787 c73d a50e da3d 9165 11be
00000210: 9aef 633e 5797 303d 13c0 86bd 6b28 89bb
00000220: bebb 44be 4068 133d a2a2 ae3d 7473 d3bd
00000230: 0351 1b3c 7872 6abd bf71 e1bd 9c0b 34bd
00000240: 7cd6 91bd ebab 203e 38c9 4cbd 8fc5 61bc
00000250: 951e 80bb 7746 283d b76e 8b3d 079d 1e3d
00000260: 6bbd 5e3d e87f bf3b f608 c43d 7d31 043e
00000270: ae11 963d 9274 2cbe 7734 cc3d d0cd 1a3e
00000280: 7428 d2bd 248a c0bd 046e debd 3a12 4f3d
00000290: d3fa ac3d 9f74 a3bc 4576 cebd 304d ad3c
000002a0: 3529 8ebd 6654 973b cf07 9bbd 9d93 653d
000002b0: 3883 4ebc 2f98 373d 9399 1ebd ba89 333e
000002c0: 8ba4 0cbe cab8 423d 1ac6 973b 32ad b7bc
000002d0: 92a0 2dbe 7aae e9bc 9af6 36bd 67b9 87bd
000002e0: 62c9 1f3e b195 f6bd cee9 173e fcb6 143d
000002f0: da46 283e 9d15 eebb 3f21 c1bc 8fbd e63d
00000300: 959e 003e fe99 683c bbae 2dbb 4d46 e3ba
00000310: a4ae c83d d414 d13c c66f 853d af4e a73c
00000320: 5b12 e7bd 28a5 3abe f592 1c3c 7410 fbbd
00000330: 0e7e bbbd daf6 a13d a5b0 573c 705b 9c3c
00000340: 4726 2a3d 807f dd3d 3a7e f6bb a88f 4a3d
00000350: 0c9f 03bd bc3f 4ebe f8a1 fe3d 397e 983b
00000360: 07d1 82bd 8450 debd 959d b0bd a3c5 073d
00000370: cd66 9cbd b284 263e ef02 803b 838b e63d
00000380: bcd0 b8bd 6c29 a1bd 743d 5bbd 5d3a 2a3e
00000390: cc72 0c3e 8d95 60be 5f4f 12bc eade 923c
000003a0: 38a4 8bbd b5c1 84bc 611e 44bd bb61 443d
000003b0: 64de 70bd 2253 42bd 0b05 2ebd 755c 1dbd
000003c0: c7f5 bfbd b7eb c43d 9867 b63d d42f 10be
000003d0: c8df 1c3d 744e 82bd 5d10 1e3e f124 31bd
000003e0: cb19 a63d dca3 aebd fbf9 343e 0dc2 e3bc
000003f0: 8e62 713c 0117 223e a0be ee3d 1c6e c1bd

network_body._body_endoder.seq_layers.2.bias f4 [128]
-0.0003065222 -0.00095953967 -0.001630296 0.0003303131 -0.0015499657 -0.0012533633 -0.0017673997 0.00092812144
-0.0014711486 -0.001582039 0.0023127939 -0.0025682745 -5.469165e-09 0.0010185803 7.570385e-13 -0.0033672538
-0.0022646817 -0.0001408357 0.00029541424 -0.001087573 0.00011055945 -0.00086673966 -0.004927195 3.4500962e-09
3.7368526e-09 -0.0027883707 0.0039014032 -0.00039365725 -0.0031077175 -0.0019675689 -0.0017342418 0.0005487122
0.0006894721 -0.001784718 4.6292433e-05 0.0024705138 0.0013095938 -0.0009278157 -0.0004166825 0.00054447376
-0.00051392964 -1.830518e-06 -0.00041482755 -0.0018972056 -0.0010452485 0.0029205177 -0.0006328474 0.00048268263
-0.00069955824 -0.0015885873 0.00079232315 -0.0007260318 0.0058551324 -0.00088666915 0.00085519266 -0.0011273548
-0.00042445183 0.0011817978 -0.0002812243 -6.5879416e-05 -0.0032112761 -7.649066e-17 -0.002076426 0.000999792
-0.001593223 -0.0018834497 -0.0033211634 -0.0036678948 -0.0012959597 -0.00027458364 -0.00016345008 -0.0014938838
-0.0014783764 2.584824e-05 0.0009564338 1.42490735e-05 -0.0009939296 -0.00059442903 -0.0052122143 -0.0015672494
-0.002901728 0.0011428167 -0.00022942212 0.0024646649 0.0005772 -0.0017796403 -0.0013316203 -0.0028396177
1.8686053e-18 -0.0025995816 -0.0017357476 -8.434648e-06 -0.0013520797 2.1726353e-11 -0.001702564 -3.1549313e-21
0.00023986411 3.451723e-05 -0.0009791326 -9.3615225e-15 -0.0021316798 -1.7396432e-13 0.004121002 -0.00045089243
-9.609962e-11 -7.789721e-05 -0.0019869425 0.0014322157 -0.0017658505 -1.0417993e-13 -0.0036839172 -0.0015974952
-0.00090941216 -0.002544185 -0.0007832053 -0.0017633804 -0.00064500724 -0.004231117 -3.564922e-10 -0.0028897417
3.960746e-16 -0.0005625221 -0.0005659319 -0.001630807 -0.0012663532 0.00035184022 -0.00061134493 0.0005554064
00000000: b7b4 a0b9 9e89 7bba a8af d5ba e02d ad39
00000010: 3828 cbba e547 a4ba 18a8 e7ba 2d4d 733a
00000020: 8ed3 c0ba 6c5c cfba 3e92 173b 7f50 28bb
00000030: 49eb bbb1 e281 853a 5f16 552b 25ad 5cbb
00000040: 0e6b 14bb 4cad 13b9 d4e1 9a39 e58c 8eba
00000050: 27dc e738 ea35 63ba 4f74 a1bb bc16 6d31
00000060: b465 8031 19bd 36bb afae 7f3b c863 ceb9
00000070: d9aa 4bbb 54f2 00bb 804f e3ba 74d7 0f3a
00000080: b0bd 343a 33ed e9ba 1f2a 4238 58e8 213b
00000090: ada6 ab3a a838 73ba 2e76 dab9 04bb 0e3a
000000a0: 3cb9 06ba 1fb0 f5b5 367d d9b9 a8ab f8ba
000000b0: b800 89ba 2866 3f3b ace5 25ba 9110 fd39
000000c0: 8f62 37ba 2538 d0ba e8b3 4f3a 2b53 3eba
000000d0: 69dc bf3b 5c6f 68ba 022f 603a c0c3 93ba
000000e0: f688 deb9 8ee6 9a3a 4971 93b9 be28 8ab8
000000f0: 4674 52bb 1e60 b0a4 a614 08bb 740b 833a
00000100: b1d3 d0ba 16de f6ba e0a7 59bb 1061 70bb
00000110: 31dd a9ba fef5 8fb9 cc63 2bb9 6cce c3ba
00000120: 15c6 c1ba acd4 d837 30b9 7a3a 4e0f 6f37
00000130: be46 82ba 75d3 1bba 39cb aabb 2a6c cdba
00000140: eb2a 3ebb 91ca 953a 0891 70b9 3786 213b
00000150: 3c4f 173a d242 e9ba c389 aeba e118 3abb
00000160: f5e0 0922 be5d 2abb 0682 e3ba 8a82 0db7
00000170: 4438 b1ba 661b bf2d 9128 dfba 3f61 6e9d
00000180: 0884 7b39 98c6 1038 3d56 80ba 67a4 28a8
00000190: a7b3 0bbb cddd 43aa 7809 873b c265 ecb9
000001a0: 4753 d3ae bf5c a3b8 5d37 02bb 2fb9 bb3a
000001b0: 1c74 e7ba a497 eaa9 e06d 71bb 0b63 d1ba
000001c0: 9e65 6eba 57bc 26bb 0550 4dba 3a21 e7ba
000001d0: b415 29ba 2fa5 8abb d1fb c3af d261 3dbb
000001e0: 4b52 e425 3876 13ba 0c5b 14ba cdc0 d5ba
000001f0: c3fb a5ba 3277 b839 aa42 20ba b198 113a

action_model._discrete_distribution.branches.0.weight f4 [3, 128]
-0.02266137 -0.006049623 -0.013660973 0.011092828 -0.014102247 -0.0030995389 1.7234168e-05 0.0064135254
0.009262424 -0.00032840917 0.0017536065 0.008698814 0.0030116579 -0.00050308375 0.00015655407 -0.0013026599
-0.007925952 0.00064483535 -0.0006829706 -0.00043046466 -0.005054134 0.01876601 -0.0031791895 -0.0011009919
0.01867783 -0.0074924924 -0.0006215268 -0.018981166 0.012490721 0.0045101885 0.005566223 0.0022512716
0.0020019542 -0.0068116602 -0.00311024 -0.0005870346 0.0010041354 -0.0020619384 -0.009208027 -0.005266079
0.005746024 0.0028115308 -0.0008479126 -0.0023714942 -0.003730977 0.01689708 0.005639914 0.01022367
-0.018735563 0.0052428492 -0.0023998113 0.013260118 -0.0011044864 0.0030595018 0.008422968 0.003514438
-0.006123637 -0.00084993243 -0.0004489461 -0.0054203016 -0.0063022217 -0.0005782286 0.004084765 -0.0017938531
0.015196737 0.0032927473 0.00645798 -0.010433033 -0.0043854835 0.015068254 0.005339729 -0.011280631
0.0014158578 -0.0057891365 0.02704999 -0.015785111 0.012182305 0.0020825195 -0.0061204024 -0.0073105465
-0.0022944924 0.002639278 0.008794983 -0.013041958 -0.0054495484 0.008537853 0.0012918117 -0.004277942
0.0032761053 0.0092125265 0.01296084 -0.003988575 0.006205605 -0.0026864016 -0.00086943374 -0.00018722289
-0.00883153 0.0047565033 -0.006360245 0.0052754562 0.002496684 0.007862903 0.023749828 -7.9105914e-05
0.014377295 0.019454181 -0.01016629 0.00033553626 -0.0061303857 -0.009258087 0.005975406 -0.015317418
-0.01616643 0.009620888 -0.0039106687 -0.009606621 0.0023636585 0.012913236 0.01007778 0.006694542
0.0031953312 0.008406266 -0.011591379 0.0054804455 -0.006722224 -0.006281889 -0.009690207 0.01061606
-0.006283404 0.00071946904 -0.0060480046 -0.0012643187 -0.004594228 0.012382199 0.012768821 -0.0011330056
-0.018230215 -0.0037577034 0.0075986623 0.007831587 0.005756538 -0.012424911 0.010616176 0.0026398243
0.0031457993 0.012670146 0.0018424946 0.000803991 -0.018462947 -0.01125827 -0.006759226 -0.012539482
0.011110795 -0.001237348 0.0065307384 0.01594782 0.0025674019 -0.00020498184 -0.013238198 -0.012917382
-0.0003775963 -0.0092314705 0.0008119238 -0.010817581 0.0050245035 -0.010600748 -0.0012230154 -0.009302223
0.011279195 -0.0047577675 0.012133367 0.0040018884 0.0017363708 -0.017691048 0.00223669 0.0036493868
0.00485901 0.010457517 -0.011539266 -0.0009459233 -0.0149071 -0.012654975 0.020415463 -0.009623573
-0.0078342 -0.016465463 -0.011878365 0.00755665 0.0039428193 0.006634445 0.010588304 0.018261012
0.0035812554 -0.017225243 0.001306489 -0.0106203025 0.012302624 -0.011700503 -0.00015402792 0.02061749
0.012522703 0.0077036265 -0.0041538784 0.009325173 0.00014128043 0.012964256 -0.008721326 0.005072882
-0.017837461 -0.004735596 -0.0020640464 0.0036479293 -0.012073493 0.0017732241 0.010261902 -0.0031660553
-0.011916657 -0.00882509 0.009077144 -0.0063638086 0.010990347 0.0013507105 -0.0062334705 -0.0066602095
0.001882462 0.011496628 0.0002696825 -0.00435933 0.0008447407 -0.00829552 -0.009597912 0.009904171
0.009890979 0.006616647 0.0040460723 -0.0072156554 -0.008628738 -0.015553117 0.0057218145 0.007826601
0.004515334 0.0038186128 -0.0018115628 -0.01621658 0.008896308 0.008680759 -0.0056237727 0.0003160932
0.0035592448 -0.00013054143 0.007377102 0.011326234 -0.029045524 0.0037465363 -0.0019082001 -0.009502299
00000000: 56a4 b9bc ea3b c6bb 46d2 5fbc b1be 353c
00000010: 1c0d 67bc a221 4bbb 1892 9037 8d28 d23b
00000020: 6cc1 173c 552e acb9 45d9 e53a 7885 0e3c
00000030: 3c5f 453b 61e1 03ba aa28 2439 03be aaba
00000040: dadb 01bc 2b0a 293a 6209 33ba fdaf e1b9
00000050: 269d a5bb 2dbb 993c f359 50bb 284f 90ba
00000060: 4002 993c 9583 f5bb f5ed 22ba 647e 9bbc
00000070: e2a5 4c3c 34ca 933b dd64 b63b 128a 133b
00000080: 3833 033b 5934 dfbb 2bd5 4bbb 3ae3 19ba
00000090: 319d 833a 9621 07bb 44dd 16bc 138f acbb
000000a0: 2549 bc3b a941 383b 7446 5eba 126b 1bbb
000000b0: 6883 74bb bf6b 8a3c 07cf b83b 2e81 273c
000000c0: 537b 99bc 35cc ab3b 2746 1dbb f740 593c
000000d0: 6ac4 90ba ec81 483b 7d00 0a3c 7c52 663b
000000e0: caa8 c8bb 00ce 5eba 8760 ebb9 c99c b1bb
000000f0: de82 cebb 4494 17ba 7ed9 853b b91f ebba
00000100: bcfb 783c 22cb 573b 769d d33b 50ef 2abc
00000110: 1ab4 8fbb d7e0 763c e5f8 ae3b 65d2 38bc
00000120: 4e94 b93a ccb2 bdbb f197 dd3c c74f 81bc
00000130: 4a98 473c e17a 083b a88d c8bb 4f8d efbb
00000140: 325f 16bb bdf7 2c3b d518 103c f0ad 55bc
00000150: 2092 b2bb 5ae2 0b3c 0252 a93a fa2d 8cbb
00000160: edb3 563b 23f0 163c b459 543c 98b2 82bb
00000170: 6358 cb3b 570e 30bb b6ea 63ba 4351 44b9
00000180: 1fb2 10bc 71dc 9b3b 9a69 d0bb bcdd ac3b
00000190: 689f 233b 68d3 003c 008f c23c aae5 a5b8
000001a0: bf8e 6b3c 605e 9f3c 8390 26bc eaea af39
000001b0: 67e1 c8bb 3baf 17bc 57cd c33b e8f5 7abc
000001c0: 766f 84bc eea0 1d3c 1125 80bb 1765 1dbc
000001d0: 9ce7 1a3b 0a92 533c 461d 253c e35d db3b
000001e0: c368 513b 6fba 093c c4e9 3dbc 4f95 b33b
000001f0: 1a46 dcbb 4ed8 cdbb adc3 1ebc fcee 2d3c
00000200: 03e5 cdbb c09a 3c3a 572e c6bb 7fb7 a5ba
00000210: 2e8b 96bb b5de 4a3c 5134 513c 5c81 94ba
00000220: 8857 95bc cd43 76bb 33fe f83b 0f50 003c
00000230: 57a1 bc3b db91 4bbc 78ef 2d3c e700 2d3b
00000240: c129 4e3b 7296 4f3c dc7f f13a ecc2 523a
00000250: 9b3f 97bc 9b74 38bc 7f7c ddbb 6672 4dbc
00000260: 0d0a 363c 822e a2ba ceff d53b 01a5 823c
00000270: db41 283b 65f0 56b9 07e5 58bc 6da3 53bc
00000280: 1ef8 c5b9 983f 17bc 49d7 543a 393c 31bc
00000290: 97a4 a43b c2ae 2dbc 964d a0ba 5a68 18bc
000002a0: 5fcc 383c 0ce7 9bbb 08cb 463c 4622 833b
000002b0: f096 e33a d1ec 90bc 6e95 123b 8d2a 6f3b
000002c0: 5538 9f3b 0156 2b3c 310f 3dbc d7f7 77ba
000002d0: e93c 74bc d056 4fbc 543e a73c 31ac 1dbc
000002e0: 045b 00bc 94e2 86bc 799d 42bc c69d f73b
000002f0: c432 813b c265 d93b 917a 2d3c 1e98 953c
00000300: 7fb3 6a3b f41b 8dbc 7f3e ab3a c700 2ebc
00000310: f290 493c 77b3 3fbc 8e82 21b9 03e6 a83c
00000320: 062c 4d3c b46e fc3b 421d 88bb 9cc8 183c
00000330: ad24 1439 0868 543c e4e3 0ebc 6b3a a63b
00000340: de1f 92bc 0f2d 9bbb f444 07bb 1912 6f3b
00000350: e6cf 45bc 876b e83a 8921 283c 987d 4fbb
00000360: 153e 43bc 1c97 10bc 4db8 143c 7f87 d0bb
00000370: db10 343c 530a b13a 2442 ccbb e33d dabb
00000380: f1bc f63a 5a5c 3c3c 2c64 8d39 b6d8 8ebb
00000390: 9771 5d3a efe9 07bc 9040 1dbc 1b45 223c
000003a0: c60d 223c 75d0 d83b ea94 843b 4e71 ecbb
000003b0: 8d5f 0dbc 80d2 7ebc 0f7e bb3b 253b 003c
000003c0: 5ef5 933b b141 7a3b f671 edba a2d8 84bc
000003d0: d2c1 113c be39 0e3c a047 b8bb 50b9 a539
000003e0: 3842 693b f3e1 08b9 9ebb f13b ab91 393c
000003f0: e1f0 edbc 7388 753b 921c faba 88af 1bbc

action_model._discrete_distribution.branches.0.bias f4 [3]
0.00010152056 -0.0010632976 0.0015383858
00000000: 70e7 d438 595e 8bba a9a3 c93a

action_model._discrete_distribution.branches.1.weight f4 [3, 128]
0.01421766 -0.0025972351 0.0062146583 0.0008793246 0.007736208 -0.004042524 -0.0066819736 0.012716904
-0.0024896339 0.0010619947 0.008220541 0.0034567015 0.0059435093 0.00018853271 0.022065362 0.005993171
-0.003475185 0.018614767 -0.016548865 0.012011499 0.0009435734 0.008759367 -0.0023575532 0.005983365
-0.0010327622 0.00491252 -0.013456661 0.00201042 0.00011724563 -0.001160829 0.0010201395 5.3334166e-05
-0.007954158 0.012768549 0.0044109803 -0.007127752 -0.010526461 -0.006246977 -0.017127443 -0.0059709568
0.005635466 -0.0007400989 0.016725857 -0.0026870589 0.014859279 -0.014024152 0.010683065 -0.012634701
-0.022338668 0.006648561 -0.012670844 0.012183022 -0.0020465432 0.004339005 0.018458685 -0.010059647
0.0027879162 0.010463523 -0.021815727 -0.01758974 0.0003694431 0.009116106 0.015580318 -0.0021543175
0.010308638 0.007876982 -0.00036847696 -0.000829203 -0.0065705148 0.00862745 -0.0068056094 0.014896613
-0.004673248 0.0019927805 -0.014268136 0.014691261 -0.004547154 0.006280961 -0.0019935868 -0.0070168115
0.010434491 0.0076839263 -0.009878603 0.001013155 -0.014416121 -0.007092725 0.014786404 0.003613386
0.015013726 0.008480945 -0.008796358 0.012682194 0.019846113 -0.0075717354 0.008299176 -0.008278099
-0.0009850208 0.0028991993 0.0016686638 -0.0021865077 0.0025678198 0.010071634 0.0044905078 0.015095563
0.008444074 0.00033111934 -0.0023159725 -0.0050911247 0.006081705 0.011162694 0.008611757 0.017867612
0.0019361236 0.00956013 -0.017338641 -0.024790695 -0.0057531255 0.0055400534 -0.0030682357 0.010228281
0.010085402 -0.011674871 0.00075330184 -0.006568104 -0.0077044563 -0.021986363 0.00069734006 0.011773883
-0.003392615 -0.0027446006 0.0019316529 0.0061508953 0.0058858264 0.004941886 -0.0060901996 -0.011662868
-0.01409548 -0.004392399 -0.013914381 -0.0049652886 0.0022865022 0.009640426 0.00031480397 0.013084707
-0.0009493371 0.0020780833 0.00621765 -0.007863662 -0.009878496 0.0010533155 -0.0059476593 0.0057199686
0.001507117 0.0018990976 -0.0047916 0.00849559 -0.00064421544 0.013603299 -0.0071179406 -0.001705088
0.0052925637 0.006739788 -0.00086110557 0.0092417 0.000684792 -0.0018127197 -0.005615255 0.010491996
0.008927801 0.015535658 -0.010738858 0.0022422753 0.0123009775 0.005717045 -0.007982457 0.0052168914
0.0050946767 -0.027853511 0.0014412801 0.000976797 0.026841864 0.0023171671 -0.0068315445 0.0020860112
0.005086666 0.01569788 -0.007519028 0.0089732 -0.0033584635 0.006921574 0.016532814 -0.012037119
-0.0023439762 0.004435046 -0.0054597873 -0.0009688498 -0.008352435 -0.0006309421 -0.009599018 0.004340276
-0.0036332475 0.0065731984 -0.0019913267 0.0007797786 -0.0035081601 -0.003971078 -0.010025491 -0.0019457855
-0.0015712911 0.0068866187 0.008003036 -0.00838393 -0.008345128 -0.0011486759 0.0040576016 -0.00909227
-0.011925294 -0.004186652 -0.005235891 0.0063876132 -0.0044297767 0.00066249515 0.0049574045 -0.00581944
0.011106112 0.008626193 -0.0019441468 0.010444634 0.01269567 0.026721487 0.012188171 0.008022763
-0.020894615 -0.012298735 -0.0065412624 0.009740187 -0.006078414 -0.00769823 -0.003363835 -0.0011637569
0.0014003085 0.0008546075 0.011022414 -0.0062128524 -0.0116994735 0.00635599 0.006119121 0.0003798882
-0.00244841 0.002171572 7.4556185e-05 -0.007936357 0.0040912074 0.0009011567 0.0022273292 0.0070319
00000000: 30f1 683c 6036 2abb 55a4 cb3b 7a82 663a
00000010: 0480 fd3b 2677 84bb 75f4 dabb 905a 503c
00000020: 2029 23bb a132 8b3a 73af 063c d489 623b
00000030: c5c1 c23b ddb0 4539 6bc2 b43c 5d62 c43b
00000040: eebf 63bb ff7d 983c 7c91 87bc e1cb 443c
00000050: 245a 773a 7383 0f3c 2e81 1abb 1a10 c43b
00000060: c05d 87ba 34f9 a03b 5479 5cbc 40c1 033b
00000070: c5e1 f538 f526 98ba 34b6 853a 20b3 5f38
00000080: 2852 02bc 2d33 513c fc89 903b eb8f e9bb
00000090: 2d77 2cbc 71b3 ccbb da4e 8cbc 04a8 c3bb
000000a0: b7a9 b83b 3203 42ba aa04 893c 5e19 30bb
000000b0: 5574 733c 8fc5 65bc 0608 2f3c c701 4fbc
000000c0: 95ff b6bc 2cdc d93b 5f99 4fbc 4c9b 473c
000000d0: 4c1f 06bb 362e 8e3b ab36 973c 38d1 24bc
000000e0: 79b5 363b 326f 2b3c e5b6 b2bc 5c18 90bc
000000f0: d0b1 c139 b85b 153c 9744 7f3c 732f 0dbb
00000100: 90e5 283c 750e 013c 2430 c1b9 df5e 59ba
00000110: 794d d7bb 265a 0d3c 9701 dfbb ec10 743c
00000120: 0c22 99bb 4f99 023b e6c4 69bc 9db3 703c
00000130: 4b00 95bb 85d0 cd3b d6a6 02bb 48ed e5bb
00000140: 6df5 2a3c 72c9 fb3b ddd9 21bc d7cb 843a
00000150: 9831 6cbc 176a e8bb ac42 723c 8fce 6c3b
00000160: 22fc 753c a9f3 0a3c 991e 10bc fac8 4f3c
00000170: 5194 a23c 521c f8bb 44f9 073c dda0 07bc
00000180: d01b 81ba 7e00 3e3b 11b7 da3a 834b 0fbb
00000190: de48 283b 7f03 253c 1c25 933b 6153 773c
000001a0: 0359 0a3c 169a ad39 92c7 17bb 73d3 a6bb
000001b0: 0a49 c73b bbe3 363c 5418 0d3c 195f 923c
000001c0: 87c5 fd3a 17a2 1c3c c409 8ebc db15 cbbc
000001d0: b784 bcbb 5689 b53b 7414 49bb 8594 273c
000001e0: 3e3d 253c f547 3fbc 3b79 453a 4039 d7bb
000001f0: aa75 fcbb bf1c b4bc b3cd 363a 3fe7 403c
00000200: a256 5ebb c2de 33bb 842f fd3a 738d c93b
00000210: e4dd c03b 8bef a13b 4c90 c7bb 9d15 3fbc
00000220: baf0 66bc 1dee 8fbb 25f9 63bc dcb3 a2bb
00000230: 24d9 153b e1f2 1d3c 460c a539 3d61 563c
00000240: efdc 78ba 7430 083b 6ebd cb3b 97d6 00bc
00000250: 6ad9 21bc 670f 8a3a 95e4 c2bb 936e bb3b
00000260: 748a c53a 24eb f83a db02 9dbb 1631 0b3c
00000270: 91e0 28ba 5fe0 5e3c 9d3d e9bb 427d dfba
00000280: 3e6d ad3b 71d9 dc3b d1bb 61ba 806a 173c
00000290: 9d83 333a c898 edba 2c00 b8bb 9fe6 2b3c
000002a0: e945 123c 4689 7e3c 09f2 2fbc 23f3 123b
000002b0: 0a8a 493c 0d56 bb3b dac8 02bc 75f2 aa3b
000002c0: 3ff1 a63b 0c2d e4bc 56e9 bc3a de07 803a
000002d0: 78e3 db3c 9ddb 173b 26db dfbb 76b5 083b
000002e0: 0cae a63b d798 803c 2e62 f6bb 5404 133c
000002f0: ab19 5cbb 5fce e23b d36f 873c 5637 45bc
00000300: 659d 19bb dd53 913b 04e8 b2bb 69fa 7dba
00000310: a7d8 08bc cf65 25ba 3345 1dbc e038 8e3b
00000320: c71b 6ebb fc63 d73b eb80 02bb 0e6a 4c3a
00000330: 29e9 65bb d11f 82bb f541 24bc ba09 ffba
00000340: c8f3 cdba 25a9 e13b 2a1f 033c c05c 09bc
00000350: 01ba 08bc 2b8f 96ba a1f5 843b bff7 14bc
00000360: 4f62 43bc 2f30 89bb d691 abbb 2f4f d13b
00000370: a927 91bb 4cab 2d3a b971 a23b 00b1 bebb
00000380: 69f6 353c e054 0d3c bed2 feba f81f 2b3c
00000390: 8001 503c 05e7 da3c e5b0 473c e871 033c
000003a0: 2f2b abbc a280 49bc 1658 d6bb 4e95 1f3c
000003b0: 6f2d c7bb 6f41 fcbb c973 5cbb 3489 98ba
000003c0: 8e8a b73a bd07 603a 5b97 343c 2f95 cbbb
000003d0: 26af 3fbc e945 d03b e882 c83b bb2b c739
000003e0: 8175 20bb ef50 0e3b 0c5b 9c38 7e07 02bc
000003f0: 890f 863b 9a3b 6c3a 62f8 113b da6b e63b

action_model._discrete_distribution.branches.1.bias f4 [3]
-0.0008140185 0.0013796397 -0.0004593337
00000000: db63 55ba 07d5 b43a bad2 f0b9

action_model._discrete_distribution.branches.2.weight f4 [1, 128]
0.000387734 0.0026049553 -0.0033615753 -0.006022632 0.0037175806 -0.012555691 -0.0016202837 -0.023605673
-0.0032863237 -0.0054560932 -0.0063235625 0.00075287424 -0.007983468 -0.0019179423 0.0001759227 0.00878807
-0.01219043 0.012584336 0.0012369277 0.0214605 -0.01146655 0.0020675818 0.016758515 -0.0078597395
0.018689867 0.010239978 0.012908694 -0.0043560565 0.025408983 0.00365978 0.0027935943 -0.01880354
0.00037066612 -0.008143637 0.0018428297 -0.012459036 0.01717525 0.003356088 -0.0059230286 0.0170252
-0.008394259 -0.0019020226 -0.0035667454 0.0027629354 0.0036502786 -0.008346419 -0.0062910914 -0.015245052
0.0044004247 -0.0029223328 0.0037387523 -0.01458208 -0.00060817105 0.00093604403 -0.0014598494 0.0027821392
-0.012072764 -0.00216607 0.0010730929 -0.006649452 -0.007576941 0.008993572 -0.0060671074 -0.005126528
-0.006598312 -0.00777136 0.000324954 -0.016737498 -0.0096452255 0.0072658206 0.007874566 -0.00011593907
0.0015760489 0.00047633072 0.0075550857 -0.00082346844 0.016385658 -0.014182143 0.00585556 -0.0039867717
0.0002507883 -0.011827946 -0.00626809 -0.0076189027 0.0052971593 0.0016157447 0.005587827 -0.00699773
-0.01332283 0.0013651893 -4.6153837e-05 -0.0016324923 -0.0063578836 0.00043162206 0.014370488 -0.014370533
0.012619066 -0.0043063397 0.011787451 0.0006199514 0.0034624885 -0.015591129 0.003720042 -0.017882902
0.01200368 0.0024379003 0.008350069 0.0054420964 -0.002337892 -0.008172471 -0.0018220184 5.0550857e-06
0.007824708 0.0013566501 0.0032220155 0.006213636 0.00632219 0.0027025582 -0.0022954736 -0.0073861913
-0.0013117915 0.00064850395 0.0011228746 -0.003958427 0.011046157 0.010766651 -0.0033204225 -0.00261893
00000000: c748 cb39 e6b7 2a3b e04d 5cbb 8059 c5bb
00000010: a7a2 733b 63b6 4dbc b35f d4ba af60 c1bc
00000020: 5d5f 57bb 07c9 b2bb e335 cfbb 895c 453a
00000030: 17cd 02bc 7763 fbba e477 3839 d6fb 0f3c
00000040: 5fba 47bc 882e 4e3c 6820 a23a eecd af3c
00000050: 32de 3bbc 4480 073b 2749 893c 23c6 00bc
00000060: 7e1b 993c 95c5 273c fd7e 533c 40bd 8ebb
00000070: 8026 d03c ebd8 6f3b bc14 373b e209 9abc
00000080: f755 c239 e46c 05bc 1b8b f13a fc20 4cbc
00000090: 1cb3 8c3c d0f1 5b3b f715 c2bb 6f78 8b3c
000000a0: 1388 09bc 4a4d f9ba 0fc0 69bb 5d12 353b
000000b0: 8339 6f3b 6bbf 08bc 8025 cebb 62c6 79bc
000000c0: 7031 903b 9c84 3fbb db05 753b ade9 6ebc
000000d0: ab6d 1fba da60 753a 6b58 bfba 8d54 363b
000000e0: d8cc 45bc a0f4 0dbb 06a7 8c3a a5e3 d9bb
000000f0: fd47 f8bb c659 133c 96ce c6bb 6ffc a7bb
00000100: a736 d8bb e5a6 febb 965e aa39 141d 89bc
00000110: 0207 1ebc 1f16 ee3b 5304 013c 5024 f3b8
00000120: 6d93 ce3a 07bc f939 a790 f73b 08de 57ba
00000130: 373b 863c 385c 68bc ffdf bf3b 77a3 82bb
00000140: 3c7c 8339 00ca 41bc 8d64 cdbb fda7 f9bb
00000150: cb93 ad3b 65c7 d33a 171a b73b 374d e5bb
00000160: 0048 5abc 27f0 b23a 4e95 41b8 5af9 d5ba
00000170: cb55 d0bb 554b e239 3272 6b3c 6272 6bbc
00000180: 33c0 4e3c 321c 8dbb 2720 413c 3c84 223a
00000190: ebea 623b ef71 7fbc f3cb 733b 2a7f 92bc
000001a0: 15ab 443c 2ec5 1f3b bace 083c 9d53 b23b
000001b0: 5237 19bb d4e5 05bc cbd0 eeba db9e a936
000001c0: 3433 003c a0d1 b13a 7328 533b c29b cb3b
000001d0: 602a cf3b 671d 313b a86f 16bb dd07 f2bb
000001e0: 6bf0 abba 5d00 2a3a 6b2d 933a b1b5 81bb
000001f0: f1fa 343c 9b66 303c 729b 59bb 5ba2 2bbb
