results/test1/ControlCar/ControlCar-6641.onnx (onnx, 82320 bytes, 8 tensors)

discrete_act_size_vector f4 [1, 3]
0	0x40400000	3.0
1	0x40400000	3.0
2	0x3f800000	1.0

network_body._body_endoder.seq_layers.0.weight f4 [128, 6]
0	0x3f931f2e	1.149389
1	0xbe3a3053	-0.18182497
2	0xbeaea817	-0.34112617
3	0xbe0c7429	-0.13716187
4	0xbef845bb	-0.484907
5	0x3db4c8d6	0.08827369
6	0x3ef369b0	0.4754157
7	0xbeff6e75	-0.4988896
8	0xbd88ceea	-0.06680091
9	0xbd020c70	-0.031750143
10	0x3e0848c0	0.13309002
11	0xbba88120	-0.005142346
12	0xbcbb4b4b	-0.02286305
13	0x3ed6c5a3	0.4194766
14	0x3f0317ca	0.51208174
15	0x3eb2ffa4	0.34960663
16	0xbdf07858	-0.11741704
17	0xbca402be	-0.020020839
18	0x3d520976	0.051278554
19	0x3ee765be	0.4519481
20	0xbe623c1c	-0.22093242
21	0xbe58e624	-0.21181542
22	0x3f266f96	0.65014017
23	0xbd6cdbee	-0.05782693
24	0x3e80f1a6	0.25184363
25	0x3ee499c0	0.44648552
26	0x3f165049	0.58716255
27	0x3da8ce0d	0.08242426
28	0x3ec337e5	0.38128582
29	0xbea7728d	-0.32704583
30	0x3d78aa56	0.06070932
31	0x3d06b85f	0.032890674
32	0xbbe198f1	-0.006884687
33	0x3eef15e8	0.466964
34	0x3dc1d3df	0.09464239
35	0x3f1bc8ad	0.6085308
36	0x3ce37f7a	0.027770746
37	0x3eaae8a9	0.3338063
38	0x3e91a621	0.2844706
39	0xbdf5adcc	-0.1199604
40	0x3ee14632	0.43998867
41	0xbd992784	-0.0747824
42	0x3d92f5ac	0.071757644
43	0x3eeba64f	0.4602532
44	0xbeaa74ce	-0.3329224
45	0xbf1010c7	-0.562756
46	0xbf0bc5a6	-0.5459846
47	0x3f408b86	0.75212896
48	0xbd0671bd	-0.032823313
49	0xbf121f2d	-0.5707882
50	0xbec27343	-0.37978563
51	0xbe13a793	-0.14419393
52	0xbdb37fac	-0.08764586
53	0x3eb48bc1	0.35262874
54	0x3ebcedef	0.3690028
55	0xbebee263	-0.37282094
56	0xbed5cae9	-0.4175637
57	0x3cf42bfd	0.029806131
58	0x3e1482b2	0.14502981
59	0xbef889ea	-0.4854272
60	0xbdce9a61	-0.10088039
61	0xbf128814	-0.5723889
62	0x3e655e63	0.22399287
63	0xbcaddaf2	-0.021222565
64	0xbe13af32	-0.144223
65	0x3f102a01	0.5631409
66	0x3e528b92	0.20561054
67	0xbfa7595f	-1.3074149
68	0xbf8255b5	-1.0182406
69	0x3ed1c171	0.40967897
70	0xbec38da2	-0.38193995
71	0x3f463563	0.7742521
72	0xbe3f9889	-0.18710531
73	0x3df6f39e	0.12058185
74	0xbea76961	-0.32697585
75	0x3d22f166	0.039780997
76	0xbe8d5a11	-0.27607778
77	0xbf653ab5	-0.89542705
78	0xbec360ab	-0.3815969
79	0x3eaad3a0	0.33364582
80	0xbe9005e0	-0.28129482
81	0xbee4f6e5	-0.44719616
82	0x3f265b00	0.64982605
83	0xbdd0907c	-0.10183808
84	0xbf6220d8	-0.88331366
85	0xbf2146a4	-0.62998414
86	0x3e92ac4e	0.28647083
87	0xbeab2c3e	-0.33432192
88	0xbeabc1d3	-0.33546314
89	0xbf73b840	-0.9520302
90	0xbea44fe9	-0.32092217
91	0x3e3f76bc	0.18697637
92	0x3d8dc928	0.06923133
93	0xbcf8dd53	-0.030378973
94	0xbda2236a	-0.07916911
95	0xbe11131f	-0.1416745
96	0xbf812e98	-1.0092344
97	0x3f4a6fda	0.7907692
98	0xbed1b180	-0.40955734
99	0x3e4e3480	0.20137215
100	0x3f0613b1	0.52373797
101	0x3f437b9a	0.76360476
102	0xbc5cea96	-0.013483664
103	0x3e2e7283	0.1703587
104	0x3dea6136	0.11444323
105	0x3f03ea14	0.5152905
106	0xbd04962d	-0.03236978
107	0x3f8bdde9	1.0927097
108	0xbe956c30	-0.29184103
109	0xbe3489eb	-0.17630737
110	0xbeb3558c	-0.35026205
111	0x3e686605	0.22695167
112	0xbc1fc1ae	-0.009750767
113	0xbd17ed35	-0.037091453
114	0xbec8606c	-0.39136064
115	0xbe5b0db4	-0.21391946
116	0x3e848867	0.25885317
117	0x3dd3b94c	0.10338077
118	0xbe19d62a	-0.15023103
119	0x3ec1c8f2	0.37848622
120	0xbed888fd	-0.42292014
121	0x3f189eb4	0.5961716
122	0xbedda4d0	-0.43289804
123	0xbe0f7ec7	-0.14013205
124	0xbec83290	-0.39101076
125	0x3e91413e	0.28370088
126	0xbf882431	-1.0636045
127	0x3eeca615	0.4622046
128	0x3ed438e3	0.4144965
129	0x3e1e618d	0.154669
130	0x3f11ad26	0.5690483
131	0x3dda951f	0.10672974
132	0xbeba70dc	-0.3641423
133	0x3e11a089	0.14221396
134	0xbedb08d4	-0.42780173
135	0x3e374b84	0.178999
136	0x3e7e0b2c	0.24808949
137	0x3f2dcf76	0.67894685
138	0x3f2a1fd1	0.664548
139	0xbd94d7df	-0.07267737
140	0x3e3128a4	0.1730066
141	0x3e27fd7a	0.16405287
142	0xbd01b1a1	-0.03166354
143	0x3e0424cb	0.1290466
144	0x3e936160	0.2878523
145	0xbec5f3ff	-0.38662717
146	0xbeb7d9c8	-0.3590834
147	0xbf06da14	-0.5267651
148	0x3e59425f	0.21216725
149	0x3d8a0355	0.06738917
150	0x3e886d41	0.26645854
151	0x3f06520d	0.5246895
152	0xbf4f1be5	-0.8090194
153	0xbd8b528e	-0.068028554
154	0xbe327e0d	-0.17430897
155	0x3f8ec426	1.115361
156	0xbf0588ec	-0.5216205
157	0x3ede4856	0.43414563
158	0xbe84fcc1	-0.25974086
159	0x3f27685d	0.6539362
160	0xbe1a1d88	-0.15050328
161	0x3e8b5132	0.27210385
162	0xbeafd92d	-0.3434538
163	0xbe8aa390	-0.27077913
164	0xbe4ba891	-0.19888522
165	0xbc76e1be	-0.01506847
166	0x3f1545be	0.58309543
167	0x3daedd6e	0.08538328
168	0x3f001aab	0.5004069
169	0x3e98e680	0.29863358
170	0x3e46245f	0.19349812
171	0xbf1a2021	-0.60205275
172	0x3e9f2bd8	0.31088138
173	0xbd22abec	-0.03971474
174	0xbf3b9a5a	-0.73282397
175	0x3eeca4c2	0.4621945
176	0x3f041d40	0.5160713
177	0x3f12a85f	0.57288164
178	0xbd58f06f	-0.05296367
179	0x3caec86d	0.021335805
180	0x3eac5912	0.33661705
181	0xbe809e27	-0.2512066
182	0xbea81fb1	-0.3283668
183	0xbf2ee934	-0.6832459
184	0xbf004e7d	-0.50119764
185	0x3ee200b8	0.44141173
186	0xbcab2217	-0.020890279
187	0xbe858220	-0.2607584
188	0xbe376643	-0.17910103
189	0xbf38e7b5	-0.72228557
190	0x3ebdc75c	0.37066162
191	0x3f3d6156	0.7397665
192	0x3ec0ccef	0.37656352
193	0x3eabcc69	0.3355439
194	0x3f561167	0.83620304
195	0x3f0d80af	0.5527448
196	0x3e1ec67c	0.15505403
197	0x3f042f15	0.5163434
198	0x3dd14f06	0.10220151
199	0x3ed5513a	0.41663533
200	0xbe8abbe5	-0.27096477
201	0xbef4b1ce	-0.47791904
202	0x3f1708e7	0.5899796
203	0x3d80e9df	0.06294607
204	0xbeed2f72	-0.4632526
205	0x3ee73744	0.45159352
206	0xbe28e0f1	-0.16492058
207	0xbf036610	-0.5132761
208	0x3ea4ff9d	0.32226267
209	0x3f26afaf	0.6511182
210	0xbe59a3b5	-0.21253856
211	0x3f032245	0.51224166
212	0xbe7ecee4	-0.2488361
213	0xbd47e2ee	-0.0488004
214	0x3f0f3ef4	0.55955434
215	0x3ea2f80e	0.31829876
216	0x3f23e4f4	0.6402123
217	0xbdd66750	-0.10468924
218	0x3ee6fb4a	0.45113593
219	0xbf0f5f97	-0.56005234
220	0x3f6e347d	0.9304884
221	0xbd582b81	-0.052775864
222	0xbed2805e	-0.4111356
223	0x3b0c054a	0.0021365457
224	0xbd452bac	-0.048137352
225	0xbefe4abc	-0.49666393
226	0xbebe6131	-0.37183526
227	0xbe92eb7f	-0.28695294
228	0x3c82be4f	0.015959887
229	0xbeca29cf	-0.39485022
230	0xbeaf8312	-0.34279686
231	0xbe2fc2b0	-0.17164111
232	0xbf234f1d	-0.6379259
233	0xbf0895a8	-0.5335336
234	0xbd66ba70	-0.056330144
235	0x3ee85226	0.45375174
236	0xbe9cfef4	-0.30663264
237	0xbf09fd9d	-0.5390261
238	0xbe26724a	-0.16254535
239	0x3e45c21b	0.19312327
240	0xbf0ddae4	-0.55412126
241	0x3d009d16	0.03139981
242	0xbe1a7b19	-0.1508602
243	0x3ea285e4	0.31742775
244	0x3f6e8e2a	0.93185675
245	0xbed48cf9	-0.41513804
246	0xbe5187f3	-0.20462017
247	0xbe45905a	-0.19293347
248	0xbe6740ef	-0.22583364
249	0xbe121d16	-0.14268908
250	0xbdf202e4	-0.118169576
251	0xbca68110	-0.020325214
252	0x3f01d5ea	0.5071703
253	0x3ed015ff	0.40641782
254	0xbe3a1137	-0.1817063
255	0x3dd8cd9d	0.105860926

network_body._body_endoder.seq_layers.0.bias f4 [128]
0	0x00000000	0.0
1	0x00000000	0.0
2	0x00000000	0.0
3	0x00000000	0.0
4	0x00000000	0.0
5	0x00000000	0.0
6	0x00000000	0.0
7	0x00000000	0.0
8	0x00000000	0.0
9	0x00000000	0.0
10	0x00000000	0.0
11	0x00000000	0.0
12	0x00000000	0.0
13	0x00000000	0.0
14	0x00000000	0.0
15	0x00000000	0.0
16	0x00000000	0.0
17	0x00000000	0.0
18	0x00000000	0.0
19	0x00000000	0.0
20	0x00000000	0.0
21	0x00000000	0.0
22	0x00000000	0.0
23	0x00000000	0.0
24	0x00000000	0.0
25	0x00000000	0.0
26	0x00000000	0.0
27	0x00000000	0.0
28	0x00000000	0.0
29	0x00000000	0.0
30	0x00000000	0.0
31	0x00000000	0.0
32	0x00000000	0.0
33	0x00000000	0.0
34	0x00000000	0.0
35	0x00000000	0.0
36	0x00000000	0.0
37	0x00000000	0.0
38	0x00000000	0.0
39	0x00000000	0.0
40	0x00000000	0.0
41	0x00000000	0.0
42	0x00000000	0.0
43	0x00000000	0.0
44	0x00000000	0.0
45	0x00000000	0.0
46	0x00000000	0.0
47	0x00000000	0.0
48	0x00000000	0.0
49	0x00000000	0.0
50	0x00000000	0.0
51	0x00000000	0.0
52	0x00000000	0.0
53	0x00000000	0.0
54	0x00000000	0.0
55	0x00000000	0.0
56	0x00000000	0.0
57	0x00000000	0.0
58	0x00000000	0.0
59	0x00000000	0.0
60	0x00000000	0.0
61	0x00000000	0.0
62	0x00000000	0.0
63	0x00000000	0.0
64	0x00000000	0.0
65	0x00000000	0.0
66	0x00000000	0.0
67	0x00000000	0.0
68	0x00000000	0.0
69	0x00000000	0.0
70	0x00000000	0.0
71	0x00000000	0.0
72	0x00000000	0.0
73	0x00000000	0.0
74	0x00000000	0.0
75	0x00000000	0.0
76	0x00000000	0.0
77	0x00000000	0.0
78	0x00000000	0.0
79	0x00000000	0.0
80	0x00000000	0.0
81	0x00000000	0.0
82	0x00000000	0.0
83	0x00000000	0.0
84	0x00000000	0.0
85	0x00000000	0.0
86	0x00000000	0.0
87	0x00000000	0.0
88	0x00000000	0.0
89	0x00000000	0.0
90	0x00000000	0.0
91	0x00000000	0.0
92	0x00000000	0.0
93	0x00000000	0.0
94	0x00000000	0.0
95	0x00000000	0.0
96	0x00000000	0.0
97	0x00000000	0.0
98	0x00000000	0.0
99	0x00000000	0.0
100	0x00000000	0.0
101	0x00000000	0.0
102	0x00000000	0.0
103	0x00000000	0.0
104	0x00000000	0.0
105	0x00000000	0.0
106	0x00000000	0.0
107	0x00000000	0.0
108	0x00000000	0.0
109	0x00000000	0.0
110	0x00000000	0.0
111	0x00000000	0.0
112	0x00000000	0.0
113	0x00000000	0.0
114	0x00000000	0.0
115	0x00000000	0.0
116	0x00000000	0.0
117	0x00000000	0.0
118	0x00000000	0.0
119	0x00000000	0.0
120	0x00000000	0.0
121	0x00000000	0.0
122	0x00000000	0.0
123	0x00000000	0.0
124	0x00000000	0.0
125	0x00000000	0.0
126	0x00000000	0.0
127	0x00000000	0.0

network_body._body_endoder.seq_layers.2.weight f4 [128, 128]
0	0x3d85902e	0.06521641
1	0xbe2c9252	-0.16852692
2	0xbe23c85e	-0.15994403
3	0xbdaf4f31	-0.085600264
4	0xbc4d1d0d	-0.012519133
5	0x3d168598	0.0367485
6	0x3d6cf0bd	0.057846773
7	0xbd117355	-0.03551038
8	0xbcbfb2aa	-0.023400623
9	0xbd96f365	-0.073706426
10	0x3c241c36	0.010016492
11	0xbd9db279	-0.077000566
12	0x3d326116	0.04354962
13	0x3d6f11e4	0.05836667
14	0x3da7ac89	0.08187205
15	0xbd96b9cf	-0.07359659
16	0xbdcb8b99	-0.099387355
17	0xbd4cc80d	-0.04999547
18	0x3cd2da6c	0.025738917
19	0x3d070c75	0.032970864
20	0xbd829ace	-0.06377183
21	0x3a801468	0.0009771707
22	0x3bbf0766	0.0058297394
23	0x3b50f649	0.0031885079
24	0xbd678193	-0.056520056
25	0xbd85cfec	-0.065337986
26	0x3c9d4605	0.019198427
27	0xbe5cf944	-0.21579462
28	0x3ca1ef61	0.019767465
29	0x3dd2e87f	0.10298251
30	0x3c97088c	0.018436693
31	0x3da3f0ca	0.08004911
32	0x3bc799a8	0.0060913153
33	0xbd12b150	-0.03581363
34	0x3d9b282c	0.075760216
35	0xbda6e7be	-0.0814967
36	0x3dbfe02f	0.093689315
37	0xbbdf2fe2	-0.006811128
38	0x3d89f25d	0.0673568
39	0xbcc6d61c	-0.024272017
40	0xbe19c255	-0.15015538
41	0xbe2b0b35	-0.16703494
42	0xbe2d0c38	-0.16899192
43	0xbde1bb65	-0.11022071
44	0x3d6d468f	0.057928618
45	0x3d97012f	0.07373273
46	0xbd9417d1	-0.07231105
47	0x3d43ff9b	0.047851186
48	0x3d72ff4e	0.05932551
49	0xbb6cc6af	-0.0036129167
50	0x3d4431cf	0.047899064
51	0xbd60afff	-0.054855343
52	0x3bc30872	0.0059519345
53	0xbde883a2	-0.11353232
54	0xbe0f259c	-0.1397919
55	0x3deb15d0	0.1147877
56	0xbbb671e6	-0.005567777
57	0x3d465584	0.048421398
58	0xbde365b8	-0.11103386
59	0x3dc807e6	0.097671315
60	0x3d6be229	0.05758873
61	0x3e0f80dd	0.14014001
62	0xbcb619e3	-0.02222914
63	0xbd0c0e06	-0.03419306
64	0x3d9fee8a	0.078091696
65	0x3e33368c	0.17501277
66	0xbd243e3f	-0.040098425
67	0xbd29cd49	-0.04145554
68	0x3e5cb9fc	0.21555322
69	0x3c6f4bf2	0.014605509
70	0x3d6c13d0	0.057636082
71	0xbc4ca3b2	-0.0124902
72	0x3d4348cc	0.047676846
73	0x3de05c7d	0.10955141
74	0x3dac7966	0.084215924
75	0x3d8f4d74	0.06997195
76	0x3d63837d	0.05554532
77	0x3a78c6e0	0.0009490084
78	0xbdc00a58	-0.09376973
79	0xbb819fe5	-0.0039558285
80	0x3d919b21	0.071096666
81	0x3d5304f2	0.051518388
82	0x3bb1789b	0.0054159886
83	0x3c216ce1	0.009852619
84	0x3d93f4c4	0.0722442
85	0xbe30c32e	-0.17261955
86	0x3deea6b0	0.11652887
87	0x3e0a9f9a	0.13537446
88	0x3d90fe07	0.07079702
89	0x3e3742a2	0.17896512
90	0x3e0e4316	0.13892779
91	0xbd82b75d	-0.0638263
92	0xbbefc442	-0.007317097
93	0x3d811738	0.06303257
94	0xbd7a8ef1	-0.061171476
95	0xbd4a1d81	-0.049344543
96	0x3de66596	0.11249845
97	0xbda8d0a5	-0.08242921
98	0xbd2b2c4f	-0.041790303
99	0xbd10d332	-0.03535766
100	0x3de392a0	0.11111951
101	0xbd8116b6	-0.0630316
102	0xbc5c6f6b	-0.0134542985
103	0xbc3c3ba3	-0.011488828
104	0xbd980488	-0.07422739
105	0xbd4d7586	-0.050160907
106	0x3c5a579c	0.013326552
107	0xbdf92e01	-0.12166978
108	0x3d980459	0.07422704
109	0xbe1f2386	-0.15540895
110	0x3d8cd32c	0.06876215
111	0xbdc6f04e	-0.09713803
112	0x3cbf8b1f	0.023381768
113	0x3d2bb721	0.041922692
114	0x3c141de0	0.009040326
115	0x3dc426dc	0.09577724
116	0xbe46dba3	-0.19419722
117	0xbc4e0d72	-0.012576448
118	0xbdc4c434	-0.09607735
119	0xbd70b822	-0.058769353
120	0x3e0722a3	0.13196807
121	0x3d329ad3	0.043604683
122	0xbd2aa7d1	-0.04166395
123	0xbc368bb0	-0.0111417025
124	0xbc8c3064	-0.017112918
125	0xbd739428	-0.059467465
126	0x3d24daa9	0.040247593
127	0x3d340dfd	0.043958653
128	0x3db36661	0.087597616
129	0xbc2cef83	-0.010555151
130	0x3d981cf0	0.074273944
131	0x3d81fbeb	0.06346878
132	0x3d49d2a2	0.04927314
133	0xbe16b848	-0.14718735
134	0xbdc716e1	-0.09721161
135	0x3d9a6a60	0.07539821
136	0xbd5797ac	-0.05263488
137	0x3df8146a	0.12113269
138	0x3abd5772	0.0014445616
139	0xbc9b02d5	-0.018922249
140	0x3d3efd27	0.046628144
141	0x3e218b3e	0.15775773
142	0x3b9f83ab	0.004867991
143	0x3e11da81	0.14243509
144	0x3d2f1923	0.04274858
145	0xbdc47827	-0.0959323
146	0x3d3401bd	0.04394697
147	0xbdbe5da6	-0.09295206
148	0xbdf28f1e	-0.11843704
149	0xbd849ca5	-0.0647519
150	0x3dbfbc08	0.09362036
151	0x3d970b51	0.07375205
152	0x3dc3c75c	0.09559509
153	0x3e53c867	0.20681916
154	0x3c2b6312	0.010460632
155	0xbd1cc948	-0.038277894
156	0x3d7ad8f6	0.061242066
157	0xbd71e88d	-0.05905967
158	0xbd0f4f04	-0.034987465
159	0x3c36ba11	0.01115276
160	0xbe22419f	-0.15845345
161	0x3bc705cd	0.0060736896
162	0x3d105bf5	0.035243947
163	0x3d3485db	0.044072967
164	0x3c3fc282	0.011704089
165	0x3c870bc4	0.016485102
166	0x3d6bbb25	0.05755152
167	0x3d47c47f	0.048771378
168	0xbd895c29	-0.06707031
169	0xbb740507	-0.0037234442
170	0x3b9deb06	0.0048192767
171	0x3ddeb8d0	0.10875094
172	0x3d1fe56f	0.039037164
173	0xbdf7077a	-0.12061973
174	0x3d01d8ce	0.0317009
175	0x3d6f1588	0.058370143
176	0xbd50f0ad	-0.051010776
177	0xbe1de23e	-0.15418336
178	0xbbc4b036	-0.0060024513
179	0x3dbc626b	0.09198459
180	0x3dbffba6	0.0937417
181	0x3de5bce2	0.11217667
182	0xbc3a8d99	-0.011386299
183	0x3dd5e53b	0.10444113
184	0x3e06db76	0.13169655
185	0xbdfe3234	-0.12411919
186	0x3e14cbfc	0.14530939
187	0xbcb7d61c	-0.022440962
188	0xbe030b6f	-0.1279733
189	0x3d366e8d	0.044539023
190	0x3daf61be	0.08563565
191	0xbd8dbc07	-0.06920629
192	0xbd8ec6bd	-0.069715
193	0x3d9afc7b	0.07567688
194	0x3e09cac5	0.13456257
195	0xbe3f03bb	-0.18653767
196	0xbe434af1	-0.19071557
197	0x3c1ddf7d	0.009635803
198	0xbdcd95fb	-0.10038372
199	0x3d86e02e	0.06585728
200	0xbe834fb4	-0.25646746
201	0xbdd26f96	-0.102751896
202	0x3df51aba	0.11967988
203	0xbae6be93	-0.0017604403
204	0x3d4dcb09	0.050242458
205	0xbd64ea93	-0.05588777
206	0xbd99a6a1	-0.07502485
207	0xbe80c058	-0.25146747
208	0xbbb0c8ad	-0.005395016
209	0x3e284c57	0.16435371
210	0xbc9210a3	-0.017830199
211	0x3e034d4c	0.12822455
212	0xbb3fe66e	-0.0029281634
213	0x3c9a00ac	0.018799148
214	0x3d35ce08	0.04438594
215	0x3ad25f25	0.0016050084
216	0x3e3e886b	0.18606727
217	0x3c4465ab	0.01198713
218	0x3cd4db7d	0.025983566
219	0xbd9d029a	-0.07666512
220	0xbdaa0fe7	-0.083038144
221	0xbc98ea0d	-0.018666292
222	0xbdab76bb	-0.083722554
223	0x3d404d81	0.046948913
224	0x3e0cea06	0.13761148
225	0xbcd24762	-0.025668804
226	0xbcb317c2	-0.021861915
227	0xbd265d21	-0.04061616
228	0x3e1478de	0.14499232
229	0x3e42135f	0.18952702
230	0xbd83a2e3	-0.064275526
231	0xbdc50836	-0.09620707
232	0xbd9899ad	-0.07451186
233	0xbcc85a26	-0.024457049
234	0x3ea56069	0.32300118
235	0x3cef1bc8	0.029188052
236	0xbce75190	-0.028237134
237	0x3dc55232	0.09634818
238	0xbe5a5d64	-0.21324688
239	0xbc0fe3a1	-0.008782298
240	0x3d154d57	0.03645071
241	0xbda2a537	-0.079416685
242	0x3e105ed5	0.14098676
243	0x3db646b4	0.08900204
244	0xbc1e7deb	-0.009673576
245	0x3c093b5d	0.00837597
246	0xbd870587	-0.06592851
247	0x3d01a8a1	0.031654958
248	0xbe031e62	-0.12804559
249	0xbdd94231	-0.10608328
250	0x3ccc9424	0.024972983
251	0xbbeb730d	-0.007185346
252	0xbd765a5a	-0.06014476
253	0x3e639c71	0.22227646
254	0xbe194402	-0.14967349
255	0xbc294a8d	-0.010332716

action_model._discrete_distribution.branches.0.weight f4 [3, 128]
0	0xbbaffba3	-0.0053705736
1	0xbc5028f5	-0.012705077
2	0x3b18e505	0.0023329866
3	0x3b81316f	0.0039426605
4	0x3c962fe7	0.018333388
5	0xbc9fbe1a	-0.019499827
6	0x3c14db2e	0.00908546
7	0x3b7f018b	0.0038910832
8	0xbc389f8c	-0.011268508
9	0xbb0a1d36	-0.002107454
10	0xbbd70858	-0.006562274
11	0xbc75dc5a	-0.015006149
12	0xbc0c5ba8	-0.008566774
13	0xbc814cc2	-0.015783671
14	0xbc9bc2d7	-0.019013805
15	0x3cb72fbb	0.022361627
16	0x3c02d408	0.0079851225
17	0xbc00e201	-0.0078663835
18	0xbb49583b	-0.0030722755
19	0xba8081a9	-0.0009804267
20	0x3b996aac	0.0046819057
21	0x3c986e2e	0.018607225
22	0x3ba06493	0.004894802
23	0x38ee7d07	0.000113720125
24	0xbb9b205e	-0.004734083
25	0xbbc58504	-0.0060278196
26	0x3b8311fb	0.003999946
27	0x3a514387	0.00079827796
28	0xbb53f10a	-0.0032339715
29	0x3bab9b86	0.0052370457
30	0x3c0867df	0.008325546
31	0xbc0e1ec0	-0.008674324
32	0xbc3bd67b	-0.01146471
33	0x3c891bd3	0.0167369
34	0xbbba76cc	-0.005690431
35	0xbaf1c7b0	-0.0018446352
36	0x3c707c75	0.01467811
37	0xb71fc4bc	-9.522944e-06
38	0xbc844f16	-0.016150992
39	0xbb3aa16b	-0.002847756
40	0xba5cf165	-0.00084283046
41	0xbbd076af	-0.0063618044
42	0xbb159d7b	-0.0022829461
43	0xbc34c4af	-0.011033221
44	0x3b0103aa	0.0019686022
45	0xbba5acbb	-0.0050559915
46	0x3bfcc430	0.007713817
47	0x3bfb8b72	0.0076765353
48	0x3c328f9b	0.010898496
49	0xbc6d1f62	-0.014472814
50	0xbc8b9030	-0.017036527
51	0x3b415cc0	0.0029504746
52	0x3cf1ff1d	0.029540593
53	0xbc173001	-0.009227754
54	0xba6a964f	-0.00089487893
55	0x3c00f696	0.007871291
56	0x3af92d8b	0.0019010765
57	0xbb7c669b	-0.0038513306
58	0x3c033ec1	0.008010567
59	0xbb36e006	-0.0027904524
60	0x3976cea5	0.00023537369
61	0x3c0e6ce7	0.0086929565
62	0x3afe97e2	0.0019423927
63	0xbc2a2cdd	-0.010386673
64	0xb93b3c08	-0.00017856073
65	0x3b3de74b	0.0028976973
66	0xbae6e0e8	-0.0017614635
67	0xbbbaf26f	-0.00570517
68	0xbb2c0a17	-0.0026251131
69	0x3b86212b	0.0040933094
70	0x3b80b406	0.0039277105
71	0xbbc0c654	-0.0058830176
72	0x3c1b5ac1	0.009482087
73	0xbc58775b	-0.01321205
74	0xbbb760b7	-0.005596246
75	0xbab00dab	-0.0013431808
76	0xba4d0690	-0.0007821107
77	0x3c8a6127	0.016892029
78	0x3b79d4e5	0.003812128
79	0xbb8c49d9	-0.0042812643
80	0x3b63e393	0.0034773096
81	0x3bd91e6f	0.0066259424
82	0x3c8670e3	0.01641125
83	0xbb82f870	-0.003996901
84	0xbc768abf	-0.015047728
85	0xbc0fbda5	-0.008773242
86	0xbc5ce185	-0.013481502
87	0xbad89542	-0.0016523974
88	0xbc24a92f	-0.010050102
89	0x3be85ff7	0.007091518
90	0xbb831fb0	-0.00400158
91	0x3a976b85	0.0011552429
92	0xbbfc5eb2	-0.0077017182
93	0xbc64b2ba	-0.013958627
94	0xbcb1dc2e	-0.021711435
95	0x3c956810	0.018238097
96	0xbc39c325	-0.01133803
97	0x3b5195a3	0.003198006
98	0x3bdec5f5	0.0067985007
99	0xbc572827	-0.013132132
100	0x3c201188	0.009769805
101	0x3b91fc50	0.004455127
102	0x3bffd257	0.007807057
103	0x3c91830b	0.017762681
104	0xbb9ddc9a	-0.0048175575
105	0x3ca66c00	0.02031517
106	0xbb7e38d5	-0.0038791199
107	0xbc61dc93	-0.013785499
108	0x3bcd51b8	0.006265845
109	0x3c376bcc	0.011195134
110	0x3a4f684b	0.0007911964
111	0xbb165f11	-0.0022944848
112	0x3b188a4b	0.0023275788
113	0x3bf57c80	0.007491648
114	0x3bd2f98b	0.0064384392
115	0x3b540f52	0.0032357764
116	0xbb8c0a43	-0.004273684
117	0xbcb4ca68	-0.022069171
118	0x3c611ee5	0.013740276
119	0x3aa11ffe	0.001229286
120	0x39a01bb6	0.00030538224
121	0x3c3c1fad	0.0114821615
122	0xbb241ad2	-0.00250404
123	0xbc25bac0	-0.010115325
124	0x3c1a0966	0.009401655
125	0xbabf5cfd	-0.0014599856
126	0x3c06fecc	0.008239459
127	0xbc93f6f7	-0.018062098
128	0xbcb87b48	-0.022519723
129	0xbbf5909a	-0.0074940445
130	0xbb9b85c7	-0.004746172
131	0x3c4897f4	0.01224326
132	0xbb2b502f	-0.0026140322
133	0x3ac4a6b3	0.0015003294
134	0x3bf37fb3	0.0074309944
135	0xbbaa2b4f	-0.005193151
136	0xb82812b9	-4.0071758e-05
137	0x3c3587d6	0.011079749
138	0x3c4e519d	0.0125927
139	0x3c4468b3	0.011987853
140	0xbbf8bb82	-0.007590712
141	0xba1d3a51	-0.00059977645
142	0xbbd74412	-0.006569394
143	0xbbf07c5f	-0.007339045
144	0xbb5470fd	-0.003241598
145	0xbca58fa4	-0.020210095
146	0xbb9dab51	-0.0048116823
147	0x3ba01f8b	0.0048865727
148	0x3bee6317	0.007274996
149	0x3b01487f	0.001972705
150	0xbc982567	-0.018572522
151	0xbbb8083c	-0.005616216
152	0xba926e00	-0.0011171699
153	0x3bc0eb52	0.0058874274
154	0xbaa71c35	-0.0012749495
155	0xbc2683f0	-0.010163292
156	0x3c3ac17e	0.011398671
157	0xbc271d3a	-0.010199839
158	0xbbb82a9a	-0.005620313
159	0xbc8d953e	-0.017283078
160	0xbafbf24a	-0.0019221988
161	0x3addd885	0.001692549
162	0xbcb0dc2f	-0.021589367
163	0x3c3ecb66	0.011645174
164	0xba4b6f7e	-0.0007760449
165	0x3b81c8a3	0.0039606853
166	0xbabfb6c1	-0.0014626608
167	0x3c3748e1	0.011186809
168	0xbc6daee0	-0.0145070255
169	0x3a50e51d	0.0007968711
170	0xbabeba38	-0.0014551347
171	0xba8c11d9	-0.0010686471
172	0xbbe662a2	-0.007030801
173	0xbb99ae2d	-0.004689953
174	0x3c3c5c88	0.011496671
175	0xbb534e0a	-0.003224256
176	0xbaf6419b	-0.0018787863
177	0xbc700c75	-0.0146514075
178	0xba14924f	-0.00056675536
179	0xbc5721ea	-0.013130644
180	0xbbe7dd5b	-0.007075948
181	0xbbae02ae	-0.005310378
182	0x3c08eac3	0.008356753
183	0x3cd0429f	0.025422392
184	0x3b60e525	0.0034316268
185	0x3b13919a	0.0022517205
186	0xbb68292f	-0.0035424938
187	0x3c8b5132	0.01700649
188	0xbbd29ff0	-0.0064277574
189	0x3b53274d	0.003221947
190	0x3c4ecb0d	0.012621653
191	0xbb3e7369	-0.002906049
192	0xba0b013b	-0.00053026126
193	0xbc34567c	-0.011006948
194	0xbc8eedd8	-0.017447397
195	0xbc33a510	-0.010964647
196	0x3c01c7c2	0.007921161
197	0xbbb6de21	-0.005580679
198	0x3c57caef	0.013170942
199	0xb99added	-0.00029538517
200	0x3b173903	0.0023074753
201	0xbb84e7d2	-0.0040559554
202	0x3ad2916a	0.0016065065
203	0x3bf655a5	0.007517534
204	0x3b214052	0.0024604988
205	0x3bb4cf08	0.005517844
206	0x3c13f1b7	0.009029797
207	0xbbc4a809	-0.0060014767
208	0x3ba693da	0.0050835432
209	0x3c644010	0.013931289
210	0x3c217649	0.009854862
211	0xbc263f96	-0.010146996
212	0x3ae718c5	0.0017631283
213	0x3c3fdd74	0.011710513
214	0x3c1da94a	0.009622881
215	0x3ac09f0e	0.001469584
216	0xbc3449d2	-0.011003928
217	0xbba9431d	-0.005165471
218	0xbc7f720f	-0.0155911585
219	0x3a04241b	0.00050407805
220	0xbab753df	-0.0013986788
221	0xbc4a3a2b	-0.01234297
222	0x3b537acb	0.0032269235
223	0xbb8dac33	-0.0043235063
224	0xbc889be3	-0.016675895
225	0xbc92ecc2	-0.01793516
226	0x3b6e60c7	0.0036373602
227	0xbbc38ac1	-0.0059674685
228	0x3c8da980	0.017292738
229	0x3b0171a4	0.0019751573
230	0xbaafeaad	-0.0013421379
231	0x3c8b7631	0.017024131
232	0x3b0b8fe9	0.0021295494
233	0xbb0acd41	-0.002117947
234	0x3c1b2cfb	0.009471173
235	0x3c04d677	0.008107773
236	0xb999bb8c	-0.00029322167
237	0xbabf85ef	-0.0014612059
238	0x3b83a686	0.004017654
239	0xbbc48048	-0.0059967376
240	0x3bda8c5a	0.0066695632
241	0xbc0c998f	-0.008581533
242	0xbc73185d	-0.014837352
243	0x3ba650b7	0.00507554
244	0xbc01cb90	-0.007922068
245	0x3bd1b703	0.0063999905
246	0xbc7d2e65	-0.015452956
247	0xbbf87423	-0.007582204
248	0xbb91b0cf	-0.004446126
249	0x3c2fd904	0.010732893
250	0xbc683ed2	-0.014175134
251	0xbbc7e772	-0.0061005885
252	0xba744183	-0.00093176233
253	0xbc072657	-0.008248887
254	0x3b9f4853	0.0048609166
255	0x3b396034	0.0028286101

action_model._discrete_distribution.branches.0.bias f4 [3]
0	0x00000000	0.0
1	0x00000000	0.0
2	0x00000000	0.0

action_model._discrete_distribution.branches.1.weight f4 [3, 128]
0	0x3ae0f8b0	0.0017163958
1	0x3c41531e	0.011799602
2	0xbc7504ab	-0.014954726
3	0xbc1961ad	-0.009361667
4	0xbb6a79ca	-0.0035778158
5	0x3c398319	0.01132276
6	0xbc585cd3	-0.013205725
7	0x3b45e0a6	0.0030193715
8	0xbc90409b	-0.017608931
9	0xba9a902b	-0.0011792233
10	0xbcc10374	-0.023561217
11	0xbbbcf2a9	-0.005766232
12	0x3bf0ba02	0.0073463926
13	0xbc1d0dec	-0.009585839
14	0x3b82c441	0.0039906804
15	0x3c05a39b	0.008156682
16	0xbbdf8cc8	-0.0068222024
17	0x3c42e343	0.011895004
18	0x3bbc59c1	0.005748004
19	0xbbba0877	-0.0056772786
20	0x3c385bc0	0.011252344
21	0xbaa37fe3	-0.0012474026
22	0xbc11601e	-0.008873014
23	0xbb8de25b	-0.004329962
24	0x3cb229e4	0.02174849
25	0x3afb5e78	0.0019177934
26	0x3bf91722	0.0076016346
27	0x3bcb6f3f	0.00620833
28	0x3ba57aff	0.0050500627
29	0xbc5f7beb	-0.013640384
30	0xbc40d4b6	-0.011769464
31	0x39c0c6a2	0.00036769087
32	0x3a3128bb	0.00067580835
33	0x3a77ae37	0.0009448262
34	0xbb98bbb9	-0.00466105
35	0x3b3f197b	0.0029159475
36	0x3c768990	0.015047446
37	0xbb48927d	-0.0030604892
38	0x3b8acdc5	0.0042359554
39	0x3c9330bf	0.01796758
40	0x3c1880fd	0.009308097
41	0x3bce9f75	0.00630563
42	0x3ad5fc02	0.0016325715
43	0x3c0076ff	0.007840871
44	0xbb9c8d4d	-0.0047775866
45	0xbb810b4d	-0.0039381147
46	0x3c83d77a	0.016093958
47	0x3c88db93	0.016706264
48	0xbb24bcec	-0.002513702
49	0xbb67537d	-0.0035297566
50	0xb9a51d07	-0.0003149288
51	0xbb9576d6	-0.0045612855
52	0xbc73db8d	-0.014883888
53	0x3b71dfb5	0.0036907021
54	0x3b422999	0.0029626845
55	0x3bca6bdb	0.006177408
56	0xbbda617a	-0.006664452
57	0x3c276a0d	0.010218156
58	0x3bdb14ad	0.0066858144
59	0x3c0132f3	0.007885682
60	0x3b3ec826	0.0029110997
61	0xbb937fff	-0.0045013423
62	0xbc5917f0	-0.013250336
63	0xbb1822c4	-0.0023214081
64	0x3c32fb19	0.010924124
65	0xbbea1fcb	-0.0071449033
66	0xbc46b0dd	-0.012127128
67	0xbb33a85f	-0.002741359
68	0x3c26a56c	0.010171276
69	0xbae38e5b	-0.0017361151
70	0xba931df0	-0.0011224132
71	0x3b42e218	0.0029736813
72	0xbcc41a56	-0.02393834
73	0x3c39df2b	0.011344711
74	0x3c11dce5	0.008902763
75	0xbb924ce7	-0.004464734
76	0x38cd01db	9.775507e-05
77	0x3b541a95	0.0032364477
78	0x3c1442a3	0.009049091
79	0xbc6df403	-0.014523509
80	0xbaff3033	-0.001946932
81	0x3b4c3311	0.0031158368
82	0x3bd25285	0.0064185285
83	0x3b566bb8	0.0032718014
84	0xbc127fb3	-0.008941579
85	0xbab3c454	-0.0013715127
86	0x3a40cd30	0.0007354794
87	0x3c01a408	0.007912643
88	0xbb1b6d99	-0.0023716448
89	0x3bf05028	0.007333774
90	0x3bb09587	0.005388919
91	0x3c06bba7	0.008223451
92	0xbc55d7a3	-0.0130519
93	0xb98e03a2	-0.00027087057
94	0x3c3ba64e	0.011453224
95	0xbb22256d	-0.0024741546
96	0xba64b417	-0.0008724345
97	0xb9913bc0	-0.00027701072
98	0xb9b531b4	-0.00034560042
99	0xbbbed7da	-0.0058240714
100	0x3c182cd4	0.009288032
101	0x390adf47	0.00013243883
102	0x3c4f1fe3	0.01264188
103	0xbc1d66dd	-0.009607044
104	0xbaf0b7eb	-0.0018365359
105	0x3a9253ff	0.0011163949
106	0x3ad6f635	0.001640028
107	0xbb60430b	-0.0034219648
108	0xbbcd3d9d	-0.0062634484
109	0x3c6f02ad	0.01458804
110	0x3c62ebf5	0.013850202
111	0x3c12023f	0.008911668
112	0x3c0fa863	0.008768174
113	0xbc43df96	-0.0119551625
114	0x3bb14140	0.0054093897
115	0x3b30ea5f	0.0026995165
116	0xb9de9db8	-0.0004246065
117	0x3c08545c	0.008320894
118	0x3c3ffad1	0.011717514
119	0xb91f7bb6	-0.00015209508
120	0x3b20c684	0.0024532387
121	0x3b9c4523	0.004768984
122	0x3b69ab00	0.0035654902
123	0xbc01d242	-0.0079236645
124	0xbcd80492	-0.026369367
125	0xbbd33932	-0.006446027
126	0xba5206e2	-0.000801189
127	0x3c804d07	0.01566173
128	0x3bd80f92	0.006593653
129	0x3b034888	0.0020032246
130	0x3c9082ba	0.01764046
131	0xbcf7904f	-0.030220179
132	0x3c1aac71	0.009440527
133	0x3c2aaa43	0.01041657
134	0xbb2f3d1b	-0.0026739303
135	0x3c0e7244	0.008694235
136	0x3bbc0933	0.0057384013
137	0x3c3f2307	0.011666066
138	0x3cf9962b	0.030467113
139	0x3b661438	0.0035107266
140	0xbbc377a2	-0.005965189
141	0x3c098f07	0.008395917
142	0xbbe51b5b	-0.0069917864
143	0x3c86e84e	0.016468193
144	0xbbc823de	-0.0061077913
145	0xbb91e380	-0.004452169
146	0x3af502e5	0.0018692879
147	0x3a4656e6	0.00075660495
148	0x3c776a9a	0.015101099
149	0xba7aaa95	-0.0009562162
150	0x3beea802	0.0072832117
151	0x39e1cd73	0.00043068416
152	0x3be793fa	0.0070672007
153	0x3ab5b9ba	0.0013864555
154	0xbb7e98bd	-0.0038848363
155	0xbc18861a	-0.009309316
156	0xbb67ba1a	-0.0035358728
157	0x3c24e73d	0.010064897
158	0xbb5369fa	-0.0032259212
159	0xbbd471d5	-0.0064832964
160	0x3ad01688	0.0015875855
161	0x3ad86997	0.001651096
162	0xbb3ee26a	-0.0029126653
163	0x3a857083	0.0010180626
164	0xbaae1e13	-0.0013284109
165	0x3c7f9e2f	0.015601679
166	0xb96195c0	-0.00021513458
167	0xbc4d8c72	-0.012545692
168	0x3bbdddce	0.0057942634
169	0x3ae8816a	0.0017738764
170	0x3be466ef	0.0069702785
171	0x3c3c095f	0.011476844
172	0x3af98c0f	0.0019038933
173	0xbc92dcdd	-0.017927581
174	0xbb930e44	-0.0044877846
175	0xb9be1ce5	-0.00036261152
176	0x3c432e27	0.011912859
177	0x3c3264c4	0.010888282
178	0xbbc93596	-0.006140421
179	0xb9a30160	-0.00031090807
180	0x3b523a45	0.0032078188
181	0x3a2e84cd	0.0006657362
182	0x3ba57314	0.005049119
183	0xbb045380	-0.0020191371
184	0xbc1b1040	-0.0094643235
185	0x3a95119d	0.0011373047
186	0xbb51aa12	-0.003199224
187	0x3bc01760	0.0058621615
188	0x3af6a557	0.0018817586
189	0x3b8fb6c4	0.004385801
190	0x39c95caf	0.00038406762
191	0xbc463827	-0.012098349
192	0x3c7eef27	0.015559948
193	0xbc6ad2e3	-0.014332506
194	0xbb533a73	-0.0032230883
195	0xbba18c67	-0.0049300673
196	0x39f10a77	0.000459749
197	0xbb0b6fbb	-0.0021276313
198	0x3c02280c	0.007944118
199	0xbc5ed965	-0.013601636
200	0x3c01c45b	0.00792035
201	0x384e4887	4.9181774e-05
202	0xbb44dd3b	-0.003003909
203	0x3bb7345d	0.005590959
204	0xb9f05523	-0.000458398
205	0x3c2c3668	0.010511018
206	0xbc163d50	-0.0091698915
207	0x3c04f147	0.008114166
208	0x3b90bad3	0.0044168024
209	0xbc91160c	-0.017710708
210	0xbc6c416a	-0.014419893
211	0xbc9a9d5b	-0.018873861
212	0x3b852aaf	0.004063926
213	0xbc82e7dc	-0.0159797
214	0xbc92ee4a	-0.01793589
215	0x3b02f39b	0.0019981626
216	0xba74d433	-0.00093394815
217	0x3bd71602	0.006563903
218	0xbbec0b00	-0.0072034597
219	0xbca8cc8a	-0.020605344
220	0xbc3b1566	-0.011418676
221	0x3bef5da3	0.0073048635
222	0xbc5b804f	-0.01339729
223	0xbc671b48	-0.014105625
224	0xbc2574d8	-0.0100986585
225	0xbb34dd0c	-0.0027597575
226	0xbc037d86	-0.008025533
227	0x3c3ece7c	0.011645909
228	0xb9c8f9e3	-0.00038333153
229	0x385b4762	5.228015e-05
230	0xbb4132d7	-0.0029479766
231	0x3bd7eca2	0.006589488
232	0x3c23d3cf	0.00999923
233	0x3c4b0f1c	0.012393739
234	0x3bebffda	0.0072021307
235	0x3ba64c3b	0.0050750053
236	0x3b63b4ab	0.0034745138
237	0xbc392b00	-0.011301756
238	0xbb75af5b	-0.0037488553
239	0x3aad75e2	0.0013233984
240	0x3b70302b	0.0036649804
241	0xbb6ea698	-0.0036415216
242	0x3b8c9533	0.004290247
243	0xbc4b55ca	-0.01241059
244	0xbba2992a	-0.0049621062
245	0x3c38e633	0.0112853525
246	0xbb800a9e	-0.0039075157
247	0xbcb1e15d	-0.021713907
248	0x3a7a5118	0.0009548827
249	0xbbd4b0ea	-0.0064908164
250	0x3c3e7e8f	0.011626854
251	0x3aa1fc0d	0.0012358442
252	0x3c3cedfb	0.011531348
253	0x3b97d5e8	0.004633654
254	0x3bfbc55a	0.0076834382
255	0xbad1069d	-0.0015947405

action_model._discrete_distribution.branches.2.weight f4 [1, 128]
0	0x3af066f3	0.0018341228
1	0x3c5942e8	0.013260581
2	0xbadb49ed	-0.0016730406
3	0x38b10ea7	8.442747e-05
4	0xba64ef52	-0.0008733171
5	0xbb26d30e	-0.0025455388
6	0xbbad05e8	-0.005280245
7	0x3bda6dfd	0.0066659437
8	0xbc820905	-0.015873441
9	0x3b36092c	0.0027776463
10	0xbbd14eb2	-0.006387555
11	0xbbc77fc6	-0.00608823
12	0xbb790be8	-0.0038001481
13	0xbb8e6b1e	-0.0043462655
14	0x3c4febdb	0.01269051
15	0xbbe70b88	-0.007050935
16	0x3c2050fa	0.009784931
17	0x3c2c512e	0.010517402
18	0x3c2ce489	0.010552534
19	0xbb8d3f4e	-0.004310525
20	0x3aa40b45	0.0012515566
21	0x3b1cceac	0.0023926897
22	0xbc104d83	-0.008807543
23	0x3c70dd4b	0.014701198
24	0x3aef7765	0.0018269835
25	0x3b49d631	0.0030797834
26	0xbae4978f	-0.0017440188
27	0x379afee2	1.847692e-05
28	0x3b894b0d	0.004189855
29	0x3c894508	0.01675655
30	0x3c458fe4	0.012058232
31	0xb998afd7	-0.0002912271
32	0x3b492231	0.0030690546
33	0xb915530b	-0.00014240683
34	0x3ad04eba	0.0015892603
35	0xbc0c6963	-0.008570048
36	0xbbaf4f5f	-0.005350038
37	0x3b1c17da	0.0023817928
38	0x3b7a4803	0.0038189895
39	0x3bf123bb	0.0073589957
40	0x3b35e8dd	0.0027757206
41	0x3b065a05	0.0020500433
42	0xbc36a436	-0.011147549
43	0xbb2dfa3b	-0.0026546854
44	0x3c674e27	0.014117754
45	0xb88571d1	-6.363134e-05
46	0xbb3a1720	-0.0028395131
47	0xbbf12d0f	-0.0073601077
48	0x3c02b7c2	0.007978382
49	0x3ca324fd	0.019915098
50	0x3c42266d	0.011849982
51	0x3afb2bba	0.0019162812
52	0xbbe598a7	-0.007006723
53	0x3b64194b	0.0034805115
54	0xbc9cc4de	-0.019136842
55	0xbc75d68a	-0.015004763
56	0x3c8a88dc	0.016910963
57	0x3b20aadf	0.002451591
58	0x3ba6ce13	0.005090484
59	0xbc56c7d3	-0.013109165
60	0xbc78d265	-0.015186881
61	0x3bffd627	0.0078075114
62	0xbc0c029b	-0.008545543
63	0x3b633748	0.0034670401
64	0x3c945e59	0.018111395
65	0xba2cca4d	-0.00065914245
66	0x3c2db69f	0.010602622
67	0x3c0c5a1a	0.008566404
68	0x3c32d1b7	0.010914258
69	0xbb0bf907	-0.0021358149
70	0x3bf8ca0a	0.0075924443
71	0xbc1be2ce	-0.009514524
72	0x3c7d24e7	0.015450693
73	0x3b0f0fa3	0.0021829389
74	0x3a70d34a	0.0009186758
75	0x3c6647fd	0.014055249
76	0xbc12268f	-0.008920326
77	0x3c333037	0.010936788
78	0xbbe9afbd	-0.0071315453
79	0xbaf7e013	-0.0018911384
80	0xbc8279a9	-0.015927153
81	0x3c1936ca	0.009351442
82	0x3c79d93b	0.015249546
83	0xbaa3b334	-0.001248932
84	0xbb86b67c	-0.0041111093
85	0xbbeeda5a	-0.007289213
86	0x3ad0f547	0.0015942239
87	0xbc4cb99f	-0.012495427
88	0xbc6ad5d3	-0.014333206
89	0xba536cfa	-0.000806525
90	0x399ff19b	0.00030506853
91	0x3be3f2ea	0.006956448
92	0xbb3388a4	-0.0027394677
93	0x3b66f33b	0.0035240192
94	0xb8fbf297	-0.000120137986
95	0xbc5f32e0	-0.013622969
96	0xbc35a297	-0.011086128
97	0x3a049b07	0.0005058501
98	0x3c17da7c	0.009268399
99	0xbb969a4c	-0.0045960303
100	0x3bc2184f	0.005923308
101	0xbaf43df2	-0.0018634184
102	0xbb8c685e	-0.0042849025
103	0x3a621392	0.0008624132
104	0xbb421290	-0.0029613115
105	0x3c006835	0.007837345
106	0x3b6e36f8	0.0036348682
107	0xbbb140db	-0.0054093427
108	0x3a42e197	0.0007434128
109	0x3b10c822	0.0022091945
110	0x3aa9b6b2	0.0012948124
111	0x3b65ce8b	0.0035065736
112	0xb973680d	-0.00023213048
113	0xb96b0565	-0.00022413356
114	0x3bc2d859	0.005946201
115	0xbbefe20f	-0.0073206495
116	0xba45f163	-0.0007550923
117	0x3c82c253	0.015961802
118	0xbc1df9a7	-0.009642041
119	0xbaf01940	-0.0018318072
120	0x3c8d0461	0.017214002
121	0x3a0c840e	0.0005360254
122	0xbbdcae0d	-0.0067346157
123	0xbb87de93	-0.004146406
124	0xbca228d0	-0.019794852
125	0x3c56f83a	0.013120705
126	0x3aa8fd0b	0.0012892795
127	0x39f2f76d	0.00046342183
