results/ppo/ControlCar/ControlCar-40205.pt (torch, 453156 bytes, 43 tensors)

discrete_act_size_vector f4 [1, 3]
0	0x40400000	3.0
1	0x40400000	3.0
2	0x3f800000	1.0

network_body._body_endoder.seq_layers.0.weight f4 [128, 6]
0	0xbeb73c24	-0.3578807
1	0xbe9d2d54	-0.30698645
2	0x3f3a785c	0.72839904
3	0x3ed3b7b4	0.41351092
4	0xbeaed168	-0.3414414
5	0x3e8c2c98	0.27377772
6	0x3b55a2e2	0.0032598306
7	0xbe51db30	-0.2049377
8	0xbea535cc	-0.32267606
9	0xbec66675	-0.38750044
10	0x3dc27397	0.09494703
11	0x3be87ed1	0.007095196
12	0x3f05eaba	0.5231129
13	0x3d7e1741	0.062033895
14	0xbe324496	-0.17408976
15	0x3c231528	0.0099537745
16	0x3e81faf0	0.25386763
17	0x3e711a91	0.2354529
18	0xbe67dd98	-0.22643125
19	0x3e093e9d	0.13402791
20	0xbe37a042	-0.17932227
21	0x3e6370fe	0.22211072
22	0x3e4637b5	0.19357188
23	0x3e4b877f	0.19875906
24	0xbeda4277	-0.42628834
25	0x3f0744f9	0.5283962
26	0x3eb02801	0.3440552
27	0x3d64594c	0.055749223
28	0x3c3efd31	0.011657045
29	0xbcd505f7	-0.02600382
30	0xbdc74cc7	-0.09731441
31	0xbd8a58a4	-0.06755188
32	0x3d5871cf	0.05284291
33	0xbeede978	-0.46467185
34	0x3e3e7efb	0.18603127
35	0x3e65e5d0	0.22450948
36	0xbe82ba0e	-0.25532573
37	0x3f039443	0.51398104
38	0x3f1b0b73	0.60564345
39	0xbd3f8510	-0.046757758
40	0x3e3f50df	0.18683194
41	0x3e4fb08b	0.2028219
42	0x3f19cc89	0.6007772
43	0x3d2470bd	0.040146578
44	0xbe5191f0	-0.20465827
45	0xbee55321	-0.44789985
46	0xbec930af	-0.39294955
47	0x3e8bf518	0.2733543
48	0x3dfd88e9	0.12379629
49	0xbf5d2d5d	-0.86397344
50	0xbd1e532a	-0.03865353
51	0x3ef6de91	0.4821668
52	0x3e4ad061	0.19806053
53	0xbe8e2a86	-0.27766818
54	0x3f112cf5	0.56709224
55	0xbe01a35b	-0.12659971
56	0x3eca1d37	0.39475414
57	0xbe5963b2	-0.21229437
58	0x3e458a64	0.19291073
59	0xbf32aceb	-0.697951
60	0xbeb73865	-0.35785213
61	0x3be76df2	0.007062667
62	0xbe83c644	-0.25737202
63	0x3f1ac940	0.60463333
64	0xbe227f31	-0.15868832
65	0x3daf1a98	0.08549994
66	0xba2d1698	-0.0006602793
67	0x3e77da24	0.24204308
68	0xbe846361	-0.2585707
69	0xbe6d239c	-0.23158115
70	0xbeaf23f5	-0.3420712
71	0x3e117d55	0.14207967
72	0x3ee8312b	0.45350012
73	0xbe0375d3	-0.12837915
74	0xbca82975	-0.02052758
75	0xbea2a2e0	-0.3176489
76	0xbef46b67	-0.4773819
77	0x3f2b03b6	0.6680254
78	0x3e8e91f3	0.27845725
79	0xbdb48a5c	-0.088154525
80	0xbe9956f5	-0.29949155
81	0x3de786a0	0.113049746
82	0x3e1cfe7c	0.15331453
83	0x3efe5fcb	0.4968246
84	0xbec9ec54	-0.39438117
85	0x3ec1c3b7	0.3784463
86	0x3d95bb8e	0.07311164
87	0x3f4ee6b4	0.80820775
88	0x3ef6bd11	0.4819112
89	0x3cc3686b	0.023853501
90	0xbf6bb517	-0.92073196
91	0x3d8337a4	0.06407097
92	0xbe299b0a	-0.16563049
93	0x3ed6c766	0.41949004
94	0xbd5c46a1	-0.053778294
95	0xbe869fc9	-0.2629378
96	0x3e0bd9d1	0.13657309
97	0x3e0b21ad	0.13587065
98	0xbe167324	-0.1469236
99	0xbf2d31ef	-0.6765432
100	0x3e91c7e5	0.2847282
101	0xbdb6751b	-0.08909055
102	0xbe0283ea	-0.12745634
103	0xbea77bd8	-0.32711673
104	0x3e842451	0.25808957
105	0xbe662ada	-0.22477284
106	0x3e80a2b2	0.25124127
107	0x3e8666da	0.26250345
108	0xbec1a583	-0.37821588
109	0x3e349bf7	0.17637621
110	0x3df5b437	0.11997264
111	0x3e6ea845	0.23306377
112	0xbe1c0f52	-0.15240219
113	0x3fa92fe7	1.3217744
114	0x3da2e2b8	0.079533994
115	0xbeec7f80	-0.46191025
116	0x3ebcc74d	0.36870804
117	0x3e397971	0.18112732
118	0x3f1b1584	0.60579705
119	0xbd7f9ab3	-0.062403392
120	0xbd3bee0a	-0.04588131
121	0xbf1edc95	-0.6205533
122	0x3e7ed2d6	0.24885115
123	0xbea95af3	-0.330772
124	0x3d952597	0.0728256
125	0xbcc26465	-0.023729512
126	0x3e207b0a	0.15671936
127	0xbdf25cc1	-0.11834098
128	0xbebd0e90	-0.36925173
129	0x3e4f15f4	0.20223218
130	0xbe70f4ae	-0.23530838
131	0xbee24912	-0.44196373
132	0xbd236efc	-0.039900765
133	0xbe6c2526	-0.23061046
134	0x3e935cc6	0.28781718
135	0x3f8723ea	1.0557835
136	0xbe1ae40d	-0.15126057
137	0xbe494209	-0.19654097
138	0xbf55949e	-0.83429897
139	0xbeef31d7	-0.46717712
140	0x3e19db45	0.15025051
141	0xbf23363b	-0.63754624
142	0xbcf1defa	-0.029525269
143	0xbe967203	-0.2938386
144	0x3e9b6980	0.30353928
145	0xbef3c451	-0.47610715
146	0xbcaed106	-0.021339905
147	0x3e3aa485	0.18226822
148	0xbe8c278c	-0.27373922
149	0xbdf509a7	-0.11964732
150	0xbf1a0bfe	-0.6017455
151	0xbe62a851	-0.2213452
152	0x3ef9cf27	0.48790857
153	0xbf0464b8	-0.51716185
154	0x3f0ae44b	0.542546
155	0x3f107243	0.5642435
156	0x3e19d032	0.15020826
157	0xbea729cf	-0.32649085
158	0x3e57f4b5	0.21089442
159	0x3f0dae78	0.55344343
160	0x3e9d3bf9	0.30709818
161	0x3e9abd4f	0.30222556
162	0xbe3d331b	-0.18476526
163	0x3eebfb45	0.4609014
164	0x3ed7a9b8	0.42121673
165	0xbe18ff84	-0.14941221
166	0xbde39830	-0.11113012
167	0xbd8692d0	-0.06570971
168	0x3e62fdd7	0.22167145
169	0x3e05e5aa	0.13075891
170	0x3dae5817	0.085128956
171	0xbf6a334f	-0.9148454
172	0x3edb9f0a	0.42894775
173	0xbe68f76b	-0.22750632
174	0xbe94fbd4	-0.2909838
175	0x3e440c07	0.19145213
176	0xbdbc1933	-0.09184494
177	0x3efc277a	0.49248868
178	0xbf0eae8f	-0.55735105
179	0x3ea661ba	0.32496434
180	0x3f04dc0b	0.5189826
181	0x3ee11af9	0.4396589
182	0xbd208232	-0.039186664
183	0xbdf4b7f1	-0.119491465
184	0x3e732587	0.23744784
185	0xbe8f5e5c	-0.28001678
186	0x3e545d76	0.20738778
187	0x3e451637	0.19246756
188	0xbeeb430d	-0.45949593
189	0x3f20462f	0.6260709
190	0x3f35aea8	0.7096963
191	0xbe2bae9b	-0.16765825
192	0x3f0b3bec	0.5438831
193	0x3ed7a2ba	0.42116338
194	0xbe2ed665	-0.17073973
195	0xbd84d6e1	-0.064862974
196	0x3e614a87	0.22001086
197	0xbe00e483	-0.1258717
198	0x3ea4fe5e	0.32225317
199	0x3f08e7eb	0.5347888
200	0x3dc1e963	0.09468343
201	0x3ec02c78	0.37533927
202	0x3f27ace1	0.6549817
203	0xbf5118ff	-0.81678766
204	0xbf1c8059	-0.61133343
205	0xbe40b032	-0.18817213
206	0x3e1e1e81	0.15441324
207	0x3eb83b4e	0.35982746
208	0xbec34bd8	-0.38143802
209	0xbef9e64c	-0.48808515
210	0xbea026f8	-0.3127973
211	0xbe7f6376	-0.24940285
212	0xbc7aeea5	-0.015315686
213	0xbc1230ee	-0.008922799
214	0x3cfcd27b	0.030862084
215	0xbee27f40	-0.4423771
216	0xbe8c9f92	-0.27465492
217	0x3ed91804	0.42401135
218	0xbeaf116e	-0.34192985
219	0x3ee0bb5c	0.43892944
220	0x3eb6e721	0.35723212
221	0xbf067828	-0.52527094
222	0x3d950f58	0.07278317
223	0x3ea81d6b	0.32834944
224	0x3e83a270	0.25709867
225	0xbdaa5e86	-0.0831881
226	0x3e359630	0.17733073
227	0xbf26c5a7	-0.65145344
228	0xbe890a29	-0.26765564
229	0x3dae6a4d	0.08516369
230	0x3eca7f32	0.39550167
231	0x3d5a8a40	0.0533545
232	0xbd311b4d	-0.043238927
233	0x3e9682fb	0.29396805
234	0xbea3d276	-0.31996506
235	0x3f0a1c9b	0.539499
236	0x3f0340e7	0.5127091
237	0x3e61c4d2	0.22047737
238	0x3f51c0a6	0.81934583
239	0x3efbdfb7	0.49194118
240	0x3e7dba1c	0.24778026
241	0x3f04a7f4	0.51818776
242	0xbb4aa218	-0.003091937
243	0x3f0970de	0.53687847
244	0xbef8b21a	-0.4857338
245	0xbf418376	-0.7559122
246	0x3ebb9833	0.36639556
247	0x3e505162	0.20343545
248	0x3f21622e	0.63040435
249	0xbc25b2eb	-0.010113458
250	0x3cf151cf	0.029457955
251	0xbe2676ce	-0.16256258
252	0x3de67fbf	0.112548344
253	0xbed1fe90	-0.41014528
254	0x3ebcfe46	0.36912745
255	0x3e155a32	0.14585188

network_body._body_endoder.seq_layers.0.bias f4 [128]
0	0xb912d0e0	-0.00014001457
1	0x34eb804b	4.3865506e-07
2	0xba9c1df2	-0.001191078
3	0x3acaa960	0.0015461855
4	0x3abe6e59	0.0014528736
5	0x3b13a68a	0.0022529685
6	0xbb7576de	-0.0037454884
7	0xbb1e0df7	-0.002411721
8	0xbac6a65e	-0.0015155782
9	0xb914a7b0	-0.00014176848
10	0x3afd85b9	0.0019342221
11	0xbb583be7	-0.003299469
12	0xba919f50	-0.0011110101
13	0xbb1f2c45	-0.0024287861
14	0xba707902	-0.0009173305
15	0x2478bc4c	5.393592e-17
16	0xb0726586	-8.818336e-10
17	0x3adf9714	0.0017058575
18	0xba9f7638	-0.0012165969
19	0x3aeb88d9	0.0017969861
20	0x3b96db18	0.0046037547
21	0xa6198eff	-5.3276334e-16
22	0x3b0e4811	0.0021710435
23	0x1c3a9d29	6.174536e-22
24	0xbaa98a8c	-0.0012934967
25	0xbb0f346c	-0.0021851314
26	0xba968e9c	-0.0011486593
27	0x3b48a752	0.0030617309
28	0xadd08da6	-2.3709767e-11
29	0xbaf19b56	-0.0018433135
30	0x398c2213	0.00026728268
31	0x3a516bbb	0.00079887704
32	0xbbccd157	-0.006250541
33	0x25731d48	2.1086811e-16
34	0x28c75f29	2.2134707e-14
35	0xa0e77329	-3.920913e-19
36	0x9fd32e5a	-8.943866e-20
37	0xaa7e5070	-2.2587639e-13
38	0x3a1ba477	0.0005937288
39	0xbabdadba	-0.001447133
40	0xa331fdc1	-9.648924e-18
41	0x38b525da	8.637803e-05
42	0x39b48d2a	0.0003443745
43	0xbaebc58e	-0.0017987953
44	0xbb0f7788	-0.0021891315
45	0xafa73b41	-3.0419225e-10
46	0x3b81fb75	0.0039667436
47	0xbab4b5f8	-0.0013787141
48	0xbb10a118	-0.0022068676
49	0x39d141c6	0.00039912591
50	0x3a501bd7	0.0007938719
51	0xbb061fb9	-0.0020465686
52	0xa330d668	-9.586381e-18
53	0x3bf464b8	0.0074582957
54	0xbabbf15d	-0.00143389
55	0xbb03c590	-0.002010677
56	0x39ef7495	0.00045672493
57	0xb8019e77	-3.090358e-05
58	0x3bb01c3b	0.005374459
59	0xb79e9041	-1.8902241e-05
60	0xb9cb820a	-0.00038816064
61	0xadb76d9b	-2.0853366e-11
62	0x307a0214	9.0952423e-10
63	0xbb6c5b27	-0.0036065073
64	0x2f28158a	1.5287163e-10
65	0xbb76b8fa	-0.0037646876
66	0x398bb130	0.0002664416
67	0x3a73f936	0.00093068497
68	0xb941a906	-0.0001846888
69	0xaa8ebfaa	-2.535726e-13
70	0x3ac97fd5	0.001537318
71	0xbaaf245e	-0.0013362279
72	0x3b0fe34d	0.002195555
73	0xb4282aba	-1.5661763e-07
74	0xbb7a919a	-0.0038233758
75	0x3b897581	0.0041949158
76	0x3b0502b6	0.0020295805
77	0xbb0be60c	-0.0021346835
78	0x3ae48169	0.0017433587
79	0x3ba5ad58	0.0050560646
80	0xba35997a	-0.0006927472
81	0x3ad8a7e7	0.0016529531
82	0x3a2c8c65	0.00065822
83	0x3b9ec691	0.0048454483
84	0x39420504	0.0001850315
85	0xbbdcaa5a	-0.0067341747
86	0xbaa61bc8	-0.0012673074
87	0xba927dd8	-0.001117642
88	0xbb04bea7	-0.002025524
89	0xb83fe0d3	-4.5747332e-05
90	0x38054b0a	3.1779557e-05
91	0xaa6d1be5	-2.1059506e-13
92	0xb9dce672	-0.00042133365
93	0xb969339a	-0.00022239835
94	0xbae47b86	-0.0017431832
95	0x25005ae3	1.1133024e-16
96	0xbb256d4b	-0.0025242146
97	0xba8cee2f	-0.0010752137
98	0xb9d6ec21	-0.0004099319
99	0x1eac71ed	1.8258327e-20
100	0x29b5fe3d	8.082118e-14
101	0x3b1e9f23	0.002420374
102	0x97aad0c3	-1.1038691e-24
103	0x3b366769	0.0027832633
104	0x20d89eae	3.669683e-19
105	0xbabca766	-0.001439315
106	0xba4d3d7a	-0.000782929
107	0x90583474	-4.2638897e-29
108	0xbadfd890	-0.001707809
109	0xbb1b0126	-0.0023651808
110	0x25008114	1.1145964e-16
111	0xb607b388	-2.0221069e-06
112	0x3a20f61c	0.0006140189
113	0x36546921	3.1651655e-06
114	0x8b0fcf2e	-2.7696663e-32
115	0xba041d9f	-0.0005039814
116	0x2d517c49	1.1907871e-11
117	0x3320eb2b	3.7466787e-08
118	0xa61d566e	-5.458745e-16
119	0xb9b33dce	-0.0003418759
120	0x3a49f643	0.00077042374
121	0x3be68da4	0.007035928
122	0xba224d46	-0.0006191324
123	0x3beb8759	0.0071877656
124	0xa8e3bfc7	-2.5285233e-14
125	0x3aa9631f	0.0012923217
126	0xa9c15fdc	-8.587551e-14
127	0x2a3d3190	1.6803768e-13

network_body._body_endoder.seq_layers.2.weight f4 [128, 128]
0	0x3dc8bfed	0.09802232
1	0xbe085dce	-0.13317034
2	0xbd8a64f6	-0.06757538
3	0x3d4c9330	0.049945056
4	0xbd0a9584	-0.033833995
5	0x3de39833	0.11113014
6	0x3dc1fcfa	0.094720796
7	0x3e2baff4	0.1676634
8	0x3d1083ba	0.035281874
9	0x3a92d593	0.0011202566
10	0xbd24b598	-0.040212244
11	0xbd3317fd	-0.04372405
12	0xbcb37c53	-0.021909868
13	0x3d644790	0.05573231
14	0xbbd8876f	-0.006607942
15	0xbd1099f8	-0.035303086
16	0xbcdf9901	-0.027294638
17	0x3daa52c9	0.08316571
18	0x3d1242f1	0.03570837
19	0xbd95e425	-0.07318906
20	0x3c9c112b	0.019051155
21	0xbd1524e9	-0.036412153
22	0x3d87d78d	0.0663291
23	0x3d8c7c92	0.068596974
24	0xbc862b44	-0.016378053
25	0x3daf5c5e	0.085625395
26	0x3bab60c5	0.0052300417
27	0x3d5e77b5	0.05431338
28	0xbc3038e6	-0.010755753
29	0xbcd748ef	-0.026279895
30	0xbe1b3410	-0.15156579
31	0xbcbf8756	-0.023379963
32	0xbde6ac3e	-0.11263321
33	0x3b2e3336	0.0026580817
34	0x3cc84b2f	0.024449913
35	0x3bcb1986	0.006198111
36	0x3d7838a7	0.060600903
37	0xbd716125	-0.058930535
38	0x3d556085	0.052094
39	0x3b209835	0.0024504785
40	0x3e0b4f36	0.13604435
41	0x3dc74dbb	0.09731623
42	0x3da1e05f	0.079041235
43	0x3dd55d60	0.104182005
44	0x3c64e369	0.013970234
45	0x3cd3d61b	0.02585893
46	0x3dec85d0	0.1154896
47	0x3b4ad0a2	0.0030947109
48	0xbd14c629	-0.036321793
49	0x3d0b9f35	0.03408738
50	0x3d31f68c	0.043448016
51	0x3d507768	0.050895125
52	0x3d618b22	0.055064328
53	0x3e3fec45	0.18742473
54	0x3de42368	0.11139566
55	0x3d9eb2cc	0.077489465
56	0x3daa3f0d	0.08312807
57	0xbe021d09	-0.12706389
58	0x3d26fd17	0.04076871
59	0x3c44831d	0.0119941505
60	0xbd826701	-0.06367303
61	0xbb797707	-0.003806533
62	0xbd9cc514	-0.07654777
63	0x3c74b23e	0.014935074
64	0x3cf8d25c	0.030373745
65	0x3dbaa6e4	0.09113863
66	0x3d6cac9c	0.0577818
67	0xbcd379ec	-0.025814973
68	0xbb0a8db3	-0.0021141588
69	0x3c5fcd55	0.013659795
70	0xbe207156	-0.15668234
71	0x3dcdef38	0.10055393
72	0x3da70e6d	0.081570484
73	0xbd742684	-0.059607044
74	0xbe6a214d	-0.22864266
75	0xbdee3277	-0.11630719
76	0xbd872e31	-0.06600607
77	0xbab2e883	-0.0013649616
78	0xbd86c021	-0.065796144
79	0xbd54daba	-0.051966406
80	0x3e02adc7	0.12761603
81	0x3e4f2e58	0.20232522
82	0xbd645eae	-0.055754356
83	0xbd547434	-0.051868632
84	0x3d8fefc4	0.070281535
85	0x3e111690	0.14168763
86	0xbd2c237a	-0.04202602
87	0xbbd8876e	-0.0066079414
88	0x3dccebef	0.10005938
89	0x3d820693	0.0634891
90	0xbccfdb45	-0.02537311
91	0xbcf50a5a	-0.029912163
92	0x3e03afea	0.12860075
93	0x3de8341a	0.113380626
94	0x3cdb4e28	0.026770666
95	0x3d8abb93	0.06774058
96	0xbdcc457d	-0.09974191
97	0x3d842332	0.064520255
98	0xbdb4bd6c	-0.08825192
99	0xbbc3a45f	-0.0059705223
100	0xbda8783a	-0.082260564
101	0xbce2a80f	-0.027668027
102	0x3db9dca1	0.09075285
103	0xbd9235af	-0.071391456
104	0xbe0af6c7	-0.135707
105	0xbde3b7bf	-0.11119031
106	0x3d073fff	0.033020016
107	0x3d388013	0.045044016
108	0xbe04a883	-0.12954907
109	0xbe01f632	-0.12691572
110	0xbc207be8	-0.009795167
111	0x3d367e38	0.044553965
112	0xbccac9ae	-0.024754371
113	0xbca11cec	-0.019667111
114	0xbd1c7d2e	-0.03820532
115	0x3d8d332f	0.06894528
116	0x3b772a66	0.003771448
117	0xbd4f022e	-0.050539188
118	0xbe1baf7a	-0.15203658
119	0xbcdff2d6	-0.027337473
120	0xbd537e31	-0.051634017
121	0x3d1611dd	0.03663813
122	0x3db6c84b	0.089249216
123	0xbd7daa9f	-0.061930295
124	0x3d4ef8f7	0.0505304
125	0x3c08a03d	0.008338985
126	0x3da2a97c	0.07942483
127	0x3df24b12	0.11830725
128	0x3cf306e4	0.029666372
129	0xbdda6bc8	-0.10665089
130	0xbe2d0310	-0.168957
131	0xbe07e975	-0.1327265
132	0x3e24845f	0.1606612
133	0x3d1da8cb	0.03849105
134	0x3cc7caf4	0.024388768
135	0xbe1385fb	-0.14406578
136	0x3be9d55b	0.0071360297
137	0xbcac2ad5	-0.021016518
138	0xbcef3bd4	-0.029203333
139	0xbda51f7c	-0.08062646
140	0xbdca954d	-0.09891758
141	0x3c0bfc84	0.008544091
142	0x3d53d0cc	0.051712796
143	0xbdf808de	-0.12111066
144	0x3d1c7498	0.03819713
145	0x3cd1ffd6	0.025634687
146	0xbd577430	-0.05260104
147	0x3dd78fa8	0.10525447
148	0x3d98b9f3	0.07457342
149	0xbe16061f	-0.14650773
150	0x3dfc297d	0.12312601
151	0x3d615b03	0.055018436
152	0x3bf5cc7f	0.0075011845
153	0xbdd71273	-0.10501566
154	0xbc77b836	-0.015119603
155	0xbde05943	-0.10954525
156	0xbd22eb9e	-0.039775483
157	0xbca37a99	-0.01995592
158	0xbd8b8d90	-0.0681411
159	0x3c1ab646	0.009442871
160	0xbda808dc	-0.08204815
161	0x3d19076a	0.037360586
162	0x3d188777	0.037238564
163	0xbc828acb	-0.015935322
164	0x3db45e3f	0.088070385
165	0xbc7a06e1	-0.015260429
166	0x3d7a0f54	0.061049774
167	0x3d6961b8	0.056977957
168	0xbe3f6a68	-0.18692935
169	0x3cfdb5f8	0.030970559
170	0xbc8043ea	-0.015657384
171	0xbda8dafe	-0.082448944
172	0xbdc9cc33	-0.09853401
173	0xbdfaba02	-0.122425094
174	0xbd903a95	-0.07042424
175	0x3e370fb5	0.17877086
176	0x3e1a9b7d	0.15098377
177	0xbe1102de	-0.1416125
178	0xbccbba65	-0.024869153
179	0xbb37c8d3	-0.0028043285
180	0x3d3e171c	0.046408758
181	0xbe4d0096	-0.20019755
182	0xbcd7bca4	-0.026335068
183	0x3db04ad0	0.08608019
184	0x3cade097	0.021225257
185	0x3be7b603	0.007071258
186	0xbd9e73a7	-0.07736903
187	0xbb756ee0	-0.003745012
188	0xbd98456a	-0.07435115
189	0xbc6b08d5	-0.014345367
190	0x3d0b2ab5	0.033976275
191	0xbdfd7762	-0.12376286
192	0x3d345384	0.04402496
193	0x3da64415	0.08118454
194	0x3db46190	0.08807671
195	0x3c1f0571	0.009705887
196	0xbdf058db	-0.11735698
197	0x3cc827b2	0.02443299
198	0xbda1c555	-0.07898966
199	0xbd8a789a	-0.06761284
200	0xbc524c8b	-0.012835632
201	0x3d8daf18	0.06918162
202	0x3e37d867	0.17953645
203	0x3de2da92	0.11076845
204	0x3e2a02ae	0.16602585
205	0x3d341765	0.043967623
206	0x3d642edc	0.05570875
207	0x3dbb479e	0.09144519
208	0x3cd82242	0.026383523
209	0x3dbe33cd	0.09287224
210	0x3e5e7121	0.21722843
211	0x3db19da3	0.08672645
212	0x3e1a0c29	0.15043701
213	0xbd690216	-0.056886755
214	0x3d6bb1cb	0.057542603
215	0xbd9df64b	-0.07712992
216	0x3d5aad00	0.053387642
217	0x3dbc9879	0.09208769
218	0xbcaad4a4	-0.020853348
219	0xbdda8fe9	-0.1067198
220	0x3dee4245	0.11633734
221	0xbd81d657	-0.0633971
222	0xbd890abc	-0.066915005
223	0xbc201e0a	-0.009772787
224	0x3cc05376	0.023477297
225	0xbc3a4b41	-0.011370481
226	0x3e5a1c42	0.21299842
227	0x3c39ae0f	0.011333003
228	0xbb8aabf0	-0.0042319223
229	0xbe1d709c	-0.15374988
230	0x3d0c50bc	0.03425668
231	0xbd3c3b75	-0.04595514
232	0x3ce64e79	0.02811359
233	0x3dca96ab	0.09892019
234	0xbdb45bc7	-0.08806568
235	0xbda8034f	-0.08203756
236	0x3e6c5394	0.23078758
237	0x3cbfcad5	0.023412148
238	0xbce61286	-0.028085005
239	0xbcecc470	-0.028902262
240	0x3d35577f	0.044272896
241	0xbd345ab3	-0.04403181
242	0xbdd99444	-0.106239825
243	0xbd59a570	-0.05313629
244	0xbe1ddff5	-0.15417464
245	0xbd98ff7e	-0.07470606
246	0x3d02895e	0.031869285
247	0x3cf6e55b	0.030138662
248	0x3db34812	0.08753981
249	0xbdc2659b	-0.09492036
250	0x3cc146a8	0.023593262
251	0x3ce41a21	0.02784449
252	0xbc9ef210	-0.019402534
253	0x3d8cc6dd	0.06873868
254	0x3d020e6c	0.031752035
255	0xbdc0bbba	-0.09410806

network_body._body_endoder.seq_layers.2.bias f4 [128]
0	0xba1323f4	-0.00056129624
1	0xba75f70a	-0.000938282
2	0x3977b49d	0.0002362304
3	0xbb61bf23	-0.0034446202
4	0x3b593c83	0.003314764
5	0x3b00d4a1	0.0019657987
6	0xbb30d635	-0.0026983146
7	0xba665402	-0.0008786322
8	0x3b441d96	0.002992486
9	0x26def830	1.5471616e-15
10	0xbb8fcc29	-0.0043883515
11	0xb98ed1f0	-0.00027240766
12	0xb992a8a0	-0.00027972925
13	0xb9930d39	-0.00028047877
14	0xbafa1de3	-0.0019082393
15	0xb913ccc0	-0.00014095288
16	0xba97f037	-0.0011591975
17	0x28b423aa	1.9999481e-14
18	0x372e6cd2	1.0396545e-05
19	0xba74d3f7	-0.00093394466
20	0xbadac15a	-0.0016689703
21	0x3b524745	0.0032085937
22	0x328806d6	1.5835592e-08
23	0xb13cd858	-2.7480578e-09
24	0xbb503e45	-0.0031775397
25	0x9c7d2195	-8.375408e-22
26	0xb737af42	-1.0948455e-05
27	0xa955f3e8	-4.7507056e-14
28	0xba277180	-0.0006387457
29	0xbb03c773	-0.0020107895
30	0x30a54cf0	1.2027197e-09
31	0xbab49139	-0.001377619
32	0xa49d306c	-6.8169926e-17
33	0xb3226e2e	-3.7818772e-08
34	0xae387249	-4.1938262e-11
35	0x3c345b96	0.011008164
36	0xba5612ad	-0.0008166235
37	0xba00c6ca	-0.00049124344
38	0xb909ea78	-0.00013152685
39	0xa087b9f9	-2.2992956e-19
40	0xba287390	-0.00064259116
41	0xba82b572	-0.0009972288
42	0xbac49456	-0.0014997821
43	0xbaa1a4dc	-0.0012332457
44	0xba767c08	-0.00094026374
45	0x35d34124	1.5739683e-06
46	0x3736c29b	1.08933555e-05
47	0xb9faa187	-0.00047804063
48	0xba3439be	-0.00068750593
49	0xbab3baa5	-0.0013712241
50	0x3b29ba15	0.0025898267
51	0x3b232aa4	0.0024897242
52	0x3a59ebd9	0.0008313037
53	0xb60b992d	-2.0801774e-06
54	0xba0c49a5	-0.000535155
55	0x3b13747a	0.0022499845
56	0xb99da5d1	-0.00030068916
57	0x3510a311	5.3881473e-07
58	0xb92283a5	-0.00015498565
59	0xbab2c25d	-0.0013638247
60	0x2469da56	5.070876e-17
61	0xb88636b8	-6.39981e-05
62	0x37373484	1.0919877e-05
63	0xbaa20c1c	-0.0012363228
64	0xb94f72a0	-0.0001978376
65	0x29840de0	5.8643845e-14
66	0xbac1992e	-0.0014770383
67	0xba950381	-0.0011368842
68	0xb0a79535	-1.2193256e-09
69	0xbb2b7d6b	-0.0026167284
70	0xbaf9c5c2	-0.0019056129
71	0xba3e4d9f	-0.0007259491
72	0xba934281	-0.001123503
73	0xba16354a	-0.00057299866
74	0x3acf95c8	0.0015837485
75	0xba10b357	-0.0005519888
76	0x3b2c9c07	0.0026338117
77	0xba9512a6	-0.0011373356
78	0xba97a6ae	-0.001157006
79	0xba905780	-0.0011012405
80	0xafd2bb7e	-3.8332e-10
81	0xb9ced95f	-0.00039453336
82	0x3b9dbac0	0.004813522
83	0xbb32c457	-0.0027277672
84	0xbb1284c8	-0.0022356976
85	0xbabfe63f	-0.0014640762
86	0x35079e9e	5.052224e-07
87	0xba9a90c6	-0.0011792413
88	0xa0b4bd01	-3.0618258e-19
89	0xb88051bd	-6.1187406e-05
90	0xb943d9c4	-0.00018677773
91	0x2d319026	1.00932925e-11
92	0x3a11bc9d	0.00055594166
93	0x3acf294b	0.0015805153
94	0x37a7e60e	2.0015079e-05
95	0xba9e68f5	-0.0012085723
96	0x38ae0a52	8.298889e-05
97	0xba793c66	-0.0009507596
98	0x3ae78709	0.0017664145
99	0xb9218110	-0.00015402236
100	0xb9d02b0e	-0.0003970493
101	0xba82ee37	-0.0009989206
102	0x365f9961	3.3318868e-06
103	0xb9a79f58	-0.00031971443
104	0x3b7d64fd	0.003866493
105	0xb991e3fd	-0.0002782642
106	0xbaca6b5f	-0.0015443376
107	0xb9d8b500	-0.00041333586
108	0x3af822e2	0.0018931294
109	0xbaecfbf4	-0.0018080459
110	0xae8c857e	-6.390176e-11
111	0x14be05c7	1.9187376e-26
112	0x39a591fa	0.00031580013
113	0xba6e25d0	-0.0009084614
114	0xb92fb30d	-0.00016756002
115	0xbb370fa4	-0.0027932907
116	0x3aaa58ab	0.0012996396
117	0xbab1fd89	-0.0013579588
118	0xba51762e	-0.00079903274
119	0x37ecdf9c	2.8237519e-05
120	0x3bac05e1	0.0052497243
121	0xbaf793f9	-0.0018888704
122	0xb957e4f0	-0.00020589284
123	0xbb89302a	-0.00418665
124	0xbb02838d	-0.0019914836
125	0xb9f0798a	-0.0004586692
126	0x39bb61f1	0.00035740391
127	0xb990f92f	-0.00027651477

action_model._discrete_distribution.branches.0.weight f4 [3, 128]
0	0x3ae817a3	0.001770724
1	0xbb26886b	-0.0025410901
2	0x3c169251	0.009190158
3	0xbc710b71	-0.0147122005
4	0xbc38f186	-0.011288052
5	0x3a7fa4fe	0.0009752064
6	0x3ba5c1be	0.0050584963
7	0x3b585ea2	0.003301539
8	0xbcb0f5f8	-0.021601662
9	0xbc38217b	-0.011238451
10	0xbc809120	-0.015694201
11	0xbab1c5c7	-0.001356297
12	0x3b7b9289	0.0038386902
13	0x3bedc0e5	0.007255661
14	0x3c7edf0e	0.01555611
15	0xbab2b9c5	-0.0013635686
16	0xbc018600	-0.007905483
17	0x3c2dec0f	0.010615363
18	0xbba06563	-0.0048948987
19	0x3a8327c2	0.0010006356
20	0x3c6f8813	0.014619845
21	0x3cb9e086	0.022690069
22	0xbbabc8fd	-0.0052424655
23	0xbb9685ac	-0.0045935716
24	0xbac1b1df	-0.0014777741
25	0xbbc8e55c	-0.0061308574
26	0xbbfd93b8	-0.0077385567
27	0x3c0faec7	0.0087696975
28	0x3b9dea76	0.0048192097
29	0xbc2c4d66	-0.0105165
30	0x3a3e3af1	0.0007256708
31	0xbbc15ff9	-0.0059013334
32	0x3bd3b02b	0.00646021
33	0xbbe03f4c	-0.006843483
34	0x3b6b0606	0.0035861745
35	0x3b900f79	0.0043963757
36	0xbbabd07e	-0.00524336
37	0x3b2388eb	0.0024953436
38	0x3c433afb	0.0119159175
39	0xbbd29a7b	-0.006427107
40	0x3ae7ef28	0.0017695175
41	0x3c817e29	0.015807228
42	0x3c3bce3e	0.011462746
43	0xbb9b0200	-0.004730463
44	0xbcd3fcae	-0.025877323
45	0xbc3f35d6	-0.01167055
46	0xbb4e6753	-0.0031494692
47	0x3c056cde	0.008143632
48	0x3ba0064e	0.004883564
49	0xbbf564d1	-0.007488825
50	0x3b36f0a8	0.0027914438
51	0xbc7e2550	-0.015511826
52	0x3be120a3	0.0068703457
53	0x3ab92176	0.0014124352
54	0xbc391cbd	-0.011298356
55	0x3c5d6a98	0.013514183
56	0xbc7a2f5a	-0.015270079
57	0xbbb7a0f1	-0.0056039025
58	0xbb5d129a	-0.0033733011
59	0xbaf7f857	-0.0018918616
60	0xbbdfec2d	-0.0068335743
61	0x3c759761	0.014989705
62	0x3bf339c4	0.0074226577
63	0xbc40adcc	-0.011760186
64	0xbb685823	-0.0035452924
65	0xbc11368b	-0.008863102
66	0x3abd828a	0.0014458459
67	0xbb9a12ca	-0.004701947
68	0xbb318a0d	-0.0027090341
69	0x3c6bb09b	0.014385368
70	0x3b8bf070	0.0042706057
71	0xbb8c65ee	-0.004284612
72	0xbaa3a8af	-0.0012486185
73	0x3a33d636	0.0006860228
74	0x3bcfa1a8	0.0063364096
75	0xbc6d1dd0	-0.01447244
76	0x3c5d880f	0.013521208
77	0xbb910426	-0.0044255434
78	0x3c506847	0.012720174
79	0xbce69742	-0.028148297
80	0xbace04ed	-0.0015718021
81	0x3c51ab6a	0.012797216
82	0x3cb50346	0.022096287
83	0xbc056d7a	-0.008143777
84	0x3b35e15e	0.0027752738
85	0xbc0939b3	-0.008375573
86	0x38f56b0c	0.000117024494
87	0xbaf2451d	-0.0018483732
88	0x3a852b01	0.0010159911
89	0x3c237516	0.009976646
90	0xba48b363	-0.0007656125
91	0x3c3526c3	0.011056605
92	0xbd027b67	-0.031855967
93	0xbc1d6a38	-0.009607844
94	0x3c0784cc	0.008271407
95	0xba859581	-0.001019165
96	0x3c01c34f	0.0079201
97	0x3c1143d1	0.008866266
98	0xbc43c826	-0.011949575
99	0xbba1756a	-0.004927327
100	0xbc6de25f	-0.014519303
101	0xbc56b6e4	-0.013105128
102	0x3c388470	0.011262044
103	0x3c6c475a	0.014421308
104	0xbc86e072	-0.016464446
105	0x3b88681e	0.0041628024
106	0xbc615e7a	-0.013755435
107	0x3c2ca0c8	0.01053638
108	0x3ba2ae6f	0.0049646418
109	0x3c037d97	0.008025548
110	0x3ba39113	0.0049916594
111	0xba084283	-0.00051978993
112	0x3c3f53a6	0.011677658
113	0x3c2d719a	0.010586167
114	0x3b64d531	0.003491711
115	0xbb4289b6	-0.0029684133
116	0xbb523040	-0.0032072216
117	0x3bb9ff7f	0.0056762095
118	0xbc6c2b6a	-0.014414648
119	0x3c70aa59	0.014689052
120	0xbcab9f0d	-0.020949865
121	0xbc6e721b	-0.014553572
122	0xba921fca	-0.001114839
123	0xbb5051a9	-0.0031786954
124	0xbc6f487d	-0.014604685
125	0xb8ff6b74	-0.00012179362
126	0x3d13ee8b	0.036116164
127	0xbbbd65c8	-0.0057799555
128	0x3b38e710	0.0028213896
129	0xbb2b7d07	-0.0026167051
130	0xbb03320c	-0.0020018844
131	0x3b5ad263	0.003338956
132	0x3bbe917b	0.0058156825
133	0x3c0c0821	0.00854686
134	0x3afd08a6	0.0019304946
135	0xbb5d8a17	-0.0033804232
136	0xbb6c6ad0	-0.0036074407
137	0x39fa7f48	0.00047778548
138	0xbb375cd5	-0.0027978916
139	0x3c9d2eda	0.01918738
140	0xbbd21f5d	-0.00641243
141	0xbc8485e4	-0.016177125
142	0xbc611cf0	-0.013739809
143	0x3b037061	0.0020055997
144	0x3c04570c	0.008077394
145	0xbcc9be03	-0.024626737
146	0xbc021156	-0.0079387035
147	0x3c1e4ce4	0.009661887
148	0x3b22c379	0.002483575
149	0xbc416348	-0.011803456
150	0xbc368f45	-0.011142557
151	0x3c88e49b	0.01671057
152	0xbb84c42d	-0.0040517063
153	0x3baa2cb2	0.0051933164
154	0xbc54dfeb	-0.012992839
155	0xbbb8ea4b	-0.0056431643
156	0xbc081dd9	-0.0083078975
157	0xbbb06313	-0.0053829043
158	0x3b8fe550	0.00439135
159	0xbb450d7f	-0.0030067859
160	0x3bae6ad2	0.0053227926
161	0xba5b9f27	-0.00083779026
162	0x3c446676	0.011987319
163	0xbce4f1e1	-0.027947368
164	0xb9706d3a	-0.00022928874
165	0x3cac2845	0.021015296
166	0x3b58ef1f	0.0033101512
167	0x3c0b21d5	0.008491953
168	0x3c0c01d4	0.008545358
169	0xbcb8c7ba	-0.022556175
170	0xbcaa3242	-0.020775918
171	0x3b7d8f9f	0.0038690341
172	0xbc05e920	-0.008173257
173	0xba9c9889	-0.0011947314
174	0x3b855051	0.0040684124
175	0x3c2a6b62	0.010401579
176	0x3c0845d6	0.008317431
177	0x3bb72733	0.0055893897
178	0xbbc377ab	-0.0059651933
179	0x3add8d5d	0.0016903091
180	0xbbd7e436	-0.006588484
181	0x3c851724	0.016246386
182	0xbbe21c9b	-0.0069003827
183	0xbc4f229c	-0.012642529
184	0xb973d152	-0.00023252264
185	0x3b92b666	0.00447731
186	0x3c16fccd	0.009215546
187	0x3ac3b929	0.0014932501
188	0x3ad52768	0.0016262354
189	0xbbe290fa	-0.006914255
190	0xbb65f40f	-0.0035088097
191	0xbc1871a0	-0.009304434
192	0xbc289354	-0.010289032
193	0xbba839fb	-0.005133865
194	0x39f95a7c	0.00047560397
195	0xbbcfe396	-0.006344269
196	0x3ba5c371	0.005058699
197	0x3bb9ce03	0.0056703105
198	0x3c154e13	0.009112853
199	0xbb0c846e	-0.002144124
200	0xbbb5ddd5	-0.005550126
201	0x3c9d4be1	0.019201221
202	0xbc268db8	-0.010165624
203	0xbc5774da	-0.013150418
204	0xbc7b717b	-0.01534688
205	0xbb7740f6	-0.0037727929
206	0x3b6156ba	0.0034383968
207	0xbbefbca8	-0.0073161907
208	0x39a39714	0.00031202345
209	0x3ac41325	0.0014959319
210	0xbb932362	-0.004490302
211	0xbce3ccfc	-0.027807705
212	0x3c179f19	0.00925424
213	0xbc1ee6f3	-0.009698617
214	0xbb898842	-0.0041971514
215	0xbb1132fc	-0.0022155633
216	0xbcb32df3	-0.021872496
217	0x3b7c23f8	0.0038473587
218	0x3bbc9d3e	0.0057560494
219	0xbacbc664	-0.0015546796
220	0x3cccd2d5	0.025002876
221	0x3c303059	0.0107537145
222	0x3be5825e	0.0070040664
223	0x3bfc36ba	0.0076969536
224	0x3c1b381d	0.009473828
225	0xbbe06eeb	-0.00684916
226	0xb8ee3ab4	-0.00011359659
227	0x3c47a975	0.012186398
228	0x397910d1	0.00023752755
229	0xbc7d70e7	-0.015468813
230	0xbc8fd9c5	-0.017559895
231	0x3b823833	0.0039739846
232	0x3c846716	0.016162436
233	0xbb341772	-0.0027479795
234	0x3b519f28	0.0031985734
235	0xbaca2139	-0.0015421278
236	0xbc68c78a	-0.01420773
237	0x3c0a2ddd	0.008433786
238	0xbc1d6efe	-0.009608982
239	0xbb2a7f55	-0.0026015837
240	0xbb4e55c8	-0.0031484235
241	0x3b18356e	0.0023225206
242	0xbb9c8538	-0.004776623
243	0x3cb9549a	0.022623349
244	0xbc35740f	-0.011075034
245	0x3c03cf1a	0.008044982
246	0x3b3b7e66	0.0028609275
247	0xbc9dff5b	-0.019286802
248	0x3c9e799a	0.019345094
249	0x3c48fde1	0.012267561
250	0xbb7c035e	-0.0038454155
251	0x3c9039fb	0.017605772
252	0xbbffbaa1	-0.0078042303
253	0x3c11ccab	0.008898894
254	0xbc2c14de	-0.010503022
255	0x3a1e79e8	0.0006045387

action_model._discrete_distribution.branches.0.bias f4 [3]
0	0x3a78f716	0.0009497268
1	0x38e69c73	0.000109963956
2	0xba1b9b6a	-0.0005935939

action_model._discrete_distribution.branches.1.weight f4 [3, 128]
0	0xbc7f6447	-0.015587873
1	0xbc79a824	-0.015237842
2	0x3c97e126	0.018539976
3	0xbb1b0e74	-0.0023659738
4	0x3c0a3c3e	0.008437214
5	0x3bc571ad	0.006025514
6	0x3ba4b09b	0.005025936
7	0xbb6d19ea	-0.0036178776
8	0x3b16acc9	0.0022991172
9	0x3b18ffe7	0.002334589
10	0x3c54a767	0.012979365
11	0x3b5d4a65	0.0033766266
12	0xbadb2f10	-0.00167224
13	0xbbc8e29a	-0.0061305286
14	0x3b9b1b58	0.0047334842
15	0x3ad2700d	0.0016055122
16	0xbc290949	-0.010317155
17	0xbb50f033	-0.003188145
18	0xbc6b4d41	-0.0143616805
19	0x3b435a26	0.0029808371
20	0xbbf505dd	-0.0074775056
21	0xbbba6f4d	-0.0056895376
22	0xbb82f966	-0.0039970158
23	0xbb82a18b	-0.0039865426
24	0x3b5a6a62	0.003332757
25	0x3c0ab7ff	0.00846672
26	0x3b7bb892	0.0038409573
27	0x3cc47d6f	0.023985593
28	0xba9079c1	-0.0011022614
29	0xba44c1be	-0.00075056765
30	0xbbecfb30	-0.0072320923
31	0xbb023850	-0.001986999
32	0xbbca02dd	-0.006164892
33	0x3c01d54a	0.007924387
34	0x3abd6997	0.0014451024
35	0xbbc1e4a2	-0.0059171477
36	0x3ca1c1e0	0.019745767
37	0xbc1df0f2	-0.009639965
38	0x3b15b886	0.002284558
39	0xba0881bf	-0.0005207322
40	0xbc009101	-0.007847072
41	0x3c9319b3	0.01795659
42	0xbb89e191	-0.004207798
43	0x3b9c7de9	0.004775752
44	0xbc4f7e0c	-0.012664329
45	0x3c0ad4bb	0.00847357
46	0xbc5eb852	-0.01359375
47	0xbb9729f5	-0.004613156
48	0x3c0f963a	0.008763844
49	0xbbdb8dd1	-0.0067002554
50	0xbcd0aa62	-0.02547187
51	0xbb54326e	-0.0032378691
52	0xbb7031c4	-0.0036650756
53	0x3c64e6f4	0.013971079
54	0xbc4caf85	-0.012493019
55	0xbbed7937	-0.007247116
56	0x3cefe202	0.029282574
57	0x39a36e20	0.00031171832
58	0xbb83948a	-0.00401551
59	0x3b963fd1	0.004585244
60	0xbbf2654b	-0.007397329
61	0xbb57a82a	-0.003290663
62	0x3b6cfc9f	0.0036161316
63	0x3c0e93ce	0.008702232
64	0x3c6a6c73	0.014308083
65	0xbb099527	-0.0020993443
66	0x3b50580f	0.0031790768
67	0x3be78f85	0.0070666694
68	0x3aef2efb	0.0018248254
69	0xba46ef34	-0.00075887446
70	0xbcac6191	-0.021042617
71	0x3b7a250f	0.0038169061
72	0x3aaf2e68	0.001336527
73	0xbbf7200e	-0.007541663
74	0x3c355463	0.011067483
75	0x3adb1a3f	0.0016716196
76	0xbcb05b09	-0.021527784
77	0x3bc25de8	0.0059316047
78	0x3ba84eba	0.005136338
79	0xbc224015	-0.009902974
80	0xbb830f70	-0.003999643
81	0x3bf59ddd	0.0074956254
82	0xbc23910e	-0.009983314
83	0x3b955104	0.004556777
84	0xbc115d5e	-0.008872358
85	0x3c1c2b77	0.009531847
86	0xbc6f5c89	-0.014609464
87	0xbad14ba0	-0.0015967973
88	0x3c4a5956	0.012350401
89	0xbacbed27	-0.0015558348
90	0x3ca29443	0.019846087
91	0x3c0c6d85	0.008571033
92	0x3be31aee	0.0069307005
93	0x3c82d7ad	0.015971983
94	0x3c0b823c	0.008514937
95	0x3bcf53c3	0.006327124
96	0x3b3cb9b5	0.0028797213
97	0x3c25111e	0.010074882
98	0x3cd96283	0.026536232
99	0x39f2da01	0.00046320262
100	0xbae5345a	-0.0017486915
101	0xbb656af8	-0.0035006385
102	0xba6d773e	-0.0009058601
103	0xbca8393e	-0.020535108
104	0x3a07998c	0.00051727216
105	0x3c5b83ae	0.013398094
106	0x3cbdfd48	0.023192063
107	0x3b0f6a0e	0.0021883282
108	0xbcdc9de7	-0.026930762
109	0xbb7429bd	-0.0037256323
110	0x39c6538f	0.0003782776
111	0xbbc01026	-0.0058613
112	0xbc634a9c	-0.013872769
113	0xbbb2e37f	-0.0054592486
114	0xbc46eba5	-0.012141143
115	0x3a225857	0.0006192973
116	0xbc034746	-0.008012598
117	0x3bbf246d	0.0058331997
118	0xbad145a8	-0.0015966194
119	0xb985d3e2	-0.00025525602
120	0x3be152ce	0.006876326
121	0x3c01223e	0.007881699
122	0xbafb56c0	-0.0019175634
123	0xbb786cef	-0.0037906726
124	0xbb8d738e	-0.0043167537
125	0xba67f119	-0.0008847877
126	0xbc1de411	-0.009636895
127	0x3c71844b	0.014741014
128	0x3a98f967	0.0011671007
129	0xbc205555	-0.00978597
130	0x3bd7e7e2	0.006588922
131	0xbbc3d54b	-0.0059763542
132	0xba353908	-0.00069131004
133	0xbcbb9f23	-0.02290303
134	0x3b66feeb	0.0035247158
135	0x3c44c95e	0.0120109
136	0xbca33cd4	-0.019926466
137	0xbc66e4f2	-0.014092671
138	0x3b486deb	0.0030583094
139	0xba8f61b2	-0.001093915
140	0xbb9fc19d	-0.0048753754
141	0xbc7c9422	-0.015416177
142	0xbc464930	-0.01210241
143	0xbb1d973b	-0.002404644
144	0x3b834d7e	0.0040070405
145	0x3c9a4503	0.018831735
146	0x3c12fce6	0.0089714285
147	0x3c22185a	0.009893501
148	0xbc1fa681	-0.0097442875
149	0x3b730ac6	0.003708528
150	0xbb96477f	-0.0045861597
151	0xbc2d7b5f	-0.010588496
152	0x3bc4d7a4	0.0060071517
153	0xbb9106c0	-0.0044258535
154	0xbc3451b0	-0.011005804
155	0x3baa327b	0.005194006
156	0xbaffe1ec	-0.0019522286
157	0xbc1e2c68	-0.009654142
158	0x3c8475c2	0.016169433
159	0xbc87740e	-0.016534831
160	0xbc4451c6	-0.011982387
161	0xbb6b79ae	-0.003593068
162	0x3c202c7e	0.009776233
163	0x3c08478f	0.008317842
164	0x3aece62e	0.001807397
165	0x3c184c68	0.00929556
166	0x3b353110	0.0027647652
167	0xbc4fd6af	-0.012685462
168	0xbbe99cff	-0.007129311
169	0x3c2ca423	0.01053718
170	0x3be05bce	0.0068468815
171	0x3c4af956	0.012388548
172	0x3b6b3c75	0.003589419
173	0x3bb98bb5	0.0056624063
174	0x3c129235	0.008945991
175	0x3ba04b26	0.004891771
176	0xbc02bb9a	-0.007979298
177	0xbaebef11	-0.0018000324
178	0x3b0d2c7d	0.002154141
179	0x3b1ef4d5	0.0024254818
180	0xbc16cc1b	-0.009203936
181	0xbbbc56d4	-0.0057476554
182	0xbaad9f8e	-0.0013246404
183	0x3c07d39b	0.008290197
184	0x3c4c3dca	0.012465904
185	0xbc8baade	-0.01704925
186	0x3c43d332	0.011952208
187	0xbba6d953	-0.005091825
188	0xbbe826ab	-0.0070846877
189	0xbc26650f	-0.01015593
190	0xbbd66a6b	-0.0065434477
191	0x3c78013a	0.015137011
192	0xbb8a493a	-0.004220155
193	0xbc83b3bb	-0.016076913
194	0x38746efa	5.827749e-05
195	0x39bb7652	0.00035755575
196	0xba1f1c13	-0.0006069552
197	0x3bb674c7	0.00556812
198	0x3ba50fd5	0.0050372877
199	0xbbc150fd	-0.005899547
200	0xbba4c5c3	-0.005028458
201	0xbae912e4	-0.0017782119
202	0xbbf9a633	-0.0076186894
203	0xbb7ad65c	-0.003827474
204	0xbb617b62	-0.0034405817
205	0x3b8dc793	0.0043267696
206	0xbc0dab91	-0.008646862
207	0x3bdd740f	0.00675822
208	0x3c14927e	0.00906813
209	0xbc34fa9c	-0.011046078
210	0xbab1520d	-0.0013528481
211	0x3bb8120d	0.005617386
212	0x3a3c46f3	0.0007182203
213	0xb896f54d	-7.198248e-05
214	0x3c2cec9e	0.010554461
215	0xbb32169a	-0.0027174116
216	0x39851c78	0.00025388948
217	0xbc55a482	-0.01303971
218	0xbc0e1d26	-0.008673942
219	0x3be0ccea	0.006860365
220	0xba3f266f	-0.0007291799
221	0x3b83721d	0.004011406
222	0x3c419ce8	0.0118171945
223	0x3c7bc975	0.015367855
224	0xbac71c56	-0.001519094
225	0xbbe2c349	-0.0069202525
226	0x3bbf335f	0.0058349813
227	0xbb34fae0	-0.0027615353
228	0xbb5b2c7f	-0.003344327
229	0xbc360c9e	-0.011111407
230	0xb9021ae1	-0.0001240778
231	0x3a43e33e	0.00074725214
232	0xbc348963	-0.011019084
233	0xbc0e36ae	-0.008680029
234	0xbba2b085	-0.0049648904
235	0xbc2458db	-0.01003095
236	0xbbeef55e	-0.0072924336
237	0xbad72be3	-0.0016416278
238	0xbaa4669d	-0.0012542788
239	0xbc0b265d	-0.008493033
240	0x3c7bbf69	0.01536546
241	0x3bc32e24	0.005956428
242	0xbb01550b	-0.0019734527
243	0xbb708f64	-0.0036706561
244	0x3c335762	0.010946127
245	0x3b9dc0cb	0.0048142425
246	0x3b01e9cc	0.0019823192
247	0x3c364e65	0.011127089
248	0x3c1ae5e2	0.009454222
249	0xbbd3a94d	-0.006459391
250	0xbc140819	-0.009035134
251	0xbbc591e2	-0.0060293535
252	0x3af8a98c	0.0018971427
253	0xba48615f	-0.0007643904
254	0x3c3cd8d6	0.011526307
255	0xbc15590c	-0.009115469

action_model._discrete_distribution.branches.1.bias f4 [3]
0	0x38176dfe	3.6103644e-05
1	0x38bafdcb	8.916444e-05
2	0xb81c0bf8	-3.7204445e-05

action_model._discrete_distribution.branches.2.weight f4 [1, 128]
0	0xbb72e64d	-0.003706354
1	0x3b7a4ccb	0.0038192745
2	0xbbbc4ff4	-0.005746836
3	0xb9ef3aef	-0.0004562954
4	0xbc506257	-0.012718759
5	0xba92f71d	-0.0011212562
6	0x3c34327c	0.010998365
7	0x3bfeb85d	0.0077734427
8	0xbc30d0e6	-0.010791993
9	0x3be96ac3	0.0071233227
10	0xbc5d72e7	-0.013516164
11	0xbba675b3	-0.005079949
12	0x3c562593	0.013070482
13	0x3c29ba62	0.0103593785
14	0x3b982f6f	0.0046443264
15	0x3bb6616f	0.005565814
16	0xbc90f932	-0.01769695
17	0xbc95d89c	-0.018291764
18	0xbc6e53dd	-0.014546362
19	0x3c809f99	0.015701102
20	0x3bbf7594	0.005842874
21	0x3c4b3a53	0.012404042
22	0xbc73756f	-0.014859541
23	0xba4c78ae	-0.0007799965
24	0xbc5d9433	-0.013524103
25	0xbb870689	-0.004120652
26	0x3b129414	0.0022366093
27	0x3bc78d87	0.0060898694
28	0xbc03bb8c	-0.00804032
29	0xbc256d5e	-0.010096876
30	0x3bc9ab6d	0.0061544687
31	0x3bbf5111	0.0058385213
32	0xbb22df47	-0.0024852322
33	0xbc17b978	-0.009260528
34	0x3a2e09fc	0.0006639061
35	0x3b8c9d64	0.0042912234
36	0xbc772652	-0.01508482
37	0xbb9c207e	-0.0047646156
38	0xbc4cbcf0	-0.012496218
39	0x3a1e9507	0.00060494285
40	0x3b78f5ef	0.0037988385
41	0xbb8a471f	-0.004219904
42	0x3bfe794d	0.007765925
43	0xbbd1a270	-0.006397538
44	0xbb17ad05	-0.00231439
45	0x3a9e1cce	0.0012063028
46	0xbc1e86c3	-0.009675684
47	0x3c251255	0.0100751715
48	0x3b120449	0.0022280386
49	0x3aab9023	0.0013089221
50	0x3c4687f7	0.0121173775
51	0xbb73fd0d	-0.0037229687
52	0xbb0a4788	-0.0021099765
53	0xbc27d2b4	-0.010243107
54	0xbb7259b7	-0.0036979744
55	0xbc86fb3a	-0.016477216
56	0xbc93579d	-0.017986113
57	0xbc5256a7	-0.012838042
58	0xbc1e83ae	-0.00967495
59	0xbb5a6d8d	-0.0033329458
60	0x3be2926a	0.0069144266
61	0xbb94e1ab	-0.0045435033
62	0x3b8e2f88	0.0043391623
63	0xbb05cc15	-0.0020415832
64	0x3b061253	0.00204577
65	0xbba800b7	-0.0051270383
66	0x3c0302af	0.007996245
67	0x3884c229	6.3304156e-05
68	0xbb789a3b	-0.0037933725
69	0xbc053513	-0.00813033
70	0xbb826b07	-0.003980044
71	0x3b110ccc	0.0022132872
72	0x3c64f007	0.013973243
73	0x3b325115	0.0027208973
74	0x3c31e5eb	0.010858039
75	0xba1e8114	-0.0006046456
76	0x3b008afe	0.0019614096
77	0xbb340dc3	-0.0027474023
78	0x3c384af9	0.011248344
79	0x3bf5128a	0.0074790167
80	0x3af26c6b	0.0018495446
81	0xbc12e37d	-0.00896537
82	0x38ba2ae7	8.877162e-05
83	0xbb0d38cb	-0.0021548744
84	0x3c4ea8df	0.012613504
85	0x3c357837	0.011076025
86	0x3c0f1f73	0.008735525
87	0xbb77004a	-0.0037689381
88	0x3c17aecf	0.009257986
89	0xbba06dd8	-0.004895907
90	0xba954e9d	-0.0011391226
91	0x3c65711b	0.014004017
92	0xbc55127d	-0.013004896
93	0xbaf21f1a	-0.0018472404
94	0x3c99d524	0.018778391
95	0x3c3de8ea	0.011591176
96	0x3bad0069	0.00527959
97	0x3c37abab	0.011210362
98	0x3ca73a24	0.020413466
99	0x3bd12a1d	0.006383194
100	0x3b67c8e5	0.0035367545
101	0x3a6adcad	0.0008959275
102	0x3c349f0c	0.011024248
103	0xbc10234f	-0.008797481
104	0x3b0c3973	0.0021396547
105	0x3bcc91d8	0.006242972
106	0x3c31462e	0.010819955
107	0x3b145d8b	0.0022638764
108	0xbb4fe3a3	-0.0031721375
109	0x3c856290	0.01628235
110	0xbc00fd9b	-0.007872964
111	0x3b9c102b	0.0047626696
112	0xbc736ceb	-0.014857511
113	0x39c7df18	0.00038122456
114	0x3c0ad027	0.008472479
115	0x3c0c5bb8	0.008566789
116	0xbb95ceb9	-0.0045717624
117	0x3c367bb1	0.011137889
118	0xbc04e907	-0.008112199
119	0xbc726fea	-0.01479719
120	0x3a9a2189	0.0011759262
121	0x3af4a9a5	0.0018666281
122	0xbb480821	-0.0030522423
123	0xbc3989c4	-0.01132435
124	0xbae1adbb	-0.0017217913
125	0x3c5aeeb7	0.013362578
126	0x3ba1b35c	0.0049347114
127	0x3c47758d	0.012174022

exp_avg f4 [128, 6]
0	0x39834dc1	0.00025044198
1	0x353b7802	6.9837563e-07
2	0x397b8545	0.00023986872
3	0x39184704	0.00014522305
4	0x372e0818	1.0373093e-05
5	0x39ef4b0f	0.00045641555
6	0xad079c39	-7.70855e-12
7	0xa91b1577	-3.443553e-14
8	0xace8d942	-6.617957e-12
9	0xacfcfae0	-7.1901235e-12
10	0xab108f61	-5.1358055e-13
11	0xadc6c51f	-2.2597533e-11
12	0x3992576a	0.0002791242
13	0x35a7c907	1.2500976e-06
14	0x3a3688c2	0.00069631275
15	0x3987b6ec	0.00025885494
16	0x379b1a2c	1.8489627e-05
17	0x3a554402	0.0008135439
18	0xb9da85c9	-0.00041679878
19	0xb5ea6e38	-1.7466436e-06
20	0xba797a00	-0.00095167756
21	0xb9bfaf71	-0.00036561073
22	0xb7db119a	-2.611503e-05
23	0xba969c1e	-0.0011490618
24	0xb94c58eb	-0.0001948808
25	0xb58f6cf2	-1.0686038e-06
26	0xb9ebb6f0	-0.00044958992
27	0xb959fc4f	-0.00020788725
28	0xb7792048	-1.4849073e-05
29	0xba2b4639	-0.00065335963
30	0x37198a18	9.151663e-06
31	0xb419f5fc	-1.4338724e-07
32	0x3a7399a6	0.000929261
33	0x388f50e4	6.8338384e-05
34	0x36a3c9da	4.881277e-06
35	0x3961367c	0.00021477969
36	0x3908e13a	0.00013053874
37	0x354e15c4	7.6772653e-07
38	0x39a97a20	0.00032325182
39	0x391553ee	0.00014241014
40	0x372aa904	1.0172142e-05
41	0x39eaa878	0.00044757477
42	0xb9a1fd36	-0.0003089697
43	0xb55c345f	-8.2032597e-07
44	0xba91c9ed	-0.0011122801
45	0xb9877052	-0.00025832892
46	0xb79ac98a	-1.845208e-05
47	0xba54d516	-0.00081189105
48	0x34663ee5	2.14433e-07
49	0x304ebdb6	7.521196e-10
50	0x34b354d7	3.3403077e-07
51	0x343da7c0	1.7663024e-07
52	0x3258bfb1	1.261644e-08
53	0x351503c2	5.5512294e-07
54	0xaf2b84e2	-1.5599569e-10
55	0xab498808	-7.1598326e-13
56	0xafe1f29a	-4.109964e-10
57	0xaf0b6001	-1.2676084e-10
58	0xad1f491d	-9.054338e-12
59	0xafdb0488	-3.9839088e-10
60	0x381b9d7c	3.710155e-05
61	0x34c7a831	3.7189014e-07
62	0x394f1638	0.00019749335
63	0x389876d0	7.270055e-05
64	0x36ae3eb6	5.1929046e-06
65	0x396f963c	0.00022848783
66	0x36078d6e	2.019889e-06
67	0x3219eb33	8.95925e-09
68	0x363bbffe	2.7976926e-06
69	0x35f1e29a	1.8021849e-06
70	0x340a3854	1.2872744e-07
71	0x36be0d84	5.6640147e-06
72	0x39069468	0.00012834521
73	0x358aaf73	1.0332864e-06
74	0x375215d0	1.2522054e-05
75	0x3904b6be	0.00012656578
76	0x3717ac42	9.040408e-06
77	0x39d08cbe	0.00039777713
78	0xb93f6f0e	-0.0001825655
79	0xb53330a2	-6.6753466e-07
80	0xba34aef8	-0.00068925275
81	0xb9371fbd	-0.00017464063
82	0xb75148f2	-1.2474355e-05
83	0xba0fe224	-0.00054887147
84	0x39dbdd52	0.00041935832
85	0x361873ad	2.2717097e-06
86	0x3aaf7318	0.0013385741
87	0x39e8ae26	0.0004438024
88	0x3804f5cf	3.170018e-05
89	0x3ab6d1f5	0.001394807
90	0x9c510750	-6.916175e-22
91	0x98b02f33	-4.5542593e-24
92	0x9d064eb0	-1.7775433e-21
93	0x9c705e80	-7.9531477e-22
94	0x9a895a97	-5.680823e-23
95	0x9d3cdc84	-2.4995597e-21
96	0x2806787f	7.464623e-15
97	0x241b5231	3.3679886e-17
98	0x27abbff6	4.767016e-15
99	0x28006cbf	7.129008e-15
100	0x2612c567	5.0921456e-16
101	0x28c9cf68	2.2405431e-14
102	0xb8941eca	-7.062925e-05
103	0xb51ebe76	-5.9136744e-07
104	0xba15f065	-0.00057197205
105	0xb90e26dc	-0.00013556652
106	0xb72275a8	-9.683346e-06
107	0xb9df61c0	-0.00042606704
108	0xb84c7db3	-4.8754457e-05
109	0xb5065b5e	-5.0051847e-07
110	0xb88a98fe	-6.60885e-05
111	0xb8836351	-6.265066e-05
112	0xb696286c	-4.475054e-06
113	0xb94e77a6	-0.00019690263
114	0xb93339de	-0.00017092327
115	0xb5530d70	-7.862318e-07
116	0xba024ced	-0.0004970569
117	0xb938737f	-0.00017590633
118	0xb752cd16	-1.2564726e-05
119	0xba10ed02	-0.0005528481
120	0x3841df08	4.62225e-05
121	0x35071e1c	5.0335234e-07
122	0x39df12e8	0.0004254796
123	0x3903e6e2	0.00012579144
124	0x3716bed0	8.985124e-06
125	0x39cf466a	0.0003953458
126	0x1ec090f2	2.0388739e-20
127	0x1af36339	1.0066275e-22
128	0x1eaba97a	1.8175423e-20
129	0x1eb3ee66	1.9050961e-20
130	0x1ccda2b2	1.3607818e-21
131	0x1f8d5fe2	5.987445e-20
132	0xb631b1e0	-2.6478592e-06
133	0x3498d341	2.8465914e-07
134	0x3987bcb6	0.00025889807
135	0x381ccaab	3.7382048e-05
136	0x363330aa	2.6701405e-06
137	0x38f6630c	0.00011748643
138	0x92bfbeb6	-1.21008085e-27
139	0x8ec6b8b9	-4.898865e-30
140	0x938773c4	-3.4192945e-27
141	0x92bcbfce	-1.1911752e-27
142	0x90d7b68b	-8.50838e-29
143	0x93944dc6	-3.7437143e-27
144	0x38afb2d2	8.377958e-05
145	0x355a6d5f	8.1370484e-07
146	0xb9593bae	-0.00020716965
147	0x3895a6fe	7.1359784e-05
148	0x36ab07a6	5.0970875e-06
149	0x396b2a74	0.00022427161
150	0x397422d1	0.00023282623
151	0x35466bc8	7.391759e-07
152	0x3a283c6f	0.0006417697
153	0x3959d1ae	0.00020772844
154	0x3778efab	1.4837754e-05
155	0x3a2b24ca	0.00065286143
156	0xb82ae00c	-4.073982e-05
157	0xb4f9ba8f	-4.6515603e-07
158	0xba03c9d4	-0.0005027328
159	0xb8ae3d38	-8.3083694e-05
160	0xb6c72181	-5.9345625e-06
161	0xb988e734	-0.000261122
162	0xb7254a94	-9.8521305e-06
163	0xb4830f66	-2.4411855e-07
164	0x3a126dcc	0.0005585819
165	0x36f8c820	7.4142736e-06
166	0x350e2a80	5.296097e-07
167	0x37c37b20	2.3303146e-05
168	0xa646119c	-6.8718915e-16
169	0xa24b6c3c	-2.7568929e-18
170	0xa70ca13b	-1.9516306e-15
171	0xa63a1ad5	-6.456808e-16
172	0xa454b0ec	-4.612003e-17
173	0xa71239a3	-2.0292815e-15
174	0x39f28799	0.00046258865
175	0x361d237b	2.3415475e-06
176	0x3a64e533	0.0008731663
177	0x39d78faf	0.00041115048
178	0x37f65b19	2.9367906e-05
179	0x3aa95ea5	0.0012921883
180	0xb29a0455	-1.792993e-08
181	0xaebe159c	-8.644038e-11
182	0xb3085343	-3.1740694e-08
183	0xb268d847	-1.3553353e-08
184	0xb0850de8	-9.680976e-10
185	0xb336f31f	-4.2596294e-08
186	0xb65c634b	-3.284035e-06
187	0xb29035b7	-1.6788233e-08
188	0xb64f9609	-3.0932736e-06
189	0xb64d3edd	-3.0583972e-06
190	0xb46a90fb	-2.1845692e-07
191	0xb72143ac	-9.612104e-06
192	0x387d0fc4	6.0334583e-05
193	0x349721f3	2.8150643e-07
194	0x38c07961	9.177882e-05
195	0x3858e133	5.1708146e-05
196	0x3677dcd2	3.6934402e-06
197	0x392a67ce	0.00016251134
198	0x9bc89972	-3.3186386e-22
199	0x9867fafa	-2.9982761e-24
200	0x9c64346e	-7.5506636e-22
201	0x9bbc8dea	-3.11937e-22
202	0x99d77d9e	-2.2281215e-23
203	0x9c9426ab	-9.803814e-22
204	0xa08cc284	-2.3845642e-19
205	0x9cb384b5	-1.187953e-21
206	0xa148be63	-6.801461e-19
207	0xa0902d15	-2.4424382e-19
208	0x9ea4c5d3	-1.7445994e-20
209	0xa1628ffe	-7.676235e-19
210	0x19446fce	1.0155541e-23
211	0x15874459	5.46339e-26
212	0x19992f3f	1.5838912e-23
213	0x1953d924	1.09522955e-23
214	0x17721cba	7.8230675e-25
215	0x1a2673c8	3.4421523e-23
216	0x17ab0dee	1.1054132e-24
217	0x13ca1833	5.101583e-27
218	0x1792ba82	9.48211e-25
219	0x179f9ec2	1.031521e-24
220	0x15b66c4e	7.368009e-26
221	0x187ad4e8	3.2419233e-24
222	0xa1a3a7c5	-1.1089718e-18
223	0x9dc43eb7	-5.1945614e-21
224	0xa265df9f	-3.1153671e-18
225	0xa19961cc	-1.039357e-18
226	0x9faf4b32	-7.423978e-20
227	0xa2710764	-3.2665503e-18
228	0xb903662c	-0.00012531196
229	0xb5158df4	-5.5713394e-07
230	0xba248002	-0.0006275178
231	0xb92d6453	-0.0001653594
232	0xb746298d	-1.1811394e-05
233	0xba083ca8	-0.0005197027
234	0xb97abfd4	-0.0002391332
235	0xb48f6af0	-2.6713633e-07
236	0xbaacc603	-0.0013181571
237	0xb96dc619	-0.00022675878
238	0xb787df09	-1.6197113e-05
239	0xba3ad2a3	-0.0007126724
240	0x9b84a3f8	-2.194353e-22
241	0x972e83ba	-5.6388695e-25
242	0x9cc01196	-1.271004e-21
243	0x9b8a06a3	-2.2834474e-22
244	0x999dbe7d	-1.6310357e-23
245	0x9c58e5ab	-7.1765244e-22
246	0x396f3d7d	0.00022815722
247	0x35777a9d	9.2193096e-07
248	0x3a4f31ea	0.0007903861
249	0x396e1bdc	0.00022707827
250	0x37880ff1	1.6219887e-05
251	0x3a3b15da	0.000713674
252	0xb6bb9ba0	-5.5911514e-06
253	0x33ef8080	1.1152679e-07
254	0xba1b2900	-0.000591889
255	0xb8903a50	-6.8773166e-05
