results/ppo/ControlCar/ControlCar-2496.pt (torch, 163817 bytes, 15 tensors)

discrete_act_size_vector f4 [1, 3]
3.0 3.0 1.0
00000000: 0000 4040 0000 4040 0000 803f

network_body._body_endoder.seq_layers.0.weight f4 [128, 16]
0.38303602 0.3619078 0.057545267 -0.27979553 0.5281659 0.16055414 0.41123366 0.042000737
0.2594491 -0.74141294 0.17448705 -0.15030447 -0.33229277 0.43266964 0.14022973 0.2095051
-0.26634225 0.019869607 0.19766706 -0.08914269 0.1773743 -0.30190217 0.32762644 0.041131727
-0.08718203 0.0042162486 0.24563268 0.409409 -0.0032048337 -0.15985663 -0.19436577 -0.1829042
0.3251724 0.21692851 0.16759652 -0.12785168 0.14719534 -0.06289566 -0.07010744 0.37395555
0.111751035 -0.14476426 0.053359453 0.10162646 0.29037744 -0.33324966 0.2167413 -0.0342396
-0.09652735 -0.011419091 -0.3180212 -0.20484984 -0.07283041 0.25352952 -0.09031111 -0.5036185
-0.023961902 -0.27806133 -0.1608281 0.28092977 0.056254562 -0.3544331 0.41608548 -0.096000515
0.4690935 -0.5072464 0.15646534 -0.0074446206 -0.43182573 -0.43845853 -0.10149383 -0.4570847
-0.29031187 0.34424588 0.12544133 -0.24311328 -0.54881686 -0.0674868 -0.20420788 -0.034247976
-0.35954478 0.05630735 -0.3301456 -0.21339658 -0.21409035 0.13877217 -0.27810392 -0.21747398
-0.18958373 -0.75304896 -0.31192234 0.45219997 -0.3004415 0.10160258 0.032420952 0.18283138
-0.1933525 -0.27626964 0.43643627 -0.3761032 -0.22252218 -0.16918308 -0.3443991 0.107233144
-0.39785293 -0.19630934 0.17860934 0.32801837 0.24129361 0.10687178 0.10096766 0.39758003
9.934266e-05 0.0758013 0.20379552 0.048389688 0.1873015 0.106530696 -0.35203028 -0.04749308
0.18499765 0.18312022 0.3341892 0.08633112 0.3386518 -0.21327226 -0.17747357 0.23000833
0.23883894 0.0027470954 -0.17491946 0.14007226 -0.22630556 0.351203 0.14393689 0.3135128
0.01836705 -0.02581325 0.35543665 0.550392 -0.077536084 -0.3418896 -0.2721251 0.02126698
0.09074394 0.4554687 0.13075057 -0.22319332 -0.37930384 0.2528373 -0.06084567 -0.114268474
-0.12019832 0.1497247 0.23494895 0.2895165 -0.49667972 -0.09931629 -0.34397283 -0.017150931
-0.2119258 -0.40047494 -0.65868586 -0.116154 0.22864945 0.008610348 -0.07170817 0.33534428
-0.083863586 -0.36380813 0.268544 -0.33507055 -0.025560651 -0.33131102 -0.09134406 -0.12652692
-0.0721547 -0.030533517 0.030646117 -0.37107012 -0.014453899 -0.10818347 0.2779 -0.29026595
-0.09526598 0.4521487 -0.37259787 -0.16727404 -0.2316274 -0.19134755 -0.14200531 -0.10044285
0.24876137 -0.26221514 -0.14910813 0.09402741 0.37730497 0.44436875 -0.19105433 0.297441
-0.6113295 -0.029803682 0.1812017 -0.11214211 0.1556902 0.097569115 0.10900727 -0.040531736
-0.37398955 -0.28227976 0.1434409 0.14889973 0.45262033 0.40088102 -0.019071242 -0.12708074
0.16343762 0.27983484 -0.010374003 0.24796402 0.28767517 -0.3537784 0.24872832 0.5804095
-0.19526467 0.260897 -0.057037767 -0.20977548 0.17994693 0.03161448 -0.24023235 0.26505992
0.31766385 -0.27435896 0.5537641 0.20638013 0.28322113 -0.24382971 -0.3483128 0.05463329
0.18925595 -0.26538464 -0.14815511 -0.20217818 -0.45212847 -0.113092676 -0.20970777 0.09638055
0.13248652 -0.22080731 -0.39894295 0.10694408 -0.07816832 0.068780586 0.0071757264 -0.468499
00000000: 4c1d c43e fb4b b93e 96b4 6b3d 5c41 8fbe
00000010: e135 073f 4e68 243e 388d d23e f708 2c3d
00000020: 83d6 843e 3dcd 3dbf bcac 323e 6ae9 19be
00000030: 4722 aabe e086 dd3e 6298 0f3e 8188 563e
00000040: 035e 88be 96c5 a23c 3c69 4a3e 7190 b6bd
00000050: 9ca1 353e ec92 9abe a7be a73e be79 283d
00000060: 7e8c b2bd 7528 8a3b 2287 7b3e 0e9e d13e
00000070: 3008 52bb 75b1 23be d207 47be 3d4b 3bbe
00000080: ff7c a63e 8222 5e3e 6c9e 2b3e 8deb 02be
00000090: 60ba 163e 71cf 80bd 7d94 8fbd 1a77 bf3e
000000a0: badd e43d 153d 14be 718f 5a3d 8921 d03d
000000b0: 5aac 943e b39f aabe 6ef1 5d3e d33e 0cbd
000000c0: 22b0 c5bd 2417 3bbc add3 a2be 28c4 51be
000000d0: 1c28 95bd 9fce 813e 08f5 b8bd 24ed 00bf
000000e0: c04b c4bc 0e5e 8ebe 1fb0 24be 07d6 8f3e
000000f0: 2f6b 663d 4178 b5be 2809 d53e eb9b c4bd
00000100: 062d f03e e6da 01bf 7338 203e 01f2 f3bb
00000110: 4318 ddbe a37d e0be ffdb cfbd 0107 eabe
00000120: c2a3 94be ff40 b03e b173 003e b0f2 78be
00000130: 437f 0cbf 8536 8abd df1b 51be 9b47 0cbd
00000140: 4116 b8be 89a2 663d d808 a9be a284 5abe
00000150: 803a 5bbe 4b1a 0e3e a363 8ebe 80b1 5ebe
00000160: 3d22 42be d1c7 40bf 49b4 9fbe c186 e73e
00000170: 78d3 99be 0315 d03d d5cb 043d 2638 3b3e
00000180: 33fe 45be 3773 8dbe 9374 df3e 9990 c0be
00000190: dbdc 63be 543e 2dbe 1455 b0be 0d9d db3d
000001a0: 61b3 cbbe 5105 49be 5ee5 363e 06f2 a73e
000001b0: ac15 773e 97df da3d 22c8 ce3d 9c8f cb3e
000001c0: 2f56 d038 b63d 9b3d c6af 503e 4434 463d
000001d0: f7cb 3f3e c42c da3d 503d b4be 1b88 42bd
000001e0: 0670 3d3e de83 3b3e d91a ab3e 5fce b03d
000001f0: c563 ad3e 0b64 5abe a2bb 35be 4e87 6b3e
00000200: 3292 743e 9d08 343b 161e 33be 1a6f 0f3e
00000210: a5bc 67be e1d0 b33e 3164 133e c084 a03e
00000220: 7f76 963c 4f76 d3bc cbfb b53e 7de6 0c3f
00000230: 3dcb 9ebd 270c afbe fb53 8bbe 1738 ae3c
00000240: f5d7 b93d 3233 e93e 7ae3 053e ca8c 64be
00000250: 1d34 c2be e473 813e 4f39 79bd 9705 eabd
00000260: 892a f6bd 6f51 193e 7596 703e 823b 943e
00000270: ce4c febe 5766 cbbd 351d b0be 1c80 8cbc
00000280: 1403 59be 0d0b cdbe a39f 28bf 26e2 edbd
00000290: 1523 6a3e 6b12 0d3c bcdb 92bd 3fb2 ab3e
000002a0: acc0 abbd 0f45 babe 997e 893e 5e8e abbe
000002b0: 9264 d1bc 99a1 a9be 9812 bbbd 4690 01be
000002c0: d8c5 93bd 6d21 fabc 910d fb3c e7fc bdbe
000002d0: 0cd0 6cbc 4c8f ddbd e948 8e3e bd9d 94be
000002e0: cf1a c3bd 0980 e73e 26c5 bebe e349 2bbe
000002f0: bc2f 6dbe 9df0 43be d769 11be fbb4 cdbd
00000300: 4dbb 7e3e 1041 86be cdaf 18be 7191 c03d
00000310: 1e2e c13e 4d84 e33e bfa3 43be 304a 983e
00000320: 1780 1cbf da26 f4bc f08c 393e c3aa e5bd
00000330: 406d 1f3e 51d2 c73d 343f df3d 9b04 26bd
00000340: 8f7b bfbe f986 90be 2ce2 123e 2c79 183e
00000350: dabd e73e 4740 cd3e 4b3b 9cbc 7421 02be
00000360: 315c 273e 8346 8f3e b9f7 29bc 48ea 7d3e
00000370: 294a 933e 7122 b5be a3b2 7e3e b895 143f
00000380: 76f3 47be 4b94 853e 6fa0 69bd 62cf 56be
00000390: 0244 383e 2f7e 013d 78ff 75be efb5 873e
000003a0: d6a4 a23e c778 8cbe 7cc3 0d3f 5055 533e
000003b0: 5c02 913e 7fae 79be 0e56 b2be 28c7 5f3d
000003c0: 50cc 413e 7fe0 87be f9b5 17be cc07 4fbe
000003d0: 627d e7be 229d e7bd a2bd 56be 2a63 c53d
000003e0: 8caa 073e 501b 62be 4042 ccbe 7f05 db3d
000003f0: b616 a0bd d6dc 8c3d 5b22 eb3b 1adf efbe

network_body._body_endoder.seq_layers.0.bias f4 [128]
0.0 0.0 0.0 0.0 0.0 0.0 0.0 0.0
0.0 0.0 0.0 0.0 0.0 0.0 0.0 0.0
0.0 0.0 0.0 0.0 0.0 0.0 0.0 0.0
0.0 0.0 0.0 0.0 0.0 0.0 0.0 0.0
0.0 0.0 0.0 0.0 0.0 0.0 0.0 0.0
0.0 0.0 0.0 0.0 0.0 0.0 0.0 0.0
0.0 0.0 0.0 0.0 0.0 0.0 0.0 0.0
0.0 0.0 0.0 0.0 0.0 0.0 0.0 0.0
0.0 0.0 0.0 0.0 0.0 0.0 0.0 0.0
0.0 0.0 0.0 0.0 0.0 0.0 0.0 0.0
0.0 0.0 0.0 0.0 0.0 0.0 0.0 0.0
0.0 0.0 0.0 0.0 0.0 0.0 0.0 0.0
0.0 0.0 0.0 0.0 0.0 0.0 0.0 0.0
0.0 0.0 0.0 0.0 0.0 0.0 0.0 0.0
0.0 0.0 0.0 0.0 0.0 0.0 0.0 0.0
0.0 0.0 0.0 0.0 0.0 0.0 0.0 0.0
00000000: 0000 0000 0000 0000 0000 0000 0000 0000
00000010: 0000 0000 0000 0000 0000 0000 0000 0000
00000020: 0000 0000 0000 0000 0000 0000 0000 0000
00000030: 0000 0000 0000 0000 0000 0000 0000 0000
00000040: 0000 0000 0000 0000 0000 0000 0000 0000
00000050: 0000 0000 0000 0000 0000 0000 0000 0000
00000060: 0000 0000 0000 0000 0000 0000 0000 0000
00000070: 0000 0000 0000 0000 0000 0000 0000 0000
00000080: 0000 0000 0000 0000 0000 0000 0000 0000
00000090: 0000 0000 0000 0000 0000 0000 0000 0000
000000a0: 0000 0000 0000 0000 0000 0000 0000 0000
000000b0: 0000 0000 0000 0000 0000 0000 0000 0000
000000c0: 0000 0000 0000 0000 0000 0000 0000 0000
000000d0: 0000 0000 0000 0000 0000 0000 0000 0000
000000e0: 0000 0000 0000 0000 0000 0000 0000 0000
000000f0: 0000 0000 0000 0000 0000 0000 0000 0000
00000100: 0000 0000 0000 0000 0000 0000 0000 0000
00000110: 0000 0000 0000 0000 0000 0000 0000 0000
00000120: 0000 0000 0000 0000 0000 0000 0000 0000
00000130: 0000 0000 0000 0000 0000 0000 0000 0000
00000140: 0000 0000 0000 0000 0000 0000 0000 0000
00000150: 0000 0000 0000 0000 0000 0000 0000 0000
00000160: 0000 0000 0000 0000 0000 0000 0000 0000
00000170: 0000 0000 0000 0000 0000 0000 0000 0000
00000180: 0000 0000 0000 0000 0000 0000 0000 0000
00000190: 0000 0000 0000 0000 0000 0000 0000 0000
000001a0: 0000 0000 0000 0000 0000 0000 0000 0000
000001b0: 0000 0000 0000 0000 0000 0000 0000 0000
000001c0: 0000 0000 0000 0000 0000 0000 0000 0000
000001d0: 0000 0000 0000 0000 0000 0000 0000 0000
000001e0: 0000 0000 0000 0000 0000 0000 0000 0000
000001f0: 0000 0000 0000 0000 0000 0000 0000 0000

network_body._body_endoder.seq_layers.2.weight f4 [128, 128]
0.029904405 0.034142204 0.027682984 0.16423215 0.022544721 0.03588314 0.0108188605 0.14146276
-0.026415192 0.014303848 -0.02187561 -0.036751334 0.07113916 0.05651141 -0.0006784208 -0.0074903886
0.09296922 -0.092132784 -0.018465037 -0.08203132 0.091968745 -0.09019774 0.280163 -0.056400664
0.10922978 -0.016415628 0.05663495 0.115985356 0.1133223 -0.10691109 0.19910833 -0.018842556
0.0032622605 0.0696038 0.012328298 0.09037759 0.05522167 0.033295434 0.08693436 0.018349309
0.09414257 0.024933608 0.1429871 0.019573875 -0.15392776 0.07130748 0.18376881 0.26087916
0.18565507 -0.015185455 -0.067555815 0.007682513 0.13919081 0.0510073 -0.034961857 0.095710665
-0.08415282 -0.022162855 0.03690266 0.008840586 0.07226844 0.052592397 0.0820957 0.17119353
-0.00028146527 0.031271745 0.16827092 0.11016732 0.000421217 -0.023826383 -0.07747731 -0.0048325597
-0.10025076 -0.051435918 -0.07663068 -0.09834928 -0.10431609 -0.035617378 -0.13055654 -0.022843607
-0.034491543 0.010532569 0.0101900175 -0.21881217 -0.04864106 -0.0067863227 -0.07139513 0.14140493
0.1039389 0.002938324 0.0549466 0.012400944 -0.13058524 -0.27344602 -0.13804215 -0.009422599
0.12518704 0.06873111 -0.014410295 0.10176529 -0.021188581 -0.05282396 0.002259098 0.011307595
-0.015837343 0.014375229 -0.04907992 0.035004877 0.08279465 -0.004615207 0.034203548 0.13010605
0.031222682 -0.09732431 -0.016993638 -0.21167466 -0.09382253 -0.059129294 -0.042322155 0.103509314
0.010218023 0.054880526 -0.059421055 0.063287444 0.052837837 -0.058334414 0.024493823 -0.06481611
-0.011512235 0.031515863 0.14942458 -0.06208752 -0.02819358 -0.16476217 0.009962303 -0.044461407
-0.0141554335 0.025848662 -0.14300403 0.062442146 0.057278752 0.0050956286 0.10838814 -0.005233899
0.11645438 -0.07868828 0.059946757 -0.0092555955 -0.03375787 -0.12822807 -0.0720478 0.067793846
-0.0707702 0.036616806 -0.089171864 0.0106305145 -0.16859226 0.058254182 0.00817822 0.07543836
-0.045590255 0.0759914 0.08203256 -0.085321836 -0.081070624 -0.08181396 0.057361543 -0.1819283
-0.09737534 0.11643297 0.1649093 0.09401337 0.053860337 -0.05504325 -0.026943697 -0.180368
-0.05614491 -0.08382404 -0.07533072 -0.044415127 -0.037752952 0.02397574 -0.06492232 0.036104117
-0.23066856 -0.07646746 0.038453516 -0.0038463355 -0.1993114 0.047587406 0.08868198 0.075903125
0.0044322726 0.032626286 -0.29139367 0.04777974 -0.027091043 0.16354486 -0.075327665 0.005508483
-0.032835916 0.0063672573 -0.16177164 0.12141001 0.017041514 -0.021614801 0.0057858177 -0.011139576
0.12379247 -0.017725796 -0.0130774705 0.121820986 0.12516859 0.07032865 -0.093200736 0.16762994
0.057615492 -0.01248329 -0.03808033 -0.052614197 0.092703976 0.04454207 0.022944532 -0.048494242
0.06617696 -0.078859426 -0.048394777 0.015634589 0.14418489 -0.017415747 -0.017320268 -0.038044464
0.033740785 0.052961513 -0.09007584 -0.0666167 -0.09853589 -0.092890315 -0.047471587 0.076441
0.02073738 -0.108699694 -0.01894371 -0.044826698 0.07234213 -0.0065077096 -0.035566304 0.054409817
-0.0215804 -0.038321353 -0.016046368 0.01918864 0.03504889 -0.18250498 -0.050799113 0.07260587
00000000: 15fa f43c b2d8 0b3d 6dc7 e23c 792c 283e
00000010: b5af b83c 33fa 123d 9741 313c 9ddb 103e
00000020: ac64 d8bc b05a 6a3c 7b34 b3bc 9188 16bd
00000030: 68b1 913d 8278 673d 0dd8 31ba ef71 f5bb
00000040: a566 be3d 1db0 bcbd fd43 97bc 0900 a8bd
00000050: 1c5a bc3d 98b9 b8bd 8671 8f3e 6204 67bd
00000060: ddb3 df3d 117a 86bc 0dfa 673d bb89 ed3d
00000070: 8615 e83d 34f4 dabd 0ee3 4b3e b45b 9abc
00000080: a6cb 553b 708c 8e3d a1fc 493c e317 b93d
00000090: 1e30 623d cb60 083d a40a b23d 4a51 963c
000000a0: d2cd c03d 9141 cc3c 366b 123e 6459 a03c
000000b0: 3d9f 1dbe a809 923d e42d 3c3e f491 853e
000000c0: 5d1c 3e3e 6acc 78bc b45a 8abd 97bd fb3b
000000d0: 0988 0e3e 08ed 503d 2a34 0fbd f403 c43d
000000e0: 5058 acbd e08e b5bc 3e27 173d 1bd8 103c
000000f0: 7a01 943d 206b 573d ca21 a83d 5b4d 2f3e
00000100: a191 93b9 cd16 003d 364f 2c3e 679f e13d
00000110: cad6 dc39 8c2f c3bc 6dac 9ebd 735a 9ebb
00000120: 4550 cdbd 78ae 52bd 8cf0 9cbd 596b c9bd
00000130: ada3 d5bd 87e3 11bd 9db0 05be 8422 bbbc
00000140: 0147 0dbd cc90 2c3c 08f4 263c 4c10 60be
00000150: d93b 47bd cd5f debb 9c37 92bd 74cc 103e
00000160: ebdd d43d e590 403b b00f 613d 542d 4b3c
00000170: 23b8 05be 1e01 8cbe ec5a 0dbe 3f61 1abc
00000180: 0831 003e e5c2 8c3d 2819 6cbc 526a d03d
00000190: ad93 adbc f05d 58bd 600d 143b 7e43 393c
000001a0: 51bd 81bc 1586 6b3c 0708 49bd 4661 0f3d
000001b0: 3e90 a93d 2a3b 97bb 0519 0c3d 853a 053e
000001c0: b6c6 ff3c f851 c7bd 3e36 8bbc 3ec1 58be
000001d0: 0726 c0bd 8f31 72bd ff59 2dbd b1fc d33d
000001e0: 7f69 273c 67ca 603d 7e63 73bd d99c 813d
000001f0: 7d6c 583d 11f0 6ebd 45a7 c83c 4fbe 84bd
00000200: d09d 3cbc c716 013d c202 193e 7c4f 7ebd
00000210: 39f6 e6bc 6ab7 28be ed38 233c 2a1d 36bd
00000220: 31ec 67bc 93c0 d33c a66f 12be 56c3 7f3d
00000230: 209d 6a3d 3bf9 a63b 9afa dd3d 2181 abbb
00000240: a27f ee3d 5227 a1bd bb8a 753d c8a4 17bc
00000250: b145 0abd 384e 03be cc8d 93bd 80d7 8a3d
00000260: f7ef 90bd 81fb 153d bd9f b6bd 9c2b 2e3c
00000270: 73a3 2cbe f09b 6e3d f1fd 053c 6d7f 9a3d
00000280: d9bc 3abd 61a1 9b3d b000 a83d 37bd aebd
00000290: 5b08 a6bd 148e a7bd f0f3 6a3d 6a4b 3abe
000002a0: b96c c7bd 6974 ee3d fcdd 283e 158a c03d
000002b0: a89c 5c3d 0875 61bd 07b9 dcbc 64b2 38be
000002c0: 35f8 65bd f0ab abbd fe46 9abd a3ec 35bd
000002d0: d7a2 1abd c568 c43c fef5 84bd e9e1 133d
000002e0: 6134 6cbe f99a 9cbd 6f81 1d3d cd12 7cbb
000002f0: 4a18 4cbe 03eb 423d e69e b53d 1973 9b3d
00000300: 993c 913b 24a3 053d 8d31 95be b0b4 433d
00000310: 09ee ddbc 4e78 273e 6445 9abd 8180 b43b
00000320: f47e 06bd 6da4 d03b 77a7 25be d0a5 f83d
00000330: a59a 8b3c 8611 b1bc f596 bd3b c582 36bc
00000340: e886 fd3d b035 91bc e342 56bc 487d f93d
00000350: 322c 003e 7808 903d 07e0 bebd 2fa7 2b3e
00000360: 39fe 6b3d b786 4cbc 1ffa 1bbd fc81 57bd
00000370: 95db bd3d bf71 363d 2cf6 bb3c e6a1 46bd
00000380: c987 873d 0d81 a1bd 9a39 46bd 1c14 803c
00000390: 34a5 133e 78ab 8ebc 3ce3 8dbc 83d4 1bbd
000003a0: c733 0a3d 2cee 583d af79 b8bd 566e 88bd
000003b0: 2fcd c9bd 473d bebd 9171 42bd 198d 9c3d
000003c0: 70e1 a93c f29d debd d72f 9bbc 339c 37bd
000003d0: 1c28 943d a03e d5bb f9ad 11bd d4dc 5e3d
000003e0: 61c9 b0bc daf6 1cbd ac73 83bc 7f31 9d3c
000003f0: 6d8f 0f3d 96e2 3abe bb12 50bd 63b2 943d

network_body._body_endoder.seq_layers.2.bias f4 [128]
0.0 0.0 0.0 0.0 0.0 0.0 0.0 0.0
0.0 0.0 0.0 0.0 0.0 0.0 0.0 0.0
0.0 0.0 0.0 0.0 0.0 0.0 0.0 0.0
0.0 0.0 0.0 0.0 0.0 0.0 0.0 0.0
0.0 0.0 0.0 0.0 0.0 0.0 0.0 0.0
0.0 0.0 0.0 0.0 0.0 0.0 0.0 0.0
0.0 0.0 0.0 0.0 0.0 0.0 0.0 0.0
0.0 0.0 0.0 0.0 0.0 0.0 0.0 0.0
0.0 0.0 0.0 0.0 0.0 0.0 0.0 0.0
0.0 0.0 0.0 0.0 0.0 0.0 0.0 0.0
0.0 0.0 0.0 0.0 0.0 0.0 0.0 0.0
0.0 0.0 0.0 0.0 0.0 0.0 0.0 0.0
0.0 0.0 0.0 0.0 0.0 0.0 0.0 0.0
0.0 0.0 0.0 0.0 0.0 0.0 0.0 0.0
0.0 0.0 0.0 0.0 0.0 0.0 0.0 0.0
0.0 0.0 0.0 0.0 0.0 0.0 0.0 0.0
00000000: 0000 0000 0000 0000 0000 0000 0000 0000
00000010: 0000 0000 0000 0000 0000 0000 0000 0000
00000020: 0000 0000 0000 0000 0000 0000 0000 0000
00000030: 0000 0000 0000 0000 0000 0000 0000 0000
00000040: 0000 0000 0000 0000 0000 0000 0000 0000
00000050: 0000 0000 0000 0000 0000 0000 0000 0000
00000060: 0000 0000 0000 0000 0000 0000 0000 0000
00000070: 0000 0000 0000 0000 0000 0000 0000 0000
00000080: 0000 0000 0000 0000 0000 0000 0000 0000
00000090: 0000 0000 0000 0000 0000 0000 0000 0000
000000a0: 0000 0000 0000 0000 0000 0000 0000 0000
000000b0: 0000 0000 0000 0000 0000 0000 0000 0000
000000c0: 0000 0000 0000 0000 0000 0000 0000 0000
000000d0: 0000 0000 0000 0000 0000 0000 0000 0000
000000e0: 0000 0000 0000 0000 0000 0000 0000 0000
000000f0: 0000 0000 0000 0000 0000 0000 0000 0000
00000100: 0000 0000 0000 0000 0000 0000 0000 0000
00000110: 0000 0000 0000 0000 0000 0000 0000 0000
00000120: 0000 0000 0000 0000 0000 0000 0000 0000
00000130: 0000 0000 0000 0000 0000 0000 0000 0000
00000140: 0000 0000 0000 0000 0000 0000 0000 0000
00000150: 0000 0000 0000 0000 0000 0000 0000 0000
00000160: 0000 0000 0000 0000 0000 0000 0000 0000
00000170: 0000 0000 0000 0000 0000 0000 0000 0000
00000180: 0000 0000 0000 0000 0000 0000 0000 0000
00000190: 0000 0000 0000 0000 0000 0000 0000 0000
000001a0: 0000 0000 0000 0000 0000 0000 0000 0000
000001b0: 0000 0000 0000 0000 0000 0000 0000 0000
000001c0: 0000 0000 0000 0000 0000 0000 0000 0000
000001d0: 0000 0000 0000 0000 0000 0000 0000 0000
000001e0: 0000 0000 0000 0000 0000 0000 0000 0000
000001f0: 0000 0000 0000 0000 0000 0000 0000 0000

action_model._discrete_distribution.branches.0.weight f4 [3, 128]
-0.008273628 -0.01373745 0.0040477216 -0.0150474375 0.011283448 0.0024291512 -0.01752856 0.0075975093
-0.0095590325 -0.0021458962 0.0064772726 0.0045519276 -0.007548382 0.004109762 -0.004817913 0.006346894
0.00694073 0.023247352 0.007328642 0.0047711874 0.005558796 -0.020869065 -0.0006196275 -0.0110106245
0.0053601703 0.0048420904 0.002241817 -0.0068342374 0.0069830976 0.0012962257 -0.0022444928 -0.0037944675
0.007117794 0.0034823392 -0.0009586106 -0.007928808 -0.0055476795 -0.016100856 -0.004666707 -0.0016939639
0.005486474 0.00191963 0.012016837 0.0018437657 -0.018038638 -0.011935555 -0.00708106 0.007021171
0.0007116254 0.005934509 0.015818927 0.0026651702 0.006553883 -0.0009781208 0.01899124 -0.005870286
0.004711228 9.326888e-05 -0.005946263 0.006724027 0.006397154 0.0040920023 -0.0047874334 0.0030232125
-0.0054672803 -0.0032603834 0.008111632 -0.014580577 0.007820527 -0.003728892 0.0031023165 0.0011364517
0.008048615 0.00057813333 0.00045237457 0.012979505 0.0047177705 0.0046977857 0.0005227 0.003585846
-0.010711047 -0.0018064752 0.0025634393 -0.0011872909 0.000502891 0.007306543 -0.0015400205 0.00029372284
-0.00040482412 0.009703283 -0.0032683318 -0.011586378 0.0057067876 0.0033304784 -0.005573586 -0.0010786125
-0.0025985218 -0.013497773 0.0036539678 -0.01566618 -0.0024245372 0.0031266902 0.0073096715 0.0261489
0.008267591 0.013796344 0.0017548923 0.0033875068 -0.004362999 -0.007699928 0.0021046472 -0.000810363
0.0028652109 -0.0030789254 -0.0071455794 -0.0077589364 -0.0010576338 -0.0077268863 -0.010953865 0.00012698221
-0.008822116 -0.013855136 0.0017931983 0.011931098 -0.012480725 -0.0013781354 0.0021999292 0.003449561
-0.016477082 -0.0071015186 0.000612399 0.0012748694 -0.005398596 0.00035996365 0.004830808 -0.009799928
-0.016384266 -0.0040759775 0.0012149484 -0.0068441355 0.0010569633 0.0018674864 -0.018672114 0.0048852465
0.008020661 0.008594951 -0.0017353013 -0.009366594 0.006431762 0.01207106 0.018740393 -0.0020253027
-0.006844283 0.01352932 0.006727663 0.002459571 0.0045204386 0.013662678 -0.0013477616 -0.011701687
-0.015659885 0.0005791769 0.011180772 -0.0035355252 -0.0071702213 0.0016414624 -0.0049775373 0.0052436073
-0.0049360166 -0.009235612 -0.00014488182 -0.0044410382 -0.009102018 0.0078757275 0.0048562153 0.00033768194
-0.007515184 0.005303485 0.001899916 0.0011587931 0.0009886356 -0.002397329 -0.0019177368 0.014755498
0.0064475425 0.0024807698 -0.0039149607 0.005257865 -0.0011892816 -0.006721448 -0.0074260593 -0.0059245
-0.0036246628 -0.0024620758 0.0018058555 0.006469217 0.0045087463 0.011694881 -0.0047187842 0.004229162
0.010085824 0.00068355544 0.0060751364 -0.005870597 -0.0017344721 0.0029471554 0.011308606 -0.013092341
-0.011039382 -0.003499652 -0.0059563494 -0.004033237 -0.008004495 -0.0056722253 0.006426234 0.0033660203
-0.002410824 -0.0061958614 -0.0068800636 -0.0075905123 -0.015181407 -0.008983859 0.0034973938 -0.0055771833
0.0006777262 -0.010411541 0.010306248 -0.013407104 0.012907848 0.0039995834 0.00873668 -0.0031513572
0.004364921 0.007322216 -0.0071603465 0.0018965238 -0.0018918667 -0.003911688 0.0028091555 0.0061198375
0.0009373771 -0.0015930902 0.009634104 -0.019152345 0.0034907304 0.0038676746 -0.0023041908 -0.0069092843
0.005647792 -0.0011891023 -0.003070796 0.020482158 -0.0141550945 0.015112311 -0.0028101227 -0.0077831293
00000000: 1c8e 07bc 0b13 61bc c0a2 843b 8789 76bc
00000010: 36de 383c 6532 1f3b 0e98 8fbc 87f4 f83b
00000020: 7d9d 1cbc 2aa2 0cbb 4d3f d43b 5628 953b
00000030: 6b58 f7bb 2fab 863b 95df 9dbb 9bf9 cf3b
00000040: 106f e33b 3b71 be3c 1b25 f03b 9f57 9c3b
00000050: 9026 b63b 9af5 aabc 7f6e 22ba e865 34bc
00000060: 5ea4 af3b 66aa 9e3b 73eb 123b bdf1 dfbb
00000070: 78d2 e43b 1ee6 a93a 5718 13bb 9aac 78bb
00000080: 623c e93b f537 643b 454b 7bba d5e7 01bc
00000090: 4fc9 b5bb f1e5 83bc 2deb 98bb ff07 deba
000000a0: e1c7 b33b 189c fb3a 44e2 443c 83aa f13a
000000b0: c4c5 93bc 598d 43bc 3d08 e8bb da11 e63b
000000c0: 5f8c 3a3a 4576 c23b b296 813c 23aa 2e3b
000000d0: f5c1 d63b 4a34 80ba 8493 9b3c 875b c0bb
000000e0: a560 9a3b 5999 c338 dfd8 c2bb 3a55 dc3b
000000f0: 389f d13b 3416 863b e7df 9cbb 1721 463b
00000100: df26 b3bb 28ac 55bb a7e6 043c 5fe3 6ebc
00000110: ab21 003c 6d60 74bb 3c50 4b3b fef4 943a
00000120: 57de 033c df8d 173a b02c ed39 fda7 543c
00000130: 8797 9a3b e2ef 993b ce05 093a 8300 6b3b
00000140: 637d 2fbc 40c7 ecba 60ff 273b df9e 9bba
00000150: 72d4 033a ba6b ef3b 83da c9ba d0fe 9939
00000160: 933e d4b9 85fa 1e3c 8231 56bb cbd4 3dbc
00000170: 0100 bb3b 2844 5a3b a1a2 b6bb 3b60 8dba
00000180: f64b 2abb c325 5dbc 6877 6f3b 5c56 80bc
00000190: fce4 1ebb 28e9 4c3b f885 ef3b 3836 d63c
000001a0: ca74 073c 100a 623c 6a04 e63a ef00 5e3b
000001b0: 7df7 8ebb ad4f fcbb 1fee 093b 8a6e 54ba
000001c0: 43c6 3b3b ccc7 49bb 7725 eabb ad3e febb
000001d0: 4da0 8aba d231 fdbb d777 33bc 8726 0539
000001e0: a38a 10bc a700 63bc c009 eb3a a77a 433c
000001f0: f47b 4cbc 8da2 b4ba b02c 103b 0812 623b
00000200: f2fa 86bc dbb3 e8bb 6789 203a 8519 a73a
00000210: b5e6 b0bb 81b9 bc39 c14b 9e3b e18f 20bc
00000220: 4c38 86bc c78f 85bb e73e 9f3a c544 e0bb
00000230: ce89 8a3a 72c6 f43a 43f6 98bc 6b14 a03b
00000240: 1769 033c d6d1 0c3c 0d73 e3ba 5876 19bc
00000250: 88c1 d23b b2c5 453c 7485 993c f1ba 04bb
00000260: 0246 e0bb 15aa 5d3c ba73 dc3b c130 213b
00000270: 3020 943b 6dd9 5f3c 60a7 b0ba 6fb8 3fbc
00000280: 2949 80bc e7d3 173a 8f2f 373c 45b4 67bb
00000290: 2df4 eabb 5726 d73a 9c1a a3bb 91d2 ab3b
000002a0: 4fbe a1bb f750 17bc 6beb 17b9 2186 91bb
000002b0: a120 15bc 3209 013c e320 9f3b e70a b139
000002c0: ef41 f6bb dbc8 ad3b 9a06 f93a a5e2 973a
000002d0: 1b95 813a 821c 1dbb 925c fbba 0bc1 713c
000002e0: e845 d33b 6994 223b 1249 80bb 2b4a ac3b
000002f0: abe1 9bba 983f dcbb 4d56 f3bb 4f22 c2bb
00000300: c08b 6dbb c75a 21bb 75b2 ec3a bafb d33b
00000310: 1bbe 933b e39b 3f3c 08a0 9abb c894 8a3b
00000320: 033f 253c a130 333a f011 c73b 235e c0bb
00000330: 3a57 e3ba 1025 413b bb47 393c 4281 56bc
00000340: 86de 34bc 6b5a 65bb 7b2d c3bb 3f29 84bb
00000350: 4925 03bc 13de b9bb 2893 d23b 7398 5c3b
00000360: eafe 1dbb a706 cbbb 2872 e1bb d5b9 f8bb
00000370: 70bb 78bc 0931 13bc 8834 653b cec0 b6bb
00000380: 6fa9 313a 2b95 2abc 8adb 283c 78a9 5bbc
00000390: 707b 533c f00e 833b 4b24 0f3c 0087 4ebb
000003a0: 9c07 8f3b 33ef ef3b 57a1 eabb c794 f83a
000003b0: 83f8 f7ba 9e2d 80bb cf19 383b eb88 c83b
000003c0: 50ba 753a 3dcf d0ba 5cd8 1d3c 61e5 9cbc
000003d0: bdc4 643b d078 7d3b e801 17bb 4767 e2bb
000003e0: 1d11 b93b a7db 9bba 683f 49bb 33ca a73c
000003f0: c5ea 67bc a099 773c 092a 38bb 9f09 ffbb

action_model._discrete_distribution.branches.0.bias f4 [3]
0.0 0.0 0.0
00000000: 0000 0000 0000 0000 0000 0000

action_model._discrete_distribution.branches.1.weight f4 [3, 128]
-0.0041238093 0.0020919938 -0.000643239 -0.0060818456 0.00903506 -0.0067194514 -0.009118649 0.005260476
-0.0072382777 -0.008666793 -0.0016043241 -0.025034487 -0.0033395195 0.004830319 -0.0014332643 0.0025325287
-0.009536147 0.007477434 -0.0156177925 -0.008974246 -0.0015708435 -0.0057216445 0.0009819294 0.00057373615
0.003964071 -0.00037455186 0.008255268 -0.0020842624 0.024005633 -0.0046343263 -0.013782761 0.002157977
-0.0090920655 -0.012273522 -0.007588138 -0.005236916 0.0027233928 -0.0027757266 -0.010928867 0.0015463319
0.018130375 -0.018322296 -0.0053779026 0.0044683153 0.005979142 0.009680301 -0.00445698 0.003981965
0.0028043573 0.008180712 0.0012485452 -0.010514677 0.01329336 0.013677739 -0.0021590057 0.0047093625
0.010350045 -0.0014720475 0.000956376 -0.0011852693 0.002804906 0.013826491 0.0020357743 -0.005339959
0.0025271855 0.0164777 -0.0066349716 -0.0055769566 -0.0023759636 0.007770573 -0.002148555 0.004788268
-0.0061291507 0.0040068603 0.0013593768 -0.0033896067 0.00952766 -0.0017725214 0.0011675126 -0.0055501396
-0.010368141 -0.017836733 0.0018664155 0.010265101 -0.017835954 0.007823874 -0.006005288 -0.0097611565
0.021900436 0.002336201 -0.0054322416 -0.005103405 -0.0034280014 -0.0051144543 0.0015059925 -0.0056773773
-0.0013119116 0.009580705 -0.014308415 0.008635268 -0.0050113364 -0.0001215352 0.0012229612 0.0076506706
0.0020032837 -0.00065244496 0.009943268 0.004568044 0.0028273237 0.0035174277 0.015937021 -0.0049868766
-8.9246416e-05 0.0029340272 -0.012267866 -0.0044430126 0.009136428 0.010039602 0.0064637656 0.009727576
0.008808381 -0.007877862 -0.010678635 0.00011364457 0.0008170007 0.0007913664 0.002432323 0.0062672533
0.009230577 -0.013187748 0.0029343262 -0.00868314 0.017018309 -0.007020639 0.013150917 -0.017834038
0.0019804195 0.013469252 -0.0010617012 0.006743856 0.019423049 -0.0048943525 0.022504136 0.008988068
-0.0074572065 0.0003297216 0.0012284493 0.014583922 -0.0011103721 0.0150685925 0.0042660395 -0.004945082
0.0038992395 -0.005350483 0.0002910194 -0.007364063 0.011847992 0.01715821 0.0022540095 -0.011642917
-0.005841711 -0.0023678548 -0.0018455485 0.009342203 0.0042123883 0.012175828 0.018252676 -0.0033754625
0.0039279987 -0.012878909 -0.012796375 -0.0018688862 -0.0004508615 0.012724462 0.015289123 -0.009932934
0.019531883 -0.0056963223 -0.0010573704 0.0071145 0.00902452 0.00082932005 0.00945237 0.004311707
-0.00086762814 0.01516894 -0.00339627 0.0025491016 0.017537162 0.012269676 0.012703664 -0.0057207653
-0.008711126 0.009566124 -0.0033112199 -0.005973945 -0.002341751 0.015711239 -0.0049296925 -0.009950167
0.01529316 -0.0025128734 0.010090785 -0.006666788 0.0032167353 -0.0039588213 -0.0074952603 -0.012951392
-0.0041980227 -0.0117594795 -0.0020202107 -0.0042911316 0.007998332 0.0009518209 0.00023960516 -0.002671385
-0.00040743322 -0.0092306025 -0.002074808 -0.008111379 0.0077437833 0.0024200042 -0.003129312 -0.006222138
-0.012420256 -0.010579045 0.01123638 0.008023142 -0.01983928 -0.0018475222 -0.0011789567 0.0037540959
-0.0017628082 -0.004056611 -0.0052103736 0.0075192684 0.00363956 -0.0068082674 -0.0026932065 -0.011130731
0.006220727 0.012077193 -0.0065741926 -0.002063546 0.021056766 0.013920049 -0.009638842 0.0068533644
0.005976353 -0.0020539933 0.004510182 0.01736725 0.003421677 -0.0027425122 -0.01241058 0.0030135023
00000000: 0521 87bb d519 093b 0a9f 28ba 384a c7bb
00000010: ca07 143c d82e dcbb 6366 15bc 1260 ac3b
00000020: 132f edbb 2aff 0dbc 2f48 d2ba 2015 cdbc
00000030: d7db 5abb a747 9e3b 5fdc bbba c8f8 253b
00000040: 803d 1cbc 4305 f53b c5e1 7fbc b708 13bc
00000050: c3e4 cdba a27c bbbb 15b4 803a c866 163a
00000060: 0ae5 813b 805f c4b9 1b41 073c 1f98 08bb
00000070: 76a7 c43c 8cdb 97bb 17d1 61bc d96c 0d3b
00000080: e3f6 14bc e216 49bc eaa5 f8bb 6f9a abbb
00000090: f37a 323b f7e8 35bb fe0e 33bc 4aae ca3a
000000a0: 2786 943c a418 96bc 1e39 b0bb f26a 923b
000000b0: aeec c33b 209a 1e3c dc0b 92bb 257b 823b
000000c0: 4fc9 373b 6508 063c 3aa6 a33a c045 2cbc
000000d0: 65cc 593c 9818 603c 1b7e 0dbb ff50 9a3b
000000e0: 3c93 293c b8f1 c0ba 4fb5 7a3a 0a5b 9bba
000000f0: 84d2 373b 8288 623c a06a 053b d3fa aebb
00000100: 239f 253b 3efc 863c 2d6a d9bb e7be b6bb
00000110: 0eb6 1bbb 4aa0 fe3b c5ce 0cbb e7e6 9c3b
00000120: 0bd7 c8bb fb4b 833b 1e2d b23a 2a24 5ebb
00000130: e719 1c3c f353 e8ba 3907 993a f2dd b5bb
00000140: 23df 29bc 571e 92bc 83a2 f43a f42e 283c
00000150: b51c 92bc b52f 003c 02c8 c4bb 42ed 1fbc
00000160: 8b68 b33c f31a 193b f200 b2bb 773a a7bb
00000170: 52a8 60bb 2797 a7bb b964 c53a 4b09 babb
00000180: 73f4 abba 64f8 1c3c d86d 6abc f07a 0d3c
00000190: 2336 a4bb b7e0 feb8 c54b a03a 7ab2 fa3b
000001a0: 8649 033b d708 2bba 17e9 223c 88af 953b
000001b0: 9f4a 393b a584 663b 5b8e 823c f468 a3bb
000001c0: ce29 bbb8 cf48 403b 29ff 48bc b196 91bb
000001d0: f5b0 153c 257d 243c ffcd d33b 6960 1f3c
000001e0: 0751 103c 2612 01bc 71f5 2ebc 7754 ee38
000001f0: fd2b 563a b373 4f3a 9c67 1f3b 885d cd3b
00000200: d93b 173c 6d11 58bc d34d 403b bb43 0ebc
00000210: fb69 8b3c 630d e6bb f276 573c b018 92bc
00000220: edc9 013b 23ae 5c3c c828 8bba 90fb dc3b
00000230: 161d 9f3c ce60 a0bb 985a b83c b142 133c
00000240: 955b f4bb 7cde ac39 eb03 a13a 67f1 6e3c
00000250: e889 91ba 42e2 763c 22ca 8b3b 5b0a a2bb
00000260: 628a 7f3b 1b53 afbb f693 9839 3d4e f1bb
00000270: 151e 423c 608f 8c3c 01b8 133b efc1 3ebc
00000280: d36b bfbb 032e 1bbb 55e6 f1ba 0a10 193c
00000290: 1308 8a3b 207d 473c a386 953c dd36 5dbb
000002a0: 71b6 803b 0f02 53bc e3a7 51bc 6af5 f4ba
000002b0: 9b61 ecb9 437a 503c 3b7f 7a3c bfbd 22bc
000002c0: 5401 a03c 37a8 babb 7797 8aba c020 e93b
000002d0: 95db 133c ba66 593a 1dde 1a3c 3849 8d3b
000002e0: 8a71 63ba 2587 783c f593 5ebb d40e 273b
000002f0: 18aa 8f3c c006 493c 0723 503c 4275 bbbb
00000300: 1cb9 0ebc 3bbb 1c3c 0d01 59bb 15c1 c3bb
00000310: 1078 19bb dbb4 803c 4289 a1bb 0606 23bc
00000320: 2a90 7a3c 05af 24bb d253 253c 1275 dabb
00000330: ddcf 523b 00b9 81bb cd9a f5bb 1332 54bc
00000340: 918f 89bb d5aa 40bc 8365 04bb 9f9c 8cbb
00000350: 700b 033c 9f83 793a 853e 7b39 6712 2fbb
00000360: c39c d5b9 f43b 17bc 81f9 07bb 97e5 04bc
00000370: 90bf fd3b ef98 1e3b 2515 4dbb 14e3 cbbb
00000380: 547e 4bbc bb53 2dbc cb18 383c 7f73 033c
00000390: fc85 a2bc 8f28 f2ba 3987 9aba 4707 763b
000003a0: 070e e7ba 52ed 84bb c8bb aabb 3264 f63b
000003b0: af85 6e3b e317 dfbb 8280 30bb ab5d 36bc
000003c0: 3ed7 cb3b 6bdf 453c 536c d7bb 8f3c 07bb
000003d0: 3d7f ac3c eb10 643c 3cec 1dbc 3092 e03b
000003e0: 48d5 c33b 4a9c 06bb 26ca 933b c345 8e3c
000003f0: 373e 603b b8bb 33bb bf55 4bbc 2e7e 453b

action_model._discrete_distribution.branches.1.bias f4 [3]
0.0 0.0 0.0
00000000: 0000 0000 0000 0000 0000 0000

action_model._discrete_distribution.branches.2.weight f4 [1, 128]
-0.009572563 -0.0025774182 0.0036079895 0.01672727 -0.01617727 -0.004769205 -0.0033716932 -0.0017177956
-0.005757156 0.0076402845 0.009340785 0.0023208985 0.008498376 0.0057315817 -0.003663034 -0.018277394
-0.010618544 -0.00038269718 0.0050501325 0.017017862 0.0019418029 -0.016820407 0.0071815834 -0.003830009
-0.00055198366 -0.0062581575 -0.00088275096 -0.014699307 0.00064789166 -0.021566607 0.0021209035 0.00025320562
0.0036062673 -0.005797747 0.0014221984 -0.0006162214 0.0050062197 0.0022950731 -0.005149718 0.0048288424
0.0048078382 0.00633672 0.010771141 0.00029084622 -0.006082917 -0.009942302 0.0005046341 0.002134728
0.012868437 -0.00029130102 0.0080420235 -0.006136718 0.0087727 0.0065992917 0.018171774 0.004477314
-0.004226871 0.010716814 -0.006373722 0.005240602 -0.004316167 -0.003775735 0.0029720985 -0.0022141216
-0.011959834 0.0102555305 -0.012425007 0.008042619 -0.0016412372 -0.0027359826 0.00546583 -0.0071193352
0.00063558214 -0.0028864886 -0.016548498 -0.0076739783 0.012350798 -0.0004912018 -0.015279509 0.016806787
-0.00688756 0.011793049 -0.0020586657 -0.008236313 0.0048568137 0.0016041817 -0.0032782224 0.010597749
0.013160448 0.0020720756 -0.012667348 -0.0035656001 0.008839078 -0.0016107127 -0.00747665 0.013809658
-0.00741519 -0.0070551275 -0.007519187 -0.020474454 -0.010649924 -0.011691547 0.0086851055 -0.00054289104
0.00019059822 0.005767234 0.00022022186 0.008502544 -0.0015954239 0.012768253 0.0034191192 -0.008135627
-0.0076899678 0.0027788372 -0.005859102 0.001841832 -0.003488628 0.009087379 -0.0018199105 0.0031505064
0.0053886934 0.0022012806 0.009837778 0.009423136 -0.014782409 -0.013760403 -0.0089007635 0.010285532
00000000: 3dd6 1cbc e7e9 28bb 0574 6c3b a107 893c
00000010: 3286 84bc fe46 9cbb a0f7 5cbb a827 e1ba
00000020: 86a6 bcbb 5a5b fa3b 180a 193c 371a 183b
00000030: c63c 0b3c fecf bb3b 830f 70bb 79ba 95bc
00000040: 67f9 2dbc bfa4 c8b9 957b a53b 0b69 8b3c
00000050: 1884 fe3a f3ca 89bc 7d53 eb3b e300 7bbb
00000060: ffb2 10ba 3b11 cdbb 6a68 67ba 5dd5 70bc
00000070: 46d7 293a 74ac b0bc dbfe 0a3b afc0 8439
00000080: 2057 6c3b 07fb bdbb 0f69 ba3a eb89 21ba
00000090: 370b a43b f068 163b f7be a8bb 443b 9e3b
000000a0: 128b 9d3b 43a4 cf3b 7179 303c b87c 9839
000000b0: 3553 c7bb 09e5 22bc 6c49 043a cbe6 0b3b
000000c0: 23d6 523c c3b9 98b9 b1c2 033c 8616 c9bb
000000d0: 5fbb 0f3c df3e d83b f9dc 943c 6fb6 923b
000000e0: 9081 8abb 9395 2f3c a8da d0bb 5bb9 ab3b
000000f0: a26e 8dbb 5272 77bb 8ac7 423b cc1a 11bb
00000100: 2ef3 43bc d006 283c 4292 4bbc 30c5 033c
00000110: c81e d7ba 2c4e 33bb b51a b33b 5049 e9bb
00000120: 329d 263a 3e2b 3dbb b790 87bc ff75 fbbb
00000130: 005b 4a3c ffc3 00ba e856 7abc 63ae 893c
00000140: 0ab1 e1bb a237 413c aeea 06bb 9af1 06bc
00000150: e825 9f3b 6843 d23a 72d7 56bb 2ea2 2d3c
00000160: eb9e 573c a9cb 073b b58a 4fbc d8ac 69bb
00000170: c8d1 103c 8d1e d3ba b0fe f4bb e741 623c
00000180: 1ffb f2bb b32e e7bb 8363 f6bb 0bba a7bc
00000190: 057d 2ebc e78d 3fbc f94b 0e3c cd50 0eba
000001a0: 52db 4739 11fb bc3b 5beb 6639 414e 0b3c
000001b0: 8b1d d1ba ef31 513c 4d13 603b 4b4b 05bc
000001c0: 20fc fbbb 271d 363b b6fd bfbb a069 f13a
000001d0: 77a1 64bb 3be3 143c 108a eeba ba78 4e3b
000001e0: a393 b03b 5c43 103b a22e 213c 7f63 1a3c
000001f0: eb31 72bc 5073 61bc 82d4 11bc a684 283c

network_body._body_endoder.seq_layers.0.weight f4 [128, 16]
-0.05685589 0.066247 -0.069083735 0.045147438 0.1370625 -0.0578277 0.11056695 0.14379331
0.006929937 -0.24006195 -0.16314735 0.24817507 -0.07667921 -0.45308903 0.053940285 -0.4413661
-0.24987257 -0.2546476 0.5017964 -0.21239989 0.16230787 -0.24148531 0.10178114 0.23392498
-0.1164201 -0.105328366 -0.17212734 -0.6655598 0.16770867 -0.38189012 0.025713995 0.07502189
0.27976453 0.28719267 0.32558346 0.23662263 0.53896666 -0.049208265 0.053833477 0.0018390811
-0.18674137 0.4784115 0.43100536 -0.16323939 -0.20467886 0.3888574 0.1569617 -0.036048293
0.31501508 -0.30768517 0.21605821 0.22686544 -0.16839203 -0.5105297 0.0483591 0.39308357
0.111740485 0.16364305 0.36766228 0.105730616 -0.15483293 0.1033383 0.42245772 -0.03260331
-0.043708283 -0.07886639 -0.008647861 0.25199774 0.25014517 -0.17485331 0.12982012 -0.13843833
0.23092933 -0.12716046 -0.595124 0.13662216 0.24433286 -0.111831196 -0.334978 0.13940302
-0.29473394 0.2642478 -0.02430381 0.6466995 0.09833418 0.449908 -0.07519343 0.09576431
-0.005636581 -0.044413418 -0.5738758 -0.31814238 -0.12870014 0.14570636 0.28403905 -0.04567467
-0.019838827 0.38656834 0.17392203 -0.47675186 0.18001474 0.3362518 -0.19386253 0.5558931
-0.023235783 -0.05634985 0.007910364 -0.40903074 0.038891055 -0.35846874 0.4387889 -0.088501036
-0.5600811 0.35153133 -0.17181 -0.052575264 -0.2008144 -0.031338148 0.18858953 -0.12467984
0.6573912 -0.40504402 -0.12590252 -0.087001175 -0.046515644 0.08908578 0.079609044 0.00048868684
0.21638887 -0.4167964 -0.15758291 -0.13050225 0.27133065 -0.17091344 -0.0051519885 0.19783202
-0.12748507 -0.257932 -0.03234874 -0.13026889 0.003551046 -0.2193008 -0.23375513 0.07780005
-0.13673593 0.030859983 0.067534365 -0.3507583 0.21231669 -0.14639297 -0.61103994 0.031928603
-0.32395503 -0.6991706 0.23042053 0.0119922785 -0.22457924 -0.24042666 -0.17948872 0.4369272
-0.19835185 0.060564388 -0.11231777 0.32055044 -0.08936559 0.16157492 -0.048380993 0.2434261
-0.16772544 0.19497375 0.31491438 -0.37008214 -0.27462667 -0.29205483 -0.020131914 0.11963463
-0.21042806 -0.48178557 -0.25834447 -0.41979772 -0.37928215 -0.6461943 -0.056750204 -0.26632494
0.102440536 0.4583954 0.0006096372 0.22605206 0.0046019787 0.0020756647 -0.103968784 -0.16610909
-0.009400249 0.18349886 -0.11777088 -0.08884025 -0.104914784 -0.0016493658 -0.10419741 0.17434496
-0.48423544 0.0063638343 -0.077459894 0.006868745 -0.13158104 -0.5414799 0.113901 0.07605193
-0.56809294 0.29142815 0.23365915 0.027833289 0.043833826 0.26449785 0.04611734 -0.24823949
0.22178599 0.12517451 0.35339683 -0.076364495 0.24543065 0.051774282 0.10505611 -0.2785322
-0.20716247 -0.06523604 0.065845296 0.28910896 -0.08535983 0.19245593 0.009072519 -0.31841782
-0.097531356 -0.40483695 -0.26711294 0.32069075 0.048924852 -0.018563217 0.08769536 0.297546
-0.36916375 -0.17054059 0.15127379 -0.5503273 0.16725829 0.06404284 -0.067964174 -0.45288464
0.02961162 0.21064295 0.036706924 0.27478993 -0.04007367 -0.15450923 -0.27298638 0.089179754
00000000: b9e1 68bd 82ac 873d c67b 8dbd 85ec 383d
00000010: 1d5a 0c3e bddc 6cbd ed70 e23d 8e3e 133e
00000020: 8614 e33b cdd2 75be 1910 27be 9b21 7e3e
00000030: fd09 9dbd 49fb e7be 7df0 5c3d bdfa e1be
00000040: 98de 7fbe 2c61 82be bb75 003f 5b7f 59be
00000050: 0934 263e ed47 77be a172 d03d 088a 6f3e
00000060: a96d eebd 66b6 d7bd 2642 30be 2162 2abf
00000070: d2bb 2b3e 1a87 c3be 28a6 d23c 14a5 993d
00000080: 4c3d 8f3e eb0a 933e e0b2 a63e 344d 723e
00000090: b8f9 093f 9b8e 49bd 7e80 5c3d 520d f13a
000000a0: 2139 3fbe 5af2 f43e bcac dc3e 3a28 27be
000000b0: 5697 51be 5118 c73e 91ba 203e 60a7 13bd
000000c0: a849 a13e e988 9dbe 5d3e 5d3e 6a4f 683e
000000d0: f66e 2cbe 13b2 02bf 3114 463d 4042 c93e
000000e0: 32d8 e43d 0b92 273e 3b3e bc3e 4b89 d83d
000000f0: 868c 1ebe 08a3 d33d 614c d83e 0c8b 05bd
00000100: 7507 33bd b484 a1bd c2af 0dbc d905 813e
00000110: 0713 803e bf0c 33be 91ef 043e c7c2 0dbe
00000120: bd78 6c3e 5a36 02be 0c5a 18bf aee6 0b3e
00000130: 6532 7a3e c107 e5bd 3d82 abbe aabf 0e3e
00000140: 5ee7 96be 7d4b 873e c918 c7bc 198e 253f
00000150: 6e63 c93d 575a e63e 03ff 99bd 1420 c43d
00000160: 12b3 b8bb d8ea 35bd 86e9 12bf 8fe3 a2be
00000170: f8c9 03be 0c34 153e 916d 913e 5d15 3bbd
00000180: 0985 a2bc 49ec c53e 9e18 323e d218 f4be
00000190: c955 383e 3229 ac3e e683 46be 034f 0e3f
000001a0: f858 bebc 1acf 66bd 799a 013c 7a6c d1be
000001b0: 3a4c 1f3d 3789 b7be f0a8 e03e 0840 b5bd
000001c0: 7a61 0fbf eafb b33e f6ee 2fbe 2959 57bd
000001d0: 4aa2 4dbe 6e5c 00bd 9d1d 413e 2558 ffbd
000001e0: ca4a 283f ee61 cfbe 97ec 00be ac2d b2bd
000001f0: 3087 3ebd 9b72 b63d 110a a33d 381b 003a
00000200: 0b95 5d3e 5666 d5be 6a5d 21be 62a2 05be
00000210: daeb 8a3e ef03 2fbe 03d2 a8bb 7a94 4a3e
00000220: 728b 02be aa0f 84be 1d80 04bd 3565 05be
00000230: aab8 683b 6490 60be 815d 6fbe a255 9f3d
00000240: 8104 0cbe 13ce fc3c 754f 8a3d 9896 b3be
00000250: 8c69 593e 0ae8 15be 1d6d 1cbf 91c7 023d
00000260: 6fdd a5be d8fc 32bf 5cf3 6b3e 437b 443c
00000270: 1af8 65be 6832 76be e4cb 37be ecb4 df3e
00000280: bf1c 4bbe 5d12 783d dc06 e6bd 301f a43e
00000290: 4e05 b7bd e573 253e 262b 46bd b144 793e
000002a0: 38c0 2bbe 33a7 473e 753c a13e 687b bdbe
000002b0: de9b 8cbe 3688 95be afeb a4bc 0003 f53d
000002c0: 747a 57be 99ac f6be ba45 84be baef d6be
000002d0: 4531 c2be fd6c 25bf e772 68bd be5b 88be
000002e0: 58cc d13d cdb2 ea3e 0fd0 1f3a 317a 673e
000002f0: 32cc 963b e007 083b 96ed d4bd 8018 2abe
00000300: 8103 1abc 20e7 3b3e dc31 f1bd e1f1 b5bd
00000310: 90dd d6bd 882f d8ba 7465 d5bd 7c87 323e
00000320: b5ed f7be b687 d03b 4ba3 9ebd 3613 e13b
00000330: 2ebd 06be 6d9e 0abf ed44 e93d 1dc1 9b3d
00000340: 8a6e 11bf 1236 953e 5844 6f3e a302 e43c
00000350: 198b 333d 436c 873e 89e5 3c3d 7e32 7ebe
00000360: de1b 633e bf2d 003e 6ef0 b43e fd64 9cbd
00000370: 2c52 7b3e 4511 543d a827 d73d c69b 8ebe
00000380: 6622 54be 799a 85bd e6d9 863d 1706 943e
00000390: 22d1 aebd 2b13 453e e7a4 143c a907 a3be
000003a0: 85be c7bd ca46 cfbe 07c3 88be 9431 a43e
000003b0: 6d65 483d e311 98bc a099 b33d f357 983e
000003c0: 0803 bdbe 31a2 2ebe 84e7 1a3e 40e2 0cbf
000003d0: c245 2b3e e428 833d cd30 8bbd 7fe0 e7be
000003e0: 1194 f23c c9b2 573e 005a 163d 44b1 8c3e
000003f0: 4a24 24bd ab37 1ebe dfc4 8bbe e0a3 b63d

network_body._body_endoder.seq_layers.0.bias f4 [128]
0.0 0.0 0.0 0.0 0.0 0.0 0.0 0.0
0.0 0.0 0.0 0.0 0.0 0.0 0.0 0.0
0.0 0.0 0.0 0.0 0.0 0.0 0.0 0.0
0.0 0.0 0.0 0.0 0.0 0.0 0.0 0.0
0.0 0.0 0.0 0.0 0.0 0.0 0.0 0.0
0.0 0.0 0.0 0.0 0.0 0.0 0.0 0.0
0.0 0.0 0.0 0.0 0.0 0.0 0.0 0.0
0.0 0.0 0.0 0.0 0.0 0.0 0.0 0.0
0.0 0.0 0.0 0.0 0.0 0.0 0.0 0.0
0.0 0.0 0.0 0.0 0.0 0.0 0.0 0.0
0.0 0.0 0.0 0.0 0.0 0.0 0.0 0.0
0.0 0.0 0.0 0.0 0.0 0.0 0.0 0.0
0.0 0.0 0.0 0.0 0.0 0.0 0.0 0.0
0.0 0.0 0.0 0.0 0.0 0.0 0.0 0.0
0.0 0.0 0.0 0.0 0.0 0.0 0.0 0.0
0.0 0.0 0.0 0.0 0.0 0.0 0.0 0.0
00000000: 0000 0000 0000 0000 0000 0000 0000 0000
00000010: 0000 0000 0000 0000 0000 0000 0000 0000
00000020: 0000 0000 0000 0000 0000 0000 0000 0000
00000030: 0000 0000 0000 0000 0000 0000 0000 0000
00000040: 0000 0000 0000 0000 0000 0000 0000 0000
00000050: 0000 0000 0000 0000 0000 0000 0000 0000
00000060: 0000 0000 0000 0000 0000 0000 0000 0000
00000070: 0000 0000 0000 0000 0000 0000 0000 0000
00000080: 0000 0000 0000 0000 0000 0000 0000 0000
00000090: 0000 0000 0000 0000 0000 0000 0000 0000
000000a0: 0000 0000 0000 0000 0000 0000 0000 0000
000000b0: 0000 0000 0000 0000 0000 0000 0000 0000
000000c0: 0000 0000 0000 0000 0000 0000 0000 0000
000000d0: 0000 0000 0000 0000 0000 0000 0000 0000
000000e0: 0000 0000 0000 0000 0000 0000 0000 0000
000000f0: 0000 0000 0000 0000 0000 0000 0000 0000
00000100: 0000 0000 0000 0000 0000 0000 0000 0000
00000110: 0000 0000 0000 0000 0000 0000 0000 0000
00000120: 0000 0000 0000 0000 0000 0000 0000 0000
00000130: 0000 0000 0000 0000 0000 0000 0000 0000
00000140: 0000 0000 0000 0000 0000 0000 0000 0000
00000150: 0000 0000 0000 0000 0000 0000 0000 0000
00000160: 0000 0000 0000 0000 0000 0000 0000 0000
00000170: 0000 0000 0000 0000 0000 0000 0000 0000
00000180: 0000 0000 0000 0000 0000 0000 0000 0000
00000190: 0000 0000 0000 0000 0000 0000 0000 0000
000001a0: 0000 0000 0000 0000 0000 0000 0000 0000
000001b0: 0000 0000 0000 0000 0000 0000 0000 0000
000001c0: 0000 0000 0000 0000 0000 0000 0000 0000
000001d0: 0000 0000 0000 0000 0000 0000 0000 0000
000001e0: 0000 0000 0000 0000 0000 0000 0000 0000
000001f0: 0000 0000 0000 0000 0000 0000 0000 0000

network_body._body_endoder.seq_layers.2.weight f4 [128, 128]
0.03294935 -0.111482434 0.17105661 -0.09944029 0.16926742 0.15465918 0.11029812 0.0342827
0.20784332 -0.11386885 0.12951131 -0.11064977 -0.028080909 -0.09821334 0.12265273 0.08913942
0.13203304 -0.018000457 0.012574103 0.07448898 -0.08210761 -0.046968907 -0.019059947 0.050458603
-0.014119442 -0.052293807 0.012638945 -0.023970906 -0.039166994 0.029106304 -0.03154349 -0.063686915
0.04132676 0.02462385 0.092054054 -0.0074351747 -0.03321598 -0.046273004 0.20431791 0.0046956483
-0.072611496 0.039055407 0.19762568 0.02099561 -0.14424248 0.1218451 -0.07724649 -0.025861455
0.081228025 -0.048776705 -0.11085859 -0.12613791 0.08646199 -0.018680613 0.05740819 -0.09335619
-0.035460047 -0.09385512 -0.09121838 0.054188807 -0.025685275 -0.0022459032 -0.10557563 0.029307444
-0.034047987 -0.105867416 -0.015272433 0.06055164 -0.081731394 -0.16205707 -0.039437767 -0.013330126
-0.0033904656 -0.044791825 0.07103349 0.16439942 0.028951982 -0.0702427 -0.05097164 -0.034592655
-0.1048191 0.08110615 0.030801991 0.11964482 -0.122552015 -0.02867843 0.01247131 0.11917841
-0.06794686 -0.02627309 -0.029653352 -0.12728666 -0.022780228 0.034411725 -0.2238606 0.1530103
-0.090896286 0.050705735 0.10630747 0.009648803 -0.17759067 -0.019218901 -0.020167802 -0.010766303
0.10115071 0.08313151 0.056154385 0.022908574 0.12371712 0.027039506 -0.025181316 -0.14640586
-0.08104201 -0.000342619 -0.100383654 -0.06252034 -0.017878382 -0.059577107 0.0694855 0.004876265
0.09169041 0.03693993 -0.16460115 -0.082931146 -0.09083625 -0.07221451 0.022613902 -0.10802102
0.12273154 -0.039104953 -0.027570618 0.00923952 0.035549693 0.028792003 0.08821347 -0.032575574
0.007383922 0.10197848 -0.05555657 -0.04198578 -0.037814256 -0.12620918 -0.08413133 0.020602046
-0.09172455 -0.09170137 -0.004553289 -0.06255765 0.019996975 -0.05436411 -0.07357462 0.112416044
-0.10102113 0.006519322 0.06721407 0.040846217 0.008191566 0.05400369 0.15057853 0.10185692
-0.08045625 -0.1075773 -0.052567028 -0.020027786 -0.016112316 -0.044304956 -0.09084684 0.07004603
0.04000305 0.03302728 -0.21844104 -0.06769794 0.12757102 0.0927801 -0.068414256 -0.004365668
0.030331846 0.15699168 0.20052107 0.032735996 -0.0038385259 0.024356307 0.0375783 0.0148007665
0.04795865 0.0031782764 0.011984329 -0.0929443 -0.13488315 0.05008967 -0.09203502 -0.056204144
-0.12790038 0.036735047 -0.05881342 0.13740648 0.114889346 0.03127032 0.07603799 -0.041219458
-0.10152479 0.10434982 0.014644663 0.053883195 0.12653309 -0.028539266 -0.020423505 0.11979366
-0.11233778 -0.07631213 -0.12192982 -0.032565944 -0.06856432 -0.06629649 0.05938155 0.053361636
-0.13777535 0.21493605 0.0063790637 -0.13618486 -0.26158968 -0.10991571 0.039903052 -0.1999123
-0.0140668135 -0.024488704 0.14348194 -0.0115152 0.059819337 0.025128601 0.07302186 0.04708053
0.07525759 0.082045846 0.029563835 -0.20171203 0.13085419 -0.09203585 -0.012353567 -0.2034809
0.080696054 0.0921387 -0.023538454 0.16663373 -0.08148786 0.024109796 -0.0016801847 0.014592815
0.060322028 0.079988725 0.051620573 -0.025675796 0.0043369043 -0.20314978 -0.028712124 0.016215656
00000000: e6f5 063d e750 e4bd 7729 2f3e 5aa7 cbbd
00000010: 7054 2d3e fa5e 1e3e fbe3 e13d 046c 0c3d
00000020: e1d4 543e 1234 e9bd 9d9e 043e 599c e2bd
00000030: ef09 e6bc 1324 c9bd 5b31 fb3d ba8e b63d
00000040: ab33 073e b275 93bc 9c03 4e3c ae8d 983d
00000050: 0928 a8bd 7862 40bd 9b23 9cbc aead 4e3d
00000060: 3b55 67bc 0832 56bd 9413 4f3c a25e c4bc
00000070: 926d 20bd 5870 ee3c bf33 01bd 496e 82bd
00000080: 4046 293d f5b7 c93c d686 bc3d c4a2 f3bb
00000090: 7b0d 08bd c388 3dbd b738 513e f4dd 993b
000000a0: 56b5 94bd 90f8 1f3d 635e 4a3e fcfe ab3c
000000b0: 4db4 13be ec89 f93d 6833 9ebd 67db d3bc
000000c0: e15a a63d 15ca 47bd d409 e3bd 4c2a 01be
000000d0: fc12 b13d 1608 99bc da24 6b3d 8831 bfbd
000000e0: 8e3e 11bd 1d37 c0bd b4d0 babd 15f5 5d3d
000000f0: ed69 d2bc 0130 13bb 0938 d8bd 2a16 f03c
00000100: e775 0bbd 04d1 d8bd 3a39 7abc ff04 783d
00000110: ca62 a7bd 4af2 25be 7f89 21bd 9a66 5abc
00000120: 9332 5ebb a277 37bd 027a 913d 5258 283e
00000130: b52c ed3c 68db 8fbd a3c7 50bd 07b1 0dbd
00000140: 65ab d6bd fb1a a63d 7554 fc3c 5808 f53d
00000150: 8dfc fabd 07ef eabc 7754 4c3c cf13 f43d
00000160: b927 8bbd aa3a d7bc 96eb f2bc 6f57 02be
00000170: 9a9d babc 4ff3 0c3d b73b 65be bbae 1c3e
00000180: d527 babd d1b0 4f3d bbb7 d93d 0316 1e3c
00000190: 54da 35be f570 9dbc f236 a5bc 2665 30bc
000001a0: 1a28 cf3d da40 aa3d 2402 663d c3aa bb3c
000001b0: 675f fd3d f481 dd3c 0c49 cebc 6beb 15be
000001c0: 5af9 a5bd 8ba1 b3b9 f295 cdbd aa0a 80bd
000001d0: af75 92bc 2007 74bd 6a4e 8e3d 13c9 9f3b
000001e0: 2fc8 bb3d 534e 173d 348d 28be ced7 a9bd
000001f0: 5b08 babd 33e5 93bd ca40 b93c 203a ddbd
00000200: ac5a fb3d 842c 20bd c7db e1bc 5b61 173c
00000210: 8e9c 113d 35dd eb3c 44a9 b43d f76d 05bd
00000220: d4f4 f13b 18da d03d 498f 63bd 48f9 2bbd
00000230: 1fe3 1abd fb3c 01be 0c4d acbd 9fc5 a83c
00000240: 15da bbbd eecd bbbd c233 95bb 3a1e 80bd
00000250: b2d0 a33c e7ac 5ebd 4aae 96bd 623a e63d
00000260: 2be4 cebd 09a0 d53b 88a7 893d 5d4e 273d
00000270: eb35 063c f932 5d3d 4231 1a3e 5c9a d03d
00000280: 3fc6 a4bd 7d51 dcbd 8650 57bd 5011 a4bc
00000290: fafd 83bc 1d79 35bd e80d babd 4b74 8f3d
000002a0: 3dda 233d 9d47 073d 02af 5fbe 38a5 8abd
000002b0: faa1 023e 7e03 be3d c61c 8cbd e10d 8fbb
000002c0: 7e7a f83c 6dc2 203e 6555 4d3e 2e16 063d
000002d0: c78f 7bbb e186 c73c b4eb 193d ea7e 723c
000002e0: 4a70 443d a14a 503b eb59 443c 9559 bebd
000002f0: cf1e 0abe d32a 4d3d db7c bcbd 5136 66bd
00000300: 51f8 02be 7d77 163d 57e6 70bd 49b4 0c3e
00000310: 1b4b eb3d 4f15 003d ceb9 9b3d bcd5 28bd
00000320: 3bec cfbd 5cb5 d53d 2bf0 6f3c a0b4 5c3d
00000330: e491 013e 2ecb e9bc 324f a7bc 6156 f53d
00000340: 5a11 e6bd 8949 9cbd 57b6 f9bd de63 05bd
00000350: 736b 8cbd 74c6 87bd 113a 733d bb91 5a3d
00000360: fb14 0dbe 3218 5c3e 7707 d13b 0b74 0bbe
00000370: 15ef 85be 7d1b e1bd 6271 233d cfb5 4cbe
00000380: 7e78 66bc 899c c8bc eeec 123e 40aa 3cbc
00000390: 1f05 753d 7fda cd3c 7c8c 953d 84d7 403d
000003a0: a720 9a3d a707 a83d db2f f23c 998d 4ebe
000003b0: a4fe 053e 4b7d bcbd 9e66 4abc 4c5d 50be
000003c0: f943 a53d 37b3 bc3d b7d3 c0bc 08a2 2a3e
000003d0: 1be3 a6bd e881 c53c a539 dcba b416 6f3c
000003e0: 3b14 773d 21d1 a33d 1870 533d 0c56 d2bc
000003f0: 971c 8e3b 7f06 50be b035 ebbc b2d6 843c

network_body._body_endoder.seq_layers.2.bias f4 [128]
0.0 0.0 0.0 0.0 0.0 0.0 0.0 0.0
0.0 0.0 0.0 0.0 0.0 0.0 0.0 0.0
0.0 0.0 0.0 0.0 0.0 0.0 0.0 0.0
0.0 0.0 0.0 0.0 0.0 0.0 0.0 0.0
0.0 0.0 0.0 0.0 0.0 0.0 0.0 0.0
0.0 0.0 0.0 0.0 0.0 0.0 0.0 0.0
0.0 0.0 0.0 0.0 0.0 0.0 0.0 0.0
0.0 0.0 0.0 0.0 0.0 0.0 0.0 0.0
0.0 0.0 0.0 0.0 0.0 0.0 0.0 0.0
0.0 0.0 0.0 0.0 0.0 0.0 0.0 0.0
0.0 0.0 0.0 0.0 0.0 0.0 0.0 0.0
0.0 0.0 0.0 0.0 0.0 0.0 0.0 0.0
0.0 0.0 0.0 0.0 0.0 0.0 0.0 0.0
0.0 0.0 0.0 0.0 0.0 0.0 0.0 0.0
0.0 0.0 0.0 0.0 0.0 0.0 0.0 0.0
0.0 0.0 0.0 0.0 0.0 0.0 0.0 0.0
00000000: 0000 0000 0000 0000 0000 0000 0000 0000
00000010: 0000 0000 0000 0000 0000 0000 0000 0000
00000020: 0000 0000 0000 0000 0000 0000 0000 0000
00000030: 0000 0000 0000 0000 0000 0000 0000 0000
00000040: 0000 0000 0000 0000 0000 0000 0000 0000
00000050: 0000 0000 0000 0000 0000 0000 0000 0000
00000060: 0000 0000 0000 0000 0000 0000 0000 0000
00000070: 0000 0000 0000 0000 0000 0000 0000 0000
00000080: 0000 0000 0000 0000 0000 0000 0000 0000
00000090: 0000 0000 0000 0000 0000 0000 0000 0000
000000a0: 0000 0000 0000 0000 0000 0000 0000 0000
000000b0: 0000 0000 0000 0000 0000 0000 0000 0000
000000c0: 0000 0000 0000 0000 0000 0000 0000 0000
000000d0: 0000 0000 0000 0000 0000 0000 0000 0000
000000e0: 0000 0000 0000 0000 0000 0000 0000 0000
000000f0: 0000 0000 0000 0000 0000 0000 0000 0000
00000100: 0000 0000 0000 0000 0000 0000 0000 0000
00000110: 0000 0000 0000 0000 0000 0000 0000 0000
00000120: 0000 0000 0000 0000 0000 0000 0000 0000
00000130: 0000 0000 0000 0000 0000 0000 0000 0000
00000140: 0000 0000 0000 0000 0000 0000 0000 0000
00000150: 0000 0000 0000 0000 0000 0000 0000 0000
00000160: 0000 0000 0000 0000 0000 0000 0000 0000
00000170: 0000 0000 0000 0000 0000 0000 0000 0000
00000180: 0000 0000 0000 0000 0000 0000 0000 0000
00000190: 0000 0000 0000 0000 0000 0000 0000 0000
000001a0: 0000 0000 0000 0000 0000 0000 0000 0000
000001b0: 0000 0000 0000 0000 0000 0000 0000 0000
000001c0: 0000 0000 0000 0000 0000 0000 0000 0000
000001d0: 0000 0000 0000 0000 0000 0000 0000 0000
000001e0: 0000 0000 0000 0000 0000 0000 0000 0000
000001f0: 0000 0000 0000 0000 0000 0000 0000 0000
