results/ppo/ControlCar/ControlCar-480.onnx (onnx, 82320 bytes, 8 tensors)

discrete_act_size_vector f4 [1, 3]
00000000: 0000 4040 0000 4040 0000 803f
3.0 3.0 1.0

network_body._body_endoder.seq_layers.0.weight f4 [128, 6]
00000000: 4ed3 853e 1889 a23e 1967 ed3d 282a ecbe
00000010: a123 cf3e 7511 273e bb61 0dbd cece ebbd
00000020: 7f09 aa3d 9f19 27bf f7b5 10bf 4be1 0e3f
00000030: 3323 283d a694 7d3e 8abf 7bbe c19c 793e
00000040: 9775 dbbe 1994 123e 7baf f7be 8e06 553e
00000050: abd0 84be 3446 003f 0a50 1c3e 64c0 38be
00000060: 5f1c 92be c63d 33bf 6ace 593e 5bbc 90bd
00000070: eeeb 453f 7386 b73e eacd 35bf 4a88 eb3e
00000080: 41bc c93e ec96 39bf f6c6 50bd 8e6b ae3e
00000090: db3d 123f f843 03bf e609 aabe 9348 5a3e
000000a0: 069a 1c3f 489a 7cbe b43e c93c 87e4 a5be
000000b0: e13f d23e bc95 183f a9b7 02be ce2d 163e
000000c0: 5fc6 a83e 809b ab3e 9043 f9be 3164 5c3e
000000d0: 1577 61be 4ea2 173f 2f09 99be 8a43 fdbe
000000e0: 518d 553e 1355 9cbe 0615 eebe b954 99bd
000000f0: 7c3b 913e 6d7a 09bf 2036 983d 804e bc3e
00000100: 9d60 27bf fd4d c03e 7e1f 193f 6b89 983d
00000110: 918f 8abe 7a0c ad3d f31e 8bbd 0cd1 75be
00000120: b27d 1f3f 6bdc 873d 4408 40be 0ef9 eabe
00000130: d7ad 633d ce40 6a3e e247 4f3d 64b2 793e
00000140: 410a e8be 67f6 e73e ab70 4a3f d2d9 9f3d
00000150: 50ac 09bf a4c2 d83e f9f0 0bbd 36f7 adbd
00000160: 5717 11bf e9aa 89be 95b8 5ebe 270e 0c3e
00000170: 9eab a13e fda7 2e3e c3a7 513f a62f a1bf
00000180: 43ad e2bd 9ce2 c93d 384b 04be 7a78 a53c
00000190: f5ca cfbc c4f2 fc3d 7467 13be 2ba5 39be
000001a0: f057 5cbd 7a70 e3be c668 b2be 3dd2 df3e
000001b0: 4f1b 48bc a219 63bd 5792 943d 1d6b f03e
000001c0: 0008 d93e 289e 14bf a7ca 503e dc51 c2bd
000001d0: e1c9 313e 06ec d4be 1d36 f13e 6b76 903e
000001e0: ec7d e13e b932 013e 6c3f d13e c8a0 2b3e
000001f0: 3248 e63d 73ff 543d 8dcc d4be 6ee4 23be
00000200: 579d b33c c4fb 1cbf 64f7 d0bd f7b2 3d3f
00000210: c281 b03e 99b7 00bf 727a 293d ec58 2fbf
00000220: f030 9c3e ec0c dc3e fefb 013e 9973 0abc
00000230: 972a 12bc 8d94 f7bd 83e5 1abf c120 653f
00000240: 8da5 3d3e 59cf c8bd 3654 17bc e47b b7be
00000250: 9a9d b43e 4e32 2bbf 0ecf 15bf 670e cebe
00000260: 9a60 37bd f55a 963e 33b3 5cbd 5b09 98bd
00000270: 4c9d 873d 82f1 e53e c26e 81bf b922 15bf
00000280: 530e 3f3e d6be 07be 0629 883c 20fd 8a3e
00000290: 27fa 2dbe 6218 7cbe c2dd 03be 6ed9 433e
000002a0: eeaf 223f ecb9 26be 7336 553e 43b9 323f
000002b0: cdca 833e 60ee 3d3e 7057 2abe 9c5f 30be
000002c0: 02f3 633e 1e8a b5bd 5586 2cbc fe09 463f
000002d0: 8f14 f23e 6cf6 093d ac2c 87be f618 373e
000002e0: 0af3 0cbf 0580 883e 2b58 16be 3753 5a3f
000002f0: 8c30 5ebf 9595 eabe 09c8 353f 6130 46bf
00000300: 2ae2 85bf 4f9e 803e c40d 70be d413 5cbd
00000310: 47ed cc3d 18f0 073f 052a 33be 63db 953d
00000320: d7c9 e6be 07d2 163f a143 6dbe 492f bc3e
00000330: 7c26 b4bd 0428 c1be b297 9a3e 811b 47bf
00000340: 870c 9abe 03b2 1d3d 99e8 89be b4de 70be
00000350: d00b cebe 84a6 09bf b5e9 bebe 63fd 93be
00000360: 312d 08bf e10b d1bd 8c9b 3bbf be81 533f
00000370: 6d6d 933e 0b13 823e e2fe 343f 3ed3 65be
00000380: 7d7d 0d3f 01c3 b5be 3b6a 98be e9be 89bd
00000390: 5242 20be f15c 353d e7bc d3be aa19 64be
000003a0: 7038 acbd 45e8 183f e640 a83e 9775 013f
000003b0: cdcb 193e 17eb 583e 23f3 ff3e 93a8 5bbe
000003c0: 121f 64bd f901 7cbc e954 b7be 8795 623e
000003d0: efca 7d3d fe76 5d3b 91e8 1a3f adaa ddbd
000003e0: 926b 513d b289 0c3f 41e6 3ebf 8603 ee3d
000003f0: 7d4b 103e 346e 00bf 790d a53e b6e5 7bbf
0.26137775 0.3174522 0.1159193 -0.46125913 0.4045687 0.16315253 -0.03451703 -0.11514054
0.083025925 -0.6527347 -0.56527656 0.5581252 0.041049194 0.24763736 -0.24584785 0.24376203
-0.4286315 0.14314307 -0.48376068 0.20803282 -0.2594045 0.5010712 0.15264907 -0.18042141
-0.2853727 -0.70016134 0.21270147 -0.07067176 0.77313125 0.35844764 -0.71017325 0.46002418
0.3940144 -0.72495914 -0.050970994 0.34066433 0.57125634 -0.5127559 -0.33210677 0.21316747
0.6117252 -0.24668229 0.024566032 -0.32400915 0.4106436 0.59603477 -0.12765373 0.1466591
0.32963845 0.33517075 -0.4868436 0.21522595 -0.22018082 0.5923203 -0.2988982 -0.4946559
0.20854689 -0.30533656 -0.46500415 -0.07486863 0.28365695 -0.5370243 0.074321985 0.3677864
-0.65381795 0.375595 0.5981368 0.074480854 -0.27062657 0.08449645 -0.067930125 -0.24005526
0.6230117 0.06633838 -0.18753153 -0.4589314 0.05558571 0.22876284 0.050605662 0.24384457
-0.45320323 0.45305178 0.7907817 0.07805218 -0.53778553 0.42336 -0.034165356 -0.08494417
-0.5667624 -0.26888207 -0.217501 0.13677274 0.31576246 0.1705627 0.8189661 -1.2592666
-0.11068203 0.098576754 -0.12919319 0.02019905 -0.025365332 0.12350991 -0.14394933 -0.18129413
-0.0537948 -0.4442175 -0.3484556 0.43715087 -0.012213542 -0.055444367 0.072544746 0.4695672
0.42388916 -0.5805383 0.20389806 -0.0948827 0.17362167 -0.41586322 0.47111598 0.28215346
0.44041383 0.12617005 0.408687 0.16760552 0.11244239 0.052001428 -0.4156231 -0.16005108
0.021925611 -0.61321664 -0.10203436 0.74101204 0.34473997 -0.5028015 0.04137654 -0.6849506
0.30506086 0.4297861 0.12693784 -0.008450412 -0.008921287 -0.12088881 -0.6050646 0.89503103
0.18520184 -0.098051734 -0.009236386 -0.3583671 0.3527649 -0.66873634 -0.58519065 -0.40245363
-0.04476986 0.2936627 -0.053881835 -0.074236594 0.06621799 0.44910818 -1.0111926 -0.5825611
0.18657808 -0.13256392 0.016621124 0.27146244 -0.16989957 -0.24618676 -0.12877563 0.19125912
0.635497 -0.16281861 0.20821552 0.69813937 0.25740662 0.18547964 -0.16634917 -0.17223972
0.22260669 -0.088642344 -0.010530074 0.77358997 0.4728131 0.03368227 -0.2640127 0.17880616
-0.5505835 0.2666017 -0.14682071 0.85283226 -0.86792827 -0.45817247 0.71008354 -0.7741757
-1.0459645 0.2512078 -0.23442751 -0.053729847 0.100061946 0.5310073 -0.17496498 0.07317235
-0.45075867 0.58914226 -0.2317033 0.36754826 -0.08796403 -0.37725842 0.3019386 -0.7777634
-0.30087683 0.038499843 -0.2693527 -0.23522455 -0.40243387 -0.5376971 -0.3728768 -0.28904256
-0.53193957 -0.10207344 -0.7328422 0.82619846 0.28794423 0.25405154 0.7070142 -0.22443864
0.55269605 -0.3550034 -0.29768547 -0.06725866 -0.15650299 0.04427809 -0.4135506 -0.22275415
-0.08409202 0.59729415 0.32862014 0.5057005 0.1501915 0.2118343 0.49990186 -0.21451025
-0.055693693 -0.01538133 -0.3580697 0.22127353 0.06196111 0.0033792849 0.6051112 -0.108235694
0.051127978 0.54897606 -0.7457009 0.11621766 0.14091296 -0.50168157 0.3223684 -0.98397386

network_body._body_endoder.seq_layers.0.bias f4 [128]
00000000: 0000 0000 0000 0000 0000 0000 0000 0000
00000010: 0000 0000 0000 0000 0000 0000 0000 0000
00000020: 0000 0000 0000 0000 0000 0000 0000 0000
00000030: 0000 0000 0000 0000 0000 0000 0000 0000
00000040: 0000 0000 0000 0000 0000 0000 0000 0000
00000050: 0000 0000 0000 0000 0000 0000 0000 0000
00000060: 0000 0000 0000 0000 0000 0000 0000 0000
00000070: 0000 0000 0000 0000 0000 0000 0000 0000
00000080: 0000 0000 0000 0000 0000 0000 0000 0000
00000090: 0000 0000 0000 0000 0000 0000 0000 0000
000000a0: 0000 0000 0000 0000 0000 0000 0000 0000
000000b0: 0000 0000 0000 0000 0000 0000 0000 0000
000000c0: 0000 0000 0000 0000 0000 0000 0000 0000
000000d0: 0000 0000 0000 0000 0000 0000 0000 0000
000000e0: 0000 0000 0000 0000 0000 0000 0000 0000
000000f0: 0000 0000 0000 0000 0000 0000 0000 0000
00000100: 0000 0000 0000 0000 0000 0000 0000 0000
00000110: 0000 0000 0000 0000 0000 0000 0000 0000
00000120: 0000 0000 0000 0000 0000 0000 0000 0000
00000130: 0000 0000 0000 0000 0000 0000 0000 0000
00000140: 0000 0000 0000 0000 0000 0000 0000 0000
00000150: 0000 0000 0000 0000 0000 0000 0000 0000
00000160: 0000 0000 0000 0000 0000 0000 0000 0000
00000170: 0000 0000 0000 0000 0000 0000 0000 0000
00000180: 0000 0000 0000 0000 0000 0000 0000 0000
00000190: 0000 0000 0000 0000 0000 0000 0000 0000
000001a0: 0000 0000 0000 0000 0000 0000 0000 0000
000001b0: 0000 0000 0000 0000 0000 0000 0000 0000
000001c0: 0000 0000 0000 0000 0000 0000 0000 0000
000001d0: 0000 0000 0000 0000 0000 0000 0000 0000
000001e0: 0000 0000 0000 0000 0000 0000 0000 0000
000001f0: 0000 0000 0000 0000 0000 0000 0000 0000
0.0 0.0 0.0 0.0 0.0 0.0 0.0 0.0
0.0 0.0 0.0 0.0 0.0 0.0 0.0 0.0
0.0 0.0 0.0 0.0 0.0 0.0 0.0 0.0
0.0 0.0 0.0 0.0 0.0 0.0 0.0 0.0
0.0 0.0 0.0 0.0 0.0 0.0 0.0 0.0
0.0 0.0 0.0 0.0 0.0 0.0 0.0 0.0
0.0 0.0 0.0 0.0 0.0 0.0 0.0 0.0
0.0 0.0 0.0 0.0 0.0 0.0 0.0 0.0
0.0 0.0 0.0 0.0 0.0 0.0 0.0 0.0
0.0 0.0 0.0 0.0 0.0 0.0 0.0 0.0
0.0 0.0 0.0 0.0 0.0 0.0 0.0 0.0
0.0 0.0 0.0 0.0 0.0 0.0 0.0 0.0
0.0 0.0 0.0 0.0 0.0 0.0 0.0 0.0
0.0 0.0 0.0 0.0 0.0 0.0 0.0 0.0
0.0 0.0 0.0 0.0 0.0 0.0 0.0 0.0
0.0 0.0 0.0 0.0 0.0 0.0 0.0 0.0

network_body._body_endoder.seq_layers.2.weight f4 [128, 128]
00000000: 4916 94bc b8b6 0d3e 21d0 aebd f90c 8c3c
00000010: 06a7 90bd af67 a3bc 28a0 3fbe 5a0f 39bd
00000020: 8f8b 233d b6f1 c33d 02ae 583d 8bdb 343d
00000030: dafe e7bb 3aa8 f8bc fe82 343d fe2e a7bc
00000040: cf8f ccbc 974c 833d afeb d8bb f1d2 9ebd
00000050: 5038 913d acb9 3cbc f887 243d 5fef 87bb
00000060: efd3 48bd 0f5e 7f3d 8787 8b3d 2701 02bd
00000070: ef33 89bd 25cf 0dbd f984 ffbc 1678 2d3d
00000080: 4cb8 be3d 3b6a 90bc d43d 5b3b a708 2fbd
00000090: dfa2 ef3d 5e78 ad3d d0c7 bbbd 8446 013c
000000a0: 9ab9 ba3c d4b1 093e bcfb 313c 613a 02bd
000000b0: a666 9ebc 079e 61be eacb e4bd 8326 ce3d
000000c0: fbd3 ecbd 9965 fbbd 1a19 22bd e360 a6bc
000000d0: 9740 2a3e b5c0 553e 622d 76bd 9a33 773c
000000e0: 02a3 05bd b803 e1bc d56a 54bc 643d 953d
000000f0: beca 3dbe 11e5 053e e295 023c 5e20 c63d
00000100: d0b0 453d 3ca4 1c3e cbe5 213b 3832 3d3c
00000110: 1edf c4bd 4e68 4fbd ec46 fb3d 64b5 543d
00000120: c122 8d3d c60b 2cbe 0dbc b93c e163 9dbd
00000130: 5186 8e3c 6dc9 283d 73c9 63bc 3c6e a4bd
00000140: 53d1 213e ebfc 08bd 7555 66be 1ffa f23d
00000150: ff1e 15bc 9f05 163d 0110 8b3b 84fc 743d
00000160: 01f5 e73d 81d0 4cbd 0e9f e63d 2d3b 8d3d
00000170: cb26 bbbd 6cf7 c83d e944 81bd 263d 3d3e
00000180: 0bba 163d 3cbd ccbc 3412 153c d0e9 96bd
00000190: d3ae c63c 877f 26bd f13a c23d c631 613d
000001a0: 7278 86bc 0556 f1bd 1c81 12be 8916 1ebe
000001b0: b063 fbbd 872f a13d 65fd 68bd 8a4b 4c3d
000001c0: 56d1 6abb 7cd9 9fbd 6940 bbbc 8a3e 1ebd
000001d0: 1d91 98bd 75da 80bd ba74 6b3e 1a19 a53c
000001e0: fe74 753e 8a9f d3bc a311 c63d 4c36 ce3b
000001f0: a3de 86bd c17d 71be 627a e63d 8c16 883d
00000200: ad6e ae3d 1b1b 6e3d 643c 583d 9590 abbd
00000210: 90fa 913d 8209 bd3d 79f5 98bc f1d3 443d
00000220: 6eb1 3c3d 988e aebc 4fb6 843c 437f d83d
00000230: 06f8 cc3c ce7a bdbc a91c 5abb c478 82bd
00000240: 61fd 43bd 6061 5e3c 420b e2bc 9a5a 95bd
00000250: 1b98 acbd 4a85 913c c9a1 d53d 28b0 57bc
00000260: 72e2 b63d e5f5 43bd c700 f33c 646f 57bd
00000270: 50c1 513d 6ae8 a5bc 4b16 993d 523d 1d3e
00000280: 8a0e 07be 5b82 783c 905b 3ebd faf1 27bd
00000290: 2a11 f13d b23f 193e b312 1d3d eae3 da3d
000002a0: 6ebd cf3b bc66 0b3e 146d 863b 8253 78bd
000002b0: 05fc 523d 1748 0c3e 50db 6dbd e5cd c23c
000002c0: 4e20 7fbb dbd3 28bd 80eb 003d 4ffb c13c
000002d0: 19bc acbd de89 40bc fa8a 8ebd 7156 913d
000002e0: 6e70 ba3d 5a75 9c3c 7a7e 15bd 89c0 813c
000002f0: f0af a8bc c2ab 9dbd 0c07 23be 017a c9bd
00000300: e599 dabc 764e 1dbd ab4e b93c 2bf7 50bd
00000310: f581 4c3d af95 bebd 6374 7e3d 5bd0 b03d
00000320: b3ec 033e cc45 1bbe b8a2 9c3c 2c7f a83c
00000330: 340b 263d b7c2 41bd 261f b0bd 30e7 9a3c
00000340: a735 ba3d 80cb bdbc 0b79 123d da82 003e
00000350: 9095 cb3c 146e 1d3b 42ba 753d a184 56be
00000360: c382 a63d c81b 923b 6226 0bbd 0cde 41be
00000370: e0ad 3f3d 171b df3b 22e8 5a3d 2675 f23d
00000380: fd19 91bd 97d1 31bd 5502 153d c1fb 603d
00000390: aed7 2ebd 5538 3e3d 20d8 12be 8fb9 0e3d
000003a0: 055a 55bd 63a3 283e 7dbf 483d 70dd d33d
000003b0: 593b 10be 3906 3cbe 9871 36bc a66d bb3d
000003c0: 6667 a13d 609a 923d 8288 db3c 31fc edbc
000003d0: 92d5 fdbc 5126 363d 3edc 7c3d 6279 a13b
000003e0: 42d3 1ebd 3257 623d e07b 98bd 978b 6f3e
000003f0: a90c 0abc ee7f dd3d 212e babd e16a 36be
-0.018077033 0.13839233 -0.08535791 0.01709603 -0.07063107 -0.019946901 -0.18713439 -0.045180656
0.039928015 0.09567587 0.05290032 0.044154685 -0.007079941 -0.030353654 0.044070236 -0.02040815
-0.024970917 0.06411093 -0.0066198925 -0.07755078 0.07090819 -0.011518877 0.040168732 -0.0041484083
-0.04903024 0.06234556 0.06812959 -0.03173938 -0.06699359 -0.034621377 -0.031191336 0.04235085
0.093124956 -0.01762878 0.00334536 -0.04273286 0.11700987 0.08470224 -0.091689706 0.007890347
0.02279358 0.13446742 0.010863241 -0.031793956 -0.019336056 -0.22032939 -0.11171706 0.10065939
-0.115638696 -0.122752376 -0.03957472 -0.020309871 0.16626202 0.20874293 -0.060101874 0.015087986
-0.03262616 -0.027467594 -0.012964924 0.072871 -0.18534371 0.13075663 0.007970305 0.09674142
0.048264325 0.15297025 0.0024703618 0.011547618 -0.09612869 -0.050636582 0.12269387 0.0519308
0.068913944 -0.16801366 0.022672677 -0.07685066 0.017398031 0.04120772 -0.01390301 -0.08028838
0.15802507 -0.033444326 -0.22493537 0.11864113 -0.009101628 0.036626454 0.004243851 0.05981113
0.11326028 -0.050003532 0.11260806 0.068960525 -0.091382585 0.09812817 -0.06311972 0.18480358
0.03679852 -0.024992578 0.009098578 -0.07368815 0.024253285 -0.040648963 0.094838984 0.05497911
-0.016414855 -0.11783985 -0.14307064 -0.15438284 -0.12274873 0.07870393 -0.05688228 0.049876727
-0.003583034 -0.07805154 -0.022857862 -0.03863386 -0.07449553 -0.06291667 0.22993746 0.02015357
0.2397041 -0.02583291 0.09671333 0.006293094 -0.06585433 -0.23583128 0.112538114 0.066449255
0.085172035 0.05813132 0.052791968 -0.08377186 0.07127869 0.09230329 -0.018671738 0.048053686
0.046067648 -0.021308228 0.016200213 0.10571148 0.02502061 -0.023129847 -0.0033281243 -0.063706905
-0.047849063 0.013573021 -0.027593259 -0.072926715 -0.08427449 0.017763752 0.10431249 -0.0131645575
0.0892991 -0.047841925 0.029663457 -0.052596465 0.051209748 -0.020252425 0.07474955 0.15355423
-0.1318914 0.015167798 -0.04647404 -0.04100225 0.11770852 0.14965704 0.03834791 0.106880024
0.0063397205 0.13613409 0.0041023586 -0.060626514 0.051509876 0.13699375 -0.05807048 0.023779819
-0.0038929167 -0.041217666 0.03147459 0.023679404 -0.08434314 -0.01175162 -0.069601014 0.070965655
0.091034755 0.019098926 -0.03649757 0.015838878 -0.020591706 -0.07698776 -0.15920657 -0.098377235
-0.02668471 -0.038404904 0.02262052 -0.051016968 0.049928624 -0.09305894 0.062122714 0.08633491
0.12883262 -0.15163344 0.01912056 0.020568453 0.040538028 -0.047304835 -0.08599691 0.018909067
0.090922646 -0.023168325 0.035759967 0.12549916 0.02485159 0.002402191 0.059992082 -0.20949031
0.081304096 0.004458878 -0.03397215 -0.1893236 0.04679668 0.0068086493 0.053444035 0.118387505
-0.07085035 -0.04341277 0.036379177 0.05492759 -0.042686157 0.04644044 -0.14340258 0.03484493
-0.052087802 0.16468577 0.049010742 0.1034497 -0.1408514 -0.18361749 -0.011135481 0.09151773
0.0788105 0.07158351 0.02679849 -0.029050918 -0.030985627 0.044470135 0.061733477 0.0049278
-0.03877569 0.055258937 -0.07445502 0.23393093 -0.00842587 0.10815416 -0.0909083 -0.17814209

action_model._discrete_distribution.branches.0.weight f4 [3, 128]
00000000: 5423 1f3a f3f1 5abb 676d 33bb f6c7 813b
00000010: 660a 313c 5336 bcbb 5ab2 823a 0076 8c3b
00000020: ac4b b23b 7485 00bc 24df 993b a7de 10bb
00000030: 1bee 5abc cae3 5e3c 558d 6339 ab03 a63b
00000040: ad03 e8bb 1f1d 04bc ba9d cabb a647 c4bb
00000050: db48 6abb 2ebe 33bb b317 5f3c 2297 0dbb
00000060: fbd2 283b 83d9 c6bb bd73 5cbb e421 083b
00000070: 08a1 993b d25f 7c3b 47cb 183c 5689 0f3c
00000080: 590c 243c 3e10 05ba ec07 983b 837d 3dbc
00000090: 2b80 4fbb a28a 403c 2e7e 493c cc2c 24ba
000000a0: 75f1 ebbb 6151 b1bb 904f 07bc 7b2b 19bc
000000b0: e5c4 b5bb 7f3b 79bc 5d4f 693c 0579 b33b
000000c0: 2c38 98bc d1c7 30bb 568a 97bb 5a07 653b
000000d0: 19d3 b7bb 4f10 8f38 9a16 853c f0d3 be3b
000000e0: 69a2 40bb 367f c73a a2f9 c93c 0f40 91ba
000000f0: dfce a03b 91ad 3d3c 7b91 6c3c facb 47bc
00000100: 17c2 1a3b bdf9 88bb facd 663c fbb4 5fbc
00000110: f7e2 4739 ece0 33bc ec10 4abb 04fc 823b
00000120: 12f6 bb3b c132 2abc 5b81 0cbb ca84 37bc
00000130: 2b01 0c39 8d12 2c3a b386 86bb 9312 cf3b
00000140: 0a93 cb3b 9795 b3bb e56b 86bb 268a 2d3c
00000150: 77bd 8d3c a7fc 2cba 0e44 083c 9c06 4c3c
00000160: f61a 22bc 10c1 063c d465 453a a159 a23b
00000170: 9b37 c73b 1dcd 7dbb 9812 bf3b 38da 2a3b
00000180: d1c8 33bc bfc7 be3b 7f2f 2f39 64b2 82bc
00000190: 5a40 44bc f2aa 573a 6eef 9c39 da6c fcbb
000001a0: d8b0 7cbc b066 653b 1ea2 4b3b 0270 e63a
000001b0: 4f20 e1bb db2f 003a 6d97 2bbc 924d 523b
000001c0: d2d7 873b 7f7d 91bc ee61 98bb 274c aebb
000001d0: 139e 8a3b c7ac 04bc 4f3b bdbc 6102 48b9
000001e0: 7a3d 6a3c 633c 33bc a9f8 1abb 72b8 71bc
000001f0: d87c 7839 e359 ccbb b4a3 9c3c 93d9 16bb
00000200: a74e 18bc 9bff 09bc d326 35bb f9ff 17bc
00000210: 5df5 bdbc a8b4 17bc 379c cbbb e060 00bc
00000220: c924 09bc 7875 8a3c 716b 82bb a7a8 53bc
00000230: 250a 33bb 7ba9 6bba 0788 4b3a d860 0b3c
00000240: 98c9 f5bb 62f1 17bc d3e3 59bc d04e efbb
00000250: ab97 38bc 86c2 87bb a6f5 a33b f0ea edbb
00000260: 67e6 013c e8b5 d2bb 8acb f538 ffad 26bc
00000270: b51c d43b b27b d7bb d380 a4b9 cf75 383a
00000280: c55a 6f3b fa7e 943b e5c2 823b bf52 04bc
00000290: 0f84 5c3c e7f1 f2bb 8576 68bc 5903 a83c
000002a0: 00a1 14bb cbf6 76bc 2a5b 123a 65de dd3b
000002b0: 0f79 de3a 837e 623a 0118 473b bbdd d6bb
000002c0: 1d20 0d3c a369 88bb baa9 fbbb ad0c 7cbb
000002d0: e43e 903a bb64 663a 8b01 3bbc c779 2abc
000002e0: 2b2a dd3b c764 1b3b 6738 a6bb c234 6039
000002f0: 5db6 393c 089d 083c 0530 59bc b827 673b
00000300: aa1a 2e3b 0c9a 2cbb 745f 4c38 c0c0 5f3c
00000310: 7f19 383b bfa1 383b 065b 31ba ff3e 6d3c
00000320: 458e 68bb 6897 c8bb cdbe 003b f514 f43a
00000330: 4be6 96bc 5cca 9db9 63c1 f8ba dec6 92bc
00000340: 8216 77bc c5cc afbb b3e6 1cbb a44f 2cbc
00000350: ffcf b6bb 0b3f a73a 9554 d7bb a5de 6fbc
00000360: a86a 663c b001 f53b dd51 0c3b f249 5dbc
00000370: a764 3a3c 5127 c53b a3b5 cdba 275f 25ba
00000380: b7f2 133c df84 a83b e02d e5bb 8eef 0a3c
00000390: 837b 16bc 3be2 373b 178d 233c 771f 8238
000003a0: 95cc 75bb d68f 95bb 8bb9 9a3b b317 b0bb
000003b0: b6f7 973a d718 44bb b35f 2639 30ff 05bc
000003c0: 57cb 5dbb 6f9c d23b c342 89bc bf09 a83b
000003d0: 7bd7 763c 0d48 983c 621a 3cba 4346 213c
000003e0: 58e3 f9ba f41e 36bc 4644 4a3c 257d d2ba
000003f0: 536b a5bb f81c 64b9 1207 4f3c a632 38b9
0.0006070633 -0.0033408373 -0.0027378441 0.003960605 0.010805702 -0.0057437806 0.0009971366 0.0042865276
0.0054411497 -0.007844318 0.00469579 -0.0022105367 -0.013362433 0.013604114 0.00021701057 0.005066355
-0.0070805163 -0.008063584 -0.0061833533 -0.0059899865 -0.0035748992 -0.0027426588 0.01361649 -0.0021604975
0.002576052 -0.00606841 -0.0033638321 0.0020772154 0.004688386 0.0038509262 0.009325809 0.008760771
0.01001271 -0.00050759676 0.0046396162 -0.011565569 -0.0031662087 0.011751803 0.01229815 -0.0006262779
-0.007200415 -0.0054113124 -0.008258715 -0.009348745 -0.0055471533 -0.015211939 0.014240113 0.005477073
-0.018581472 -0.0026974569 -0.004624645 0.0034947009 -0.0056098816 6.821809e-05 0.016246129 0.0058236048
-0.002939368 0.0015220407 0.024655167 -0.0011081713 0.0049074735 0.011577026 0.014438982 -0.012194628
0.0023614222 -0.0041801617 0.014087195 -0.013653989 0.0001906267 -0.0109789185 -0.003083284 0.0039973278
0.005736121 -0.010388077 -0.0021439407 -0.011201093 0.00013351876 0.00065640436 -0.004105413 0.006319353
0.006212597 -0.005480479 -0.0041022175 0.010592019 0.017302258 -0.00065989274 0.008317007 0.012452748
-0.009894123 0.008224741 0.0007530127 0.0049545323 0.0060796267 -0.0038726993 0.005831074 0.002607001
-0.010973171 0.0058221514 0.00016706994 -0.015954204 -0.011978233 0.0008227072 0.00029933028 -0.007703406
-0.015423022 0.0035003833 0.0031071971 0.0017580988 -0.0068703066 0.00048899435 -0.010473114 0.0032089693
0.004145601 -0.017760037 -0.004650346 -0.0053191367 0.0042302697 -0.008097834 -0.02309957 -0.00019074373
0.014296884 -0.01093969 -0.0023646748 -0.014753448 0.00023697631 -0.0062363013 0.019121028 -0.0023017868
-0.009296096 -0.0084227575 -0.002764155 -0.009277337 -0.023188287 -0.00925938 -0.0062136906 -0.007835597
-0.008370587 0.016901717 -0.003980093 -0.012918628 -0.002731928 -0.0008989793 0.0007764105 0.008506976
-0.0075008385 -0.009273859 -0.013298946 -0.0073030964 -0.011266629 -0.004143062 0.005003649 -0.0072606727
0.007928467 -0.0064303763 0.000117204225 -0.01017332 0.0064731487 -0.006576025 -0.000313765 0.0007036598
0.0036522609 0.0045317383 0.0039905184 -0.008076369 0.01345922 -0.007414091 -0.0141884135 0.020509409
-0.0022678971 -0.0150734885 0.00055830425 0.0067708963 0.0016973334 0.00086400675 0.0030379298 -0.006557194
0.008613613 -0.0041629835 -0.007680145 -0.0038459704 0.0011005071 0.0008788814 -0.011413942 -0.010405011
0.0067494116 0.002371119 -0.0050726417 0.00021381959 0.011334983 0.00833822 -0.013256078 0.0035271477
0.0026566186 -0.0026336936 4.8726288e-05 0.013656795 0.0028091369 0.002817258 -0.0006765578 0.0144803515
-0.003548519 -0.0061215647 0.0019644976 0.0018621968 -0.01842036 -0.00030096143 -0.0018978532 -0.017917093
-0.01508105 -0.0053649866 -0.0023941218 -0.010517035 -0.0055789943 0.0012759877 -0.0065713623 -0.014640485
0.014063515 0.007477008 0.00214111 -0.0135063995 0.011376536 0.00601665 -0.0015694391 -0.00063084293
0.009030036 0.0051427926 -0.006993994 0.008479966 -0.009184721 0.0028058428 0.009982369 6.204744e-05
-0.0037505974 -0.0045642657 0.0047218255 -0.005373919 0.0011594209 -0.0029922032 0.00015866644 -0.008178517
-0.0033843124 0.0064273397 -0.016755467 0.005128115 0.015066023 0.018589044 -0.0007175562 0.009843412
-0.0019064946 -0.011115778 0.012345379 -0.0016059024 -0.0050481944 -0.00021754566 0.012635963 -0.00017566475

action_model._discrete_distribution.branches.0.bias f4 [3]
00000000: 0000 0000 0000 0000 0000 0000
0.0 0.0 0.0

action_model._discrete_distribution.branches.1.weight f4 [3, 128]
00000000: 8c4d 82bb 080a 8f3b ae8b 91b9 085f 8fb8
00000010: 4b04 dd3b 4763 bdbc 6781 92bb 4f32 8b3a
00000020: 3b26 693c 4a8c ceba f073 2a3c 8494 813a
00000030: 5fba e0bb f4e2 363b 8015 06bc 96c5 4cbc
00000040: 2d9f ec3b 6cdc 163b eb31 b7ba 077d 293b
00000050: 53bc a23b df9b 3e3a 9242 8f3b dff5 6ebc
00000060: 5b38 86ba d3dd bdbb 42bc 5c3a c357 04bc
00000070: 172c 8bbc 9b57 2abc 93b4 11bc 4e5a 28bc
00000080: b207 0fbc b366 853a e3c8 5d3c 8ba8 303c
00000090: b297 cf3b b764 f43b afb9 a73a e57c 59bb
000000a0: ca55 efbb 63f0 26bc 69bd 4b3b e4a3 b23a
000000b0: bf26 a23b 8b51 bc3b f7b2 0a3b 3f24 7fbc
000000c0: d586 95bc f7fe 29bc a81a 0ebc 4264 6bba
000000d0: b2b6 63bb 8250 96bb 9f0f af3b 6300 afbb
000000e0: 7f09 4cbb 570e f3ba ef1e 813b 29ad a23b
000000f0: 4b67 0ebc 6b08 9abb 3f4e 1ebc 063a 263c
00000100: 434e 253b 1f79 cbbb 9863 92bb ca39 e6b9
00000110: dc2e 803c eef3 90b9 a86c 07bc cb64 bd3a
00000120: 1555 823c a71e cabb e71e 39bb e831 d73b
00000130: 166e 9d3b a08a 013c bab9 bc39 c43d a3bb
00000140: 9c5a 323c f2db 0dbd 60f7 88bb 5416 1cbc
00000150: a1b0 013b 2765 703c f22d ac3b 32bd d0ba
00000160: 5527 40bb 587a 5b3c d511 85bc 2b94 81ba
00000170: 20c9 773a d7ab ddbb 2a6c bdbb c3d3 693b
00000180: 6728 d4bb 2015 3ebc 5364 29bc 60c7 2dbb
00000190: 96ad 38bb 4af4 e8bb f3e6 863c ffe8 c5bb
000001a0: f243 8dbb 153d 2b3c 30d6 bd3c 1279 59bc
000001b0: 3e5f b23b b702 12bb 42d5 fbbb a2a2 183c
000001c0: 8a9d d0bb c442 c83b 90d7 5c3b 350b e03b
000001d0: 4bc1 78bb 4665 06ba 763d c1b9 477a f339
000001e0: 5300 133c b8bb 693b 1e61 afbb 1ced 423a
000001f0: 7be7 09bc eecf 44bb afe5 06bb 8de1 e4bb
00000200: 307d 543c cb13 db3b aedd 3bbb ad04 d4bb
00000210: b0e4 9b3c 63da 113c 7840 9dbb c331 8cbc
00000220: 1f24 63bc bbe1 a13b deb9 96bb 8d8e 493b
00000230: ca76 683c 63a1 2fba 0a5b 8ebb f889 563b
00000240: 258d 8f3b 7882 ddbb 66e4 8bbb 8ff9 d13b
00000250: 130b 333a befc 96bb 3359 313c 5eda 06bc
00000260: 1fee 6d3b 42c4 033c 154c 393b 2b68 bbbb
00000270: 270d 4ebc 02c6 e63a 0a4e df3b f7ae 84bc
00000280: 0048 63bb 1747 143c 0c84 22bc 978b bf37
00000290: 5f82 bd3c d56c 713c 07a1 dfbb e22b 483c
000002a0: 5d12 55ba 0dac debb 352d 26bc 6dcc 443c
000002b0: 652a f73b 8a32 daba 0aff f9bb 9a7d 25bc
000002c0: 3474 26bc aaff d6bb 4798 033c 32f3 f0bb
000002d0: a768 a93c 5a8f 783b 10da 04bb 4bea 3f3a
000002e0: ef7d bbb7 7817 e9ba ca23 62bb 5902 2d3b
000002f0: ddda fcbb 1c53 2d3b fa48 38bb 2baa d7bb
00000300: 17c7 63bb 0f3e f33a d32c c9b9 1cfe 9eba
00000310: ba1a 2ebc e073 203b 8bc1 c4b9 b533 c63b
00000320: 1d11 43bc 5199 c4bc 3fd7 f8bb 6d22 5abc
00000330: 3811 fd3b f5cf d73b 1eb6 8b3c 67c4 3a3c
00000340: 7f47 b9ba 4b8a 383c 62ce c63b 0933 123c
00000350: 3e44 1dbb ab98 cbba 23a2 8ebc 1b92 7d3a
00000360: 33ee 8c3b c231 97bc 4208 0abc de1c 30bc
00000370: eda1 2b3c 44b4 ad3c 3962 b8bb d6b2 93bb
00000380: cf05 03bc 74b6 a23b 56a0 c6ba 1a55 9ebb
00000390: e01b e33b 3835 51b9 bf91 303c ed4d 213c
000003a0: bb20 41bb d334 6c3b 4d52 563b e31a 74bc
000003b0: 504a e13a 71dc 24bc 87c3 5cbb 9a0b a13b
000003c0: e3bc 033c 495e 95bb 5051 013b 45e4 663b
000003d0: 97d9 8abb c13e bcb6 9515 f3ba 1a71 083c
000003e0: 1de8 dc3b f7c1 a1ba 1279 66bb 6817 e6bb
000003f0: a020 f6bb 530a 25bc 7bb8 c7bb 9faf f53a
-0.0039765295 0.0043652095 -0.00027760625 -6.836472e-05 0.0067448965 -0.023118628 -0.0044709924 0.0010619852
0.014230306 -0.0015758362 0.010403618 0.000988618 -0.0068581547 0.002790627 -0.008183837 -0.01249828
0.0072211237 0.0023019565 -0.0013976669 0.0025861876 0.0049662977 0.00072711514 0.0043719495 -0.014584987
-0.0010240184 -0.005794266 0.00084203866 -0.008077565 -0.016988797 -0.010396863 -0.00889315 -0.010275437
-0.008729862 0.0010177701 0.013536665 0.010782371 0.006335222 0.007458295 0.0012796427 -0.0033186015
-0.007303928 -0.010189149 0.003108824 0.0013629165 0.0049484666 0.0057470254 0.00211638 -0.015572607
-0.01825277 -0.01037573 -0.0086733475 -0.0008979478 -0.0034746346 -0.004587234 0.0053424384 -0.0053406223
-0.003113359 -0.0018543702 0.003940455 0.00496449 -0.008691619 -0.0047007105 -0.00966221 0.01014567
0.002522365 -0.006209507 -0.004467439 -0.00043912075 0.015647344 -0.00027647562 -0.008265652 0.0014449594
0.01590971 -0.006168205 -0.002824718 0.0065672286 0.004804383 0.007906586 0.0003599653 -0.0049817283
0.010885861 -0.034633584 -0.00417988 -0.009526808 0.0019789117 0.014672554 0.0052545005 -0.0015925525
-0.0029320319 0.013395868 -0.016243855 -0.0009886076 0.0009452272 -0.0067648697 -0.0057807164 0.0035679198
-0.006474543 -0.011601716 -0.010338861 -0.0026516542 -0.0028179637 -0.0071091997 0.016467547 -0.006039738
-0.004311078 0.010451575 0.023173422 -0.013273494 0.0054434827 -0.002227945 -0.0076853344 0.009316118
-0.0063664364 0.0061114747 0.0033697821 0.0068372735 -0.0037957008 -0.0005126785 -0.0003685762 0.00046439675
0.008972245 0.0035664868 -0.0053521534 0.0007435845 -0.008417006 -0.0030031162 -0.002058368 -0.0069848956
0.0129693 0.006685709 -0.0028666067 -0.006470284 0.019029945 0.008902165 -0.004798945 -0.017113572
-0.013863592 0.0049402392 -0.004599794 0.0030755133 0.014188478 -0.0006699769 -0.004344349 0.0032736044
0.0043808394 -0.006759938 -0.0042691706 0.0064079235 0.00068299583 -0.004607766 0.010824489 -0.008230774
0.0036305261 0.008042397 0.0028274108 -0.005719205 -0.012576378 0.0017606618 0.006814723 -0.016196711
-0.0034680367 0.009050152 -0.009919178 2.2833976e-05 0.023133455 0.01473542 -0.006824616 0.012217494
-0.00081280415 -0.0067954124 -0.010142614 0.0120116295 0.0075428956 -0.0016647142 -0.00762928 -0.0101007465
-0.010159541 -0.0065612393 0.008031911 -0.00735321 0.020679785 0.003792724 -0.0020271577 0.0007320984
-2.235078e-05 -0.0017783483 -0.0034506195 0.0026399104 -0.00771652 0.0026447242 -0.002811967 -0.006581565
-0.0034756118 0.0018557924 -0.00038371104 -0.0012130174 -0.010626489 0.002448313 -0.00037528234 0.0060486444
-0.011905936 -0.023998888 -0.0075940187 -0.013313872 0.007723 0.0065860697 0.017054614 0.011399365
-0.0014135687 0.01126344 0.006067083 0.008923301 -0.0023996974 -0.001553317 -0.017411297 0.00096729555
0.0043008565 -0.018456344 -0.00842482 -0.01074907 0.010475618 0.021204121 -0.0056269434 -0.004507403
-0.00799699 0.0049655978 -0.0015153985 -0.0048319222 0.006930813 -0.00019951619 0.010776936 0.009845239
-0.0029468972 0.0036042228 0.0032702864 -0.014898988 0.0017188285 -0.010062323 -0.003368588 0.004914713
0.00804064 -0.004558359 0.0019732304 0.0035231274 -0.0042373645 -5.610142e-06 -0.0018545861 0.008327747
0.0067415372 -0.0012341131 -0.0035167378 -0.007021833 -0.0075112134 -0.010073262 -0.00609499 0.0018744356

action_model._discrete_distribution.branches.2.weight f4 [1, 128]
00000000: bb73 87bc dbbc 98bb 7f33 d23b 2755 34bc
00000010: 3090 713b a536 30bc 67e2 2bbc 12c2 a0bb
00000020: f378 483c ef5d 763c afaa 8d3b 55ea d039
00000030: 67c9 6dbc 4b6c 79bc 6f41 273c ee29 8f3c
00000040: fe60 38bc 65f2 283b 2372 3d3c d8cc 15bc
00000050: 537a 013c 4751 3f3b d28a 573c ba4c 88ba
00000060: 2b92 0fbc d3d6 82bb 37ad 28bc 9be5 04bb
00000070: ed22 6f3b 4abb 6bbb ea5a a43c 97bd de3b
00000080: b712 a6bb 394d 28bb 521b 93bb b776 b83b
00000090: 3078 9d3c 9336 2f3b 8804 61bc 051c 3fbc
000000a0: d912 063b 731a 8c3b d14c 41bc 732f 1fbc
000000b0: 1cb0 8eba 98ad 763c 6836 073c 5f65 8bbc
000000c0: 47b3 82bc 6ff7 b0bb 0b84 6c3c 67b2 433b
000000d0: 7171 1f3c fe17 a6bb 15c0 73bc 8498 1d3b
000000e0: b228 6f3b eec2 bd39 5f73 d83a bfff 873c
000000f0: 0104 0ebc bdd9 85bb b3f5 5b39 87d5 9c3a
00000100: f501 ca3a cbc1 803a 6f62 3ebc 4ffc e83b
00000110: 7848 81bb 9f38 33b9 b0f4 ffbb 37e5 03bb
00000120: 1af4 8639 ece5 913c 7bfb 17bb daa6 f13b
00000130: 8588 e4b9 adbb 893b 604f 8cbc 2f55 803c
00000140: 2d36 2d3c 35af 01bc 7da7 b4bc faf2 cb3b
00000150: c79e c6b9 402f 8abb 914d 05bc 9788 073c
00000160: 5098 0bbc 2c98 96ba 7d5e 2d3a afcb 16ba
00000170: 4bf3 84bb 7561 193b e2b2 2dbc 3c95 403a
00000180: b694 3bb9 b2d4 66bc ebf2 863b d820 4f3c
00000190: d05c dcbb 0fec 3dbb 85e0 16b8 51f0 923a
000001a0: e2bb 58bb 2a62 b03b d4f0 3fbb fcdb 1b3c
000001b0: c30a 3b3c be09 063c 93b1 cd3b 57ae 133c
000001c0: d0ad a2bb fba9 83bc a8ec d43b e763 153c
000001d0: 1fca 1e3b 599c 3e3b a606 99bc 6bd5 e83b
000001e0: db01 85bb 2bf7 e5b9 68e5 543b bdbf 98bb
000001f0: f37d 9cbb 1c4d 313b df1c 333b 5bec 733b
-0.016534677 -0.004661185 0.00641483 -0.01100663 0.0036859624 -0.010755216 -0.01049099 -0.0049059475
0.012235868 0.015037044 0.0043233256 0.00039847443 -0.01451335 -0.015223573 0.010208472 0.017476048
-0.0112535935 0.0025779244 0.011562857 -0.009143077 0.0079026995 0.0029192732 0.013155656 -0.0010398843
-0.0087628765 -0.003992894 -0.010295204 -0.0020278457 0.0036489323 -0.0035969787 0.020062882 0.006797503
-0.005068149 -0.0025680794 -0.004489341 0.0056293863 0.019222349 0.002673541 -0.0137339905 -0.011664395
0.0020458011 0.004275614 -0.0117981 -0.009715903 -0.0010886225 0.015056036 0.008252718 -0.017016111
-0.015954627 -0.00540059 0.014435778 0.0029860975 0.009731636 -0.005068778 -0.014877339 0.0024047205
0.0036492762 0.00036194123 0.0016513875 0.016601441 -0.008667947 -0.0040847943 0.00020976998 0.0011965492
0.001541196 0.000982338 -0.011620148 0.0071101557 -0.0039454065 -0.00017091863 -0.0078111514 -0.0020125636
0.00025740342 0.01780983 -0.0023190666 0.0073746266 -0.00043589264 0.004203281 -0.017127693 0.015665619
0.010571999 -0.007915308 -0.02205252 0.0062240334 -0.000378838 -0.0042170584 -0.008136169 0.008272312
-0.008520201 -0.0011489443 0.0006613506 -0.0005752397 -0.004057323 0.0023404036 -0.010601731 0.00073464564
-0.00017889109 -0.014088796 0.0041183135 0.012642108 -0.0067249313 -0.0028979813 -3.5971887e-05 0.0011210536
-0.0033070971 0.005382796 -0.0029287832 0.009512898 0.01141614 0.008181034 0.006277272 0.009013734
-0.0049645677 -0.016072264 0.006497938 0.009118057 0.002422936 0.002908489 -0.018679928 0.0071055195
-0.004059059 -0.00043862438 0.003248537 -0.004661529 -0.0047757565 0.0027054017 0.002733044 0.0037219736
