results/ppo/ControlCar/ControlCar-1280.onnx (onnx, 78260 bytes, 5 tensors)

network_body._body_endoder.seq_layers.0.weight f4 [128, 11]
000000 28 cd 42 3e 7d 51 4b be ca 6a 0f 3e a1 b3 23 3e
       0.19023573 -0.19855304 0.1400558 0.15986492
000010 52 bc a3 3e 74 c6 9a 3d 70 b9 c5 3e 06 84 9c 3e
       0.31979614 0.07557383 0.3861804 0.30569476
000020 7b f8 b9 3e 7d ad b6 be 64 d3 5a bf ff 2e 6b 3e
       0.36322388 -0.35679236 -0.85478806 0.22967146
000030 95 90 04 3e 65 53 09 3e 21 22 1a be 4b 13 63 3e
       0.12945779 0.13410719 -0.15052082 0.22175328
000040 b8 33 06 bf 3b f5 9a 3e df 4b b5 bd 20 22 40 3d
       -0.52422667 0.3026522 -0.08852362 0.046907544
000050 65 30 87 be f5 5f 8f bd f5 b4 16 be 9c 5f 97 be
       -0.2640411 -0.07000724 -0.14717467 -0.29565132
000060 e0 0e 0b bf d5 19 38 be 4d 8a 5e be 31 b6 bc bd
       -0.5431957 -0.17978604 -0.21732445 -0.09214438
000070 b3 b2 59 bc be d2 1e bc 8a 5c 9d be 67 00 6f 3e
       -0.013287234 -0.0096938 -0.30734664 0.23339997
000080 94 65 3e 3f f1 38 d0 bd 9d fd 9e 3e 53 75 23 be
       0.74373746 -0.10167111 0.31052867 -0.15962724
000090 2e e2 f5 be e9 80 1b 3f 96 af ac be 2d 51 e2 3e
       -0.48024124 0.60743576 -0.3372771 0.44202557
0000a0 a4 24 93 3d d1 d2 ec bd d0 05 2f bd 44 92 cd bd
       0.07184723 -0.115636475 -0.042730153 -0.100376636
0000b0 85 7f 60 be 24 55 55 be c7 88 9b 3e 42 92 29 bf
       -0.21923645 -0.2083326 0.3037779 -0.66238797
0000c0 9f a0 c1 be 4b 91 bb 3e f8 25 34 3e 6c 9c 9d bd
       -0.37817857 0.36634287 0.17592609 -0.07695851
0000d0 2f ba 01 3f 50 79 73 bd b8 ea 74 3b 3c a4 d7 3e
       0.5067472 -0.059441864 0.0037371349 0.42117488
0000e0 5d 84 e5 be 22 10 36 3d cc 17 8c be 5c d5 13 3f
       -0.44827548 0.04444898 -0.27361906 0.57747436
0000f0 7d ff a9 be 7b 58 9c bd 18 5b 86 3d 1d 0d a4 be
       -0.33202735 -0.07634064 0.065603435 -0.32041255
000100 58 ff 08 be 05 69 a2 3e 65 d4 e3 3d ed 71 93 3e
       -0.13378656 0.3172075 0.111244954 0.28797856
000110 a2 8f 90 3e 99 ff 48 3e 9a 81 a2 3e 73 46 8b 3e
       0.28234583 0.19628753 0.31739503 0.27202186
000120 3c f7 05 bd 3d 22 29 3f e7 cc 88 3e e6 60 d6 bd
       -0.032706484 0.6606787 0.26718828 -0.10467701
000130 98 f5 ce bd 53 81 a2 be fa 33 8f be da 53 74 3d
       -0.10105437 -0.31739292 -0.27969342 0.05965028
000140 d0 6f 21 be dc 83 b9 be a0 b5 1a 3e 0f d6 e9 3e
       -0.1576531 -0.36233413 0.15108347 0.45671126
000150 8e 0e 7d 3e 5e d2 2f be 85 f1 81 3d f1 c9 b0 3e
       0.24712583 -0.17170092 0.06344894 0.3452907
000160 ed bb 96 3d 4a 83 18 3f 20 76 09 3e 3b e5 87 bf
       0.07360063 0.5957533 0.13423967 -1.061683
000170 a3 d9 3f 3e 51 a3 bb 3e bb 48 98 3e 51 0d b4 3e
       0.18735366 0.36648038 0.2974299 0.3516641
000180 f8 7c 4c 3d cf 7b ae 3d 83 86 e7 bd d7 b3 e8 bd
       0.049923867 0.08519708 -0.11304953 -0.11362427
000190 50 e6 3d 3e a2 2b 29 3f 78 62 39 bd 81 15 06 3e
       0.18544888 0.66082203 -0.045259923 0.1309414
0001a0 dc b1 88 3e b3 a4 06 3f ff ed b9 3e 12 14 90 bd
       0.26698196 0.5259506 0.3631439 -0.07035078
0001b0 8d 57 fe be 2c b8 52 3e 68 e8 93 bd 31 91 19 3e
       -0.4967617 0.20578068 -0.07222062 0.14996792
0001c0 fc 1b 81 3e dc 75 cd 3e ed 98 67 be 29 92 2b bf
       0.25216663 0.40128982 -0.2261693 -0.670199
0001d0 41 e2 2d bd a7 04 38 3e ae b1 e2 be 35 08 e9 bb
       -0.0424521 0.17970525 -0.44276184 -0.007111574
0001e0 5b 6b 09 3d e8 71 d3 bd e3 c6 bb be 92 e9 80 bd
       0.033549648 -0.1032446 -0.36675176 -0.0629455
0001f0 19 1b 86 bd 88 3e 2c 3e fd 25 f9 be 3c fe cc 3e
       -0.06548137 0.16820729 -0.48661795 0.40037715
000200 c8 b7 db bd 89 4f 94 be dd 4e 82 be f4 db 89 be
       -0.10728413 -0.2896693 -0.25450793 -0.26925623
000210 ae c9 9d 3e fe a6 e8 3e 90 6e 1a 3e f3 6c 83 3e
       0.30817932 0.45439905 0.15081239 0.2566906
000220 41 e2 f0 3e 6c 5c 10 be 0c a4 9e 3e 0e a5 ab 3d
       0.47047618 -0.14097756 0.30984533 0.08381091
000230 ed d2 15 be fe aa a1 be 45 ad c3 bd 5f ef ec 3d
       -0.14631243 -0.3157577 -0.09554533 0.11569094
000240 a9 50 cb be 8f 5f 41 be 62 09 3e 3f fa 4b 71 3e
       -0.39709976 -0.18884109 0.7423307 0.23564139
000250 93 3d c4 3c 4c e7 c4 be 94 28 b1 3c af 0d f8 b8
       0.023955142 -0.38457716 0.021625794 -0.0001182811
000260 de af 06 be eb 7b 9e bd 7e 0d a5 3e d3 89 ed 3e
       -0.13153026 -0.07738479 0.32236856 0.46394214
000270 71 b8 5b bd 0a 88 0a 3e a9 60 83 bc b2 a4 b3 be
       -0.053642694 0.13528457 -0.016037302 -0.3508659
000280 62 db a5 bd 41 4f d0 be 54 14 1a be 8f dc 4c 3e
       -0.080984846 -0.40685466 -0.15046817 0.20006011
000290 de 68 56 3e 7b 3e 9b be b4 c6 5c 3e 8a 75 a5 3d
       0.20938441 -0.30321106 0.21560174 0.080790594
0002a0 99 d3 b2 3e cc 33 9e be d0 56 ec bc 24 1d e4 3e
       0.3492706 -0.30898893 -0.02884999 0.44553483
0002b0 bd ad 26 be f1 f6 8a 3d a1 af e2 be 3a a0 8e 3e
       -0.16277213 0.067853816 -0.4427462 0.27856618
0002c0 06 0c d0 bd ca 3f b0 bc 74 e2 1d 3e fa 9a 67 be
       -0.10158543 -0.021514792 0.15418416 -0.22617713
0002d0 ba 9b 5a be ad 88 f6 3d 42 3f 48 3f c0 82 87 be
       -0.21348467 0.120377876 0.78221524 -0.26466942
0002e0 da b1 8a bd 7a ac ee 3d a0 ad 8e bd 4e 06 0b be
       -0.06772204 0.11653991 -0.0696671 -0.13576624
0002f0 12 6d 11 3e 30 48 ff be 9a 73 80 be 5d 45 53 3e
       0.14201763 -0.49859762 -0.25088197 0.20631929
000300 fb a9 7c 3e 1d 8f dd 3e de dc 1e 3d 89 74 4e be
       0.24674217 0.4327325 0.038784854 -0.20161642
000310 3c d4 95 be b6 97 4e 3d a5 2e 9d bd 86 8c 92 be
       -0.29263484 0.05043765 -0.07674912 -0.28622836
000320 00 bc 7a 3d 61 91 d4 be 04 f7 93 bd ac 15 d0 bd
       0.061214447 -0.41517165 -0.07224849 -0.101603836
000330 9b 73 e9 3e 2b 0a e8 b9 eb 91 1d 3f e7 20 2c bd
       0.45596012 -0.00044258064 0.6155078 -0.042023566
000340 bc d4 14 bf 1f 5d 23 be 1b f8 30 be 0a 2c 28 be
       -0.58137107 -0.15953492 -0.17282145 -0.1642305
000350 42 90 19 bf f0 a2 80 3d 1a d4 ef bd e6 61 bb 3c
       -0.59985745 0.06281078 -0.11710377 0.02287383
000360 03 27 b6 3e cb de d6 3e 0f 75 0e bd 86 6e 12 3c
       0.3557664 0.41966853 -0.034779605 0.008937484
000370 0a b5 ae 3d 0e 3a d3 3d 67 b0 09 3e 0a 7d 15 be
       0.08530624 0.103138074 0.13446198 -0.1459848
000380 f5 22 76 3e b2 a8 03 bd 49 29 c4 be e1 3e cc 3d
       0.24036773 -0.032143302 -0.38312748 0.09972931
000390 e0 aa fc bd 8b 5a a4 bd bb ea 3a bf c8 4c ba 3d
       -0.12337279 -0.08025082 -0.7301442 0.09096676
0003a0 2d 48 c7 be be e6 a1 bd 40 18 26 bd 17 ea 0c be
       -0.38922253 -0.07905339 -0.04055047 -0.13761173
0003b0 7e 48 0f 3e 1c 5c e3 be d2 3e ed 3e d4 f4 79 be
       0.13992497 -0.4440621 0.4633699 -0.24409801
0003c0 25 1c d4 3e 9b ed 87 3d 49 f4 e2 bc cb 02 8c 3e
       0.41427723 0.066371165 -0.027704375 0.2734588
0003d0 c6 d5 83 be 7e 5d 00 be 20 7b 16 3e 72 ca 79 be
       -0.25749034 -0.12535664 0.14695406 -0.24393633
0003e0 2a ce 47 be 0e 1d db bd 92 21 dd 3d 45 58 31 3e
       -0.19512239 -0.10698901 0.10797419 0.17318828
0003f0 4b 04 10 3c 93 09 25 bc bc 43 31 3e 89 8c c3 3e
       0.008790086 -0.010073083 0.17310995 0.38193157

network_body._body_endoder.seq_layers.0.bias f4 [128]
000000 00 00 00 00 00 00 00 00 00 00 00 00 00 00 00 00
       0.0 0.0 0.0 0.0
000010 00 00 00 00 00 00 00 00 00 00 00 00 00 00 00 00
       0.0 0.0 0.0 0.0
000020 00 00 00 00 00 00 00 00 00 00 00 00 00 00 00 00
       0.0 0.0 0.0 0.0
000030 00 00 00 00 00 00 00 00 00 00 00 00 00 00 00 00
       0.0 0.0 0.0 0.0
000040 00 00 00 00 00 00 00 00 00 00 00 00 00 00 00 00
       0.0 0.0 0.0 0.0
000050 00 00 00 00 00 00 00 00 00 00 00 00 00 00 00 00
       0.0 0.0 0.0 0.0
000060 00 00 00 00 00 00 00 00 00 00 00 00 00 00 00 00
       0.0 0.0 0.0 0.0
000070 00 00 00 00 00 00 00 00 00 00 00 00 00 00 00 00
       0.0 0.0 0.0 0.0
000080 00 00 00 00 00 00 00 00 00 00 00 00 00 00 00 00
       0.0 0.0 0.0 0.0
000090 00 00 00 00 00 00 00 00 00 00 00 00 00 00 00 00
       0.0 0.0 0.0 0.0
0000a0 00 00 00 00 00 00 00 00 00 00 00 00 00 00 00 00
       0.0 0.0 0.0 0.0
0000b0 00 00 00 00 00 00 00 00 00 00 00 00 00 00 00 00
       0.0 0.0 0.0 0.0
0000c0 00 00 00 00 00 00 00 00 00 00 00 00 00 00 00 00
       0.0 0.0 0.0 0.0
0000d0 00 00 00 00 00 00 00 00 00 00 00 00 00 00 00 00
       0.0 0.0 0.0 0.0
0000e0 00 00 00 00 00 00 00 00 00 00 00 00 00 00 00 00
       0.0 0.0 0.0 0.0
0000f0 00 00 00 00 00 00 00 00 00 00 00 00 00 00 00 00
       0.0 0.0 0.0 0.0
000100 00 00 00 00 00 00 00 00 00 00 00 00 00 00 00 00
       0.0 0.0 0.0 0.0
000110 00 00 00 00 00 00 00 00 00 00 00 00 00 00 00 00
       0.0 0.0 0.0 0.0
000120 00 00 00 00 00 00 00 00 00 00 00 00 00 00 00 00
       0.0 0.0 0.0 0.0
000130 00 00 00 00 00 00 00 00 00 00 00 00 00 00 00 00
       0.0 0.0 0.0 0.0
000140 00 00 00 00 00 00 00 00 00 00 00 00 00 00 00 00
       0.0 0.0 0.0 0.0
000150 00 00 00 00 00 00 00 00 00 00 00 00 00 00 00 00
       0.0 0.0 0.0 0.0
000160 00 00 00 00 00 00 00 00 00 00 00 00 00 00 00 00
       0.0 0.0 0.0 0.0
000170 00 00 00 00 00 00 00 00 00 00 00 00 00 00 00 00
       0.0 0.0 0.0 0.0
000180 00 00 00 00 00 00 00 00 00 00 00 00 00 00 00 00
       0.0 0.0 0.0 0.0
000190 00 00 00 00 00 00 00 00 00 00 00 00 00 00 00 00
       0.0 0.0 0.0 0.0
0001a0 00 00 00 00 00 00 00 00 00 00 00 00 00 00 00 00
       0.0 0.0 0.0 0.0
0001b0 00 00 00 00 00 00 00 00 00 00 00 00 00 00 00 00
       0.0 0.0 0.0 0.0
0001c0 00 00 00 00 00 00 00 00 00 00 00 00 00 00 00 00
       0.0 0.0 0.0 0.0
0001d0 00 00 00 00 00 00 00 00 00 00 00 00 00 00 00 00
       0.0 0.0 0.0 0.0
0001e0 00 00 00 00 00 00 00 00 00 00 00 00 00 00 00 00
       0.0 0.0 0.0 0.0
0001f0 00 00 00 00 00 00 00 00 00 00 00 00 00 00 00 00
       0.0 0.0 0.0 0.0

network_body._body_endoder.seq_layers.2.weight f4 [128, 128]
000000 ce 90 80 bd 01 41 90 3d a6 e5 29 3e ec 86 ff bd
       -0.06277619 0.070436485 0.1659151 -0.12476906
000010 27 8e fd 3c 55 f4 b8 3b bc 60 b3 bc 09 a8 42 bd
       0.030951573 0.005644361 -0.021896712 -0.047523532
000020 02 36 3d 3e 38 87 9d bb 72 03 97 bc 6b 4e 3a bd
       0.18477634 -0.004807379 -0.01843426 -0.04548494
000030 79 ae 90 bd ce 2d 1e 3d c0 52 52 3e 9b fe 64 bc
       -0.07064528 0.0386179 0.20539379 -0.013976718
000040 13 7a 91 3d 9b ff 43 3c 78 b1 d4 3d 4d 51 5c 3d
       0.07103362 0.011962797 0.10385412 0.053788472
000050 55 2a c4 3d d9 15 a6 bd 6b 7a cb bd 8a 16 b2 3c
       0.09578387 -0.08109636 -0.09935459 0.021739263
000060 24 b1 58 3d a2 a6 18 be 7e 44 e3 3c 57 60 52 bd
       0.05290331 -0.14907315 0.02774262 -0.051361408
000070 24 f0 78 3c 13 f9 36 3d 4b ce 64 bd 98 b3 43 bd
       0.015193973 0.04467113 -0.0558608 -0.047778696
000080 8f 85 e7 3a 20 a1 57 3b 0e 61 17 3e ac 69 57 bd
       0.0017663705 0.0032902434 0.14783117 -0.05259101
000090 83 d3 9c bd 12 a5 cb bc f0 6f 48 3d 3c 93 e0 bd
       -0.0765753 -0.024858985 0.048934877 -0.10965583
0000a0 d0 41 ad 3b 8d a6 90 bc 71 ed cf 3d 4f b7 d1 ba
       0.0052873865 -0.017657543 0.1015271 -0.0016000065
0000b0 8a 37 0f 3d a4 58 9e bd 25 b0 ec 3b d0 7a e8 bd
       0.034965076 -0.077317506 0.0072231465 -0.113515496
0000c0 48 49 bc bd d8 d3 93 bd a4 7e 59 bd 4a 1e 04 3c
       -0.09193665 -0.0721814 -0.05309929 0.008063862
0000d0 ac f1 98 bd bf db 7b 3c 51 e1 a0 3d 59 d7 ac 3d
       -0.0746797 0.015372216 0.07855476 0.08439512
0000e0 18 1c d1 3d e3 7b 96 bc aa 50 ec bd e9 d9 a6 3d
       0.102104366 -0.01836962 -0.11538823 0.08147032
0000f0 1e 9b d3 3c 5a 29 87 bd 9b fc 0f 3c a4 e1 bd 3d
       0.025830802 -0.06599684 0.008788253 0.09271553
000100 52 39 8c bc 5b 41 29 3c 51 a1 26 3d 73 7a 12 3d
       -0.017117176 0.010330523 0.040681187 0.035761308
000110 36 bc a1 bd 34 44 53 3b 78 34 16 bd 11 31 29 be
       -0.078972265 0.0032236697 -0.03667113 -0.16522624
000120 16 b3 92 bb da 52 47 3d 26 db 8b be b5 f5 80 bd
       -0.004476915 0.048662998 -0.27315634 -0.06296865
000130 ed dd f7 bd bc 8a 28 3c 78 d3 63 bd 06 d5 0b 3d
       -0.12102876 0.010286983 -0.055621594 0.0341387
000140 75 05 f2 3d bf 5f 74 3e b2 41 26 be 87 a7 17 3e
       0.11817447 0.23864649 -0.16235998 0.1481
000150 8a e6 3d 3e 39 60 26 bd 94 19 3d be 1f 82 77 3d
       0.18544975 -0.04061911 -0.18466789 0.060426828
000160 82 2b 29 bd 3a 6d 1e bb 9b 8b a4 3d 13 91 0c be
       -0.041301258 -0.002417399 0.0803444 -0.13727216
000170 0f ab cb 3d 12 11 cf bd d6 f6 15 bd a8 59 5b 3e
       0.09944736 -0.10110678 -0.036612354 0.2142092
000180 93 3c 8c 3e 4f ba e9 bb f0 91 be 3d c1 0f 83 3e
       0.27389964 -0.0071328054 0.09305179 0.25597957
000190 47 74 e6 3d 00 ed 6c be da 97 83 bc 1f 6d 4d 3d
       0.11252647 -0.23137283 -0.01606362 0.050152894
0001a0 50 9e 31 bd 54 aa 71 3d c8 dc 3f 3e d2 51 cb 3d
       -0.04336387 0.05900033 0.18736565 0.09927715
0001b0 d9 b0 63 bd b3 7d a8 bd 36 12 2c be 5d 63 59 3e
       -0.055588577 -0.082271 -0.16803822 0.2122931
0001c0 cc 63 19 bd ec 2f 57 3e f1 c9 a1 3d c3 62 4c bd
       -0.03744869 0.21014374 0.078998454 -0.049898874
0001d0 1f aa 72 bb 17 68 a0 bd 95 b9 30 bc a0 e0 08 be
       -0.003702767 -0.078323536 -0.010786434 -0.13366938
0001e0 c2 fd 5c 3d bf 3a 1c bd 64 fc 6a bc 1d 02 58 bd
       0.05395294 -0.038141962 -0.014342401 -0.05273639
0001f0 dd d1 fd 3d 4a 34 11 bd 17 b1 7f 3d 12 15 f4 bd
       0.12393544 -0.035450257 0.062424745 -0.11918081
000200 7c eb b4 3c fd f4 31 bd 19 7c c9 bc 1c d5 26 bd
       0.022084944 -0.04344653 -0.024595307 -0.04073058
000210 a7 8c cb bd 0a 52 33 bd 34 4b 28 3d d7 49 c6 3d
       -0.09938937 -0.04377941 0.041087344 0.096820526
000220 de 4e f0 3d 2e c9 6b 3d be e8 1c 3e 1e 52 b5 3d
       0.11733793 0.057564907 0.15323159 0.08853553
000230 05 2b 9c bc 0a 12 8e bc e7 b3 91 3d 6b a8 6f 3d
       -0.019063482 -0.017342586 0.07114392 0.058510225
000240 43 89 c6 3d 8d 30 5c bc c3 50 0a 3c 8c 32 83 bd
       0.09694149 -0.01343931 0.008442107 -0.064061254
000250 7a 07 c5 bd dc 23 c3 bd c2 5c a7 3d 2b d2 2c 3e
       -0.09620567 -0.09528324 0.08171989 0.16877048
000260 83 09 c1 3d e9 df a7 bb 02 c6 ff 3d b9 ea 6d 3e
       0.09425642 -0.0051231277 0.12488939 0.23234071
000270 f2 54 c9 bc 6e e6 ca 3c 7e 01 29 3d 70 ec 35 be
       -0.024576638 0.02476808 0.04126119 -0.17765975
000280 02 ba 30 3e 72 75 46 3d 4f 61 fd 3c 02 99 bc 3d
       0.17258456 0.04845185 0.03093019 0.092088714
000290 2a 26 58 bd c3 75 81 3e ed 27 2e be 2d 96 99 bd
       -0.05277077 0.25285158 -0.17007418 -0.07499347
0002a0 fc 91 27 3d 1a a4 5a 3c f8 2c b4 bd b0 56 1c be
       0.040910706 0.013344789 -0.087976396 -0.15267444
0002b0 a9 78 6b 3d d9 12 56 bd 1d 75 6a 3d 50 63 1d bd
       0.057488117 -0.05226407 0.057240594 -0.03842479
0002c0 02 1e 1c bd eb 35 8e 3d 77 97 a7 3c 4e aa fa 3d
       -0.038114555 0.06943878 0.020457966 0.12239514
0002d0 dc 50 89 bd 0d 0b 22 be 5b 4a 96 3e fe fa 8b bd
       -0.06704876 -0.15824528 0.29353604 -0.06834982
0002e0 d4 06 8b 3b 52 1d b1 bd 2f 44 fd bc 8f 1c 9f bd
       0.0042427573 -0.086481705 -0.030916302 -0.07769119
0002f0 b7 ff 8f 3d d6 ee f3 bd ee 55 a0 3b 6b 89 57 3d
       0.070311956 -0.11910789 0.004893056 0.052621286
000300 23 ad 64 bd d3 d5 02 be a5 6a 2c bd 0e 44 84 3c
       -0.05582918 -0.1277688 -0.04209389 0.016145732
000310 cb 25 ab 3d 0d 6f 83 bc 08 57 54 3d e7 d7 0b bc
       0.08356818 -0.016044164 0.051840812 -0.008535362
000320 fa 7e 7e bb 5c 8c 00 3d 85 b0 87 bd df 17 4d 3d
       -0.0038833008 0.031383857 -0.06625465 0.050071593
000330 f0 4a e8 3d 80 b6 b3 bc 07 90 94 ba 39 17 1c 3e
       0.11342418 -0.021937609 -0.0011334427 0.15243234
000340 13 5e d6 bb d6 15 21 3d 91 14 1d 3d 46 18 0f 3e
       -0.0065419762 0.039327465 0.03834969 0.13974103
000350 7a 89 8d 3c 7e 71 01 3e 44 3b 54 bc 23 05 21 3e
       0.017277468 0.1264095 -0.012953583 0.15724616
000360 11 98 28 bc 80 8f f8 3d 09 f5 e2 bd 33 09 63 bd
       -0.010290162 0.121367455 -0.11081893 -0.055428695
000370 b4 7f 47 3e eb ec 68 bd 84 4f b5 bc a0 ff 1c 3d
       0.19482309 -0.056866568 -0.022132643 0.03832972
000380 44 47 30 3e 1a 3a 54 3b 5e af dd bc 86 3b 96 3d
       0.17214686 0.0032383264 -0.02706116 0.07335572
000390 47 aa cf 3d c1 3c 92 3b 3c ee f1 3c 66 c2 5d 3e
       0.101399 0.004462809 0.029532544 0.21656188
0003a0 46 c1 a3 bc bd d9 a5 bd 36 96 95 3d 4c 33 8d bc
       -0.01998962 -0.08098171 0.07304041 -0.017236374
0003b0 7d 31 a0 3d fa 25 13 3d 55 2a 78 3d 73 3a 31 be
       0.07821939 0.03592489 0.060587246 -0.17307453
0003c0 72 8c 50 3e e2 a2 26 3d 01 02 49 3d de a2 69 bc
       0.20366076 0.04068268 0.049074177 -0.014260022
0003d0 59 62 f6 bd 8b 38 a5 3d b2 72 4a bc 1f 77 78 3c
       -0.12030477 0.08067425 -0.012356447 0.015165119
0003e0 9f 1b 01 3c 4c f3 ef 3c dd ea f5 3c da 31 34 3d
       0.007880121 0.029290818 0.030019218 0.043992855
0003f0 37 6f 01 3d 74 66 82 bd 34 12 52 3d 58 2c 84 bc
       0.031600203 -0.06367198 0.05128689 -0.016134426

action_model._discrete_distribution.branches.0.weight f4 [3, 128]
000000 48 f6 fb ba 31 3a 96 bb 72 00 b3 ba 1c f2 99 bb
       -0.0019223178 -0.0045845737 -0.0013656749 -0.004698051
000010 70 d7 8a 3b 83 57 20 3b 23 9b d1 3b 40 ce 62 b9
       0.004237108 0.0024466224 0.0063966676 -0.00021629874
000020 8d e9 83 bb 70 7a de bb 8c 80 c7 3b d9 23 1f ba
       -0.004025644 -0.006789498 0.006088322 -0.00060707104
000030 b7 cb d3 bb d2 69 fb 39 65 04 81 bc aa 70 e0 3c
       -0.0064634937 0.00047953293 -0.015749166 0.027397472
000040 98 98 13 bc 86 41 8c bb 30 b1 e4 bb e3 27 20 bb
       -0.009008549 -0.004280272 -0.00697913 -0.0024437837
000050 b7 b1 c0 3a 2f 41 9c 3c b3 ac 6a 3c 53 fa 60 bb
       0.0014701401 0.01907405 0.014323401 -0.0034328892
000060 c4 52 07 3c 1e d1 b2 3b 0b b1 f4 3a 22 f2 fc bb
       0.008259479 0.0054570576 0.0018668486 -0.007719294
000070 48 4f e9 3b 23 4c f6 ba ba 5a ee 39 2a 59 7a bc
       0.0071200468 -0.0018791001 0.00045462494 -0.015280047
000080 bb bb 48 3c 3d cf 4e bb 77 c7 1e bc b9 e8 20 3c
       0.01225179 -0.003155663 -0.009691111 0.00982111
000090 dc f4 85 3b 2f c6 a0 3b ff f7 c2 bb 8d f0 f0 3b
       0.0040880274 0.004906438 -0.0059499736 0.0073528946
0000a0 e8 66 8d 3c 1b 0b fd 3b bd 34 90 bc b9 33 0b 3d
       0.017260984 0.007722271 -0.017603273 0.033984873
0000b0 40 24 d0 39 7f e8 b3 3b 9f 54 94 3c 5b 07 99 3b
       0.0003969986 0.005490362 0.018106757 0.0046700663
0000c0 b3 d4 69 3a 1b 6f e9 bb 6a 7a ac 3b fe c0 8e 3a
       0.0008919939 -0.0071238405 0.0052636163 0.0010891256
0000d0 a4 9b 0f 3c 2d 88 10 bc 95 d5 91 3b 35 a4 07 bb
       0.008765135 -0.008821529 0.00445051 -0.002069724
0000e0 c3 4b 01 bc 0e 49 be bb 2a 57 63 3c 44 a7 45 3c
       -0.007891598 -0.0058070486 0.013875762 0.012063805
0000f0 6b c7 da bb e7 5a 89 3c ad 40 1a bc 8f 1c d4 bb
       -0.0066766045 0.016766978 -0.009414834 -0.006473131
000100 67 89 db 3b f8 3d 03 b9 a7 67 d9 3a 49 5f 18 3b
       0.0066997292 -0.00012516219 0.0016586677 0.0023250154
000110 71 9e bd bb bf 5a 94 3a 73 13 8a 3b d3 4d fb 3b
       -0.00578671 0.0011318548 0.0042137443 0.0076691895
000120 43 e8 f6 3b e6 c7 b7 bb ef 98 95 3b 95 f8 d7 3b
       0.007535012 -0.0056085465 0.0045653502 0.0065909126
000130 1b c5 0c bc 53 dd 89 3b de 56 2c 3c e4 15 0f bb
       -0.0085919155 0.004207292 0.010518758 -0.0021833116
000140 02 c7 a1 ba eb f4 36 3c 7f 6f b9 3b 00 ee 12 bc
       -0.0012342634 0.011166791 0.0056590433 -0.008967876
000150 63 10 bb 39 6a 80 e9 3b b2 9e d9 3c 35 93 d1 bb
       0.00035679628 0.007125904 0.02656493 -0.0063957223
000160 dd 3e db bb e4 5d 30 bb ba 38 64 bb 06 f7 31 b9
       -0.0066908435 -0.0026911432 -0.003482385 -0.00016972059
000170 7b e0 f9 39 37 67 82 3b a8 d0 4d bc 3a 1c 97 bc
       0.00047660232 0.0039795893 -0.012561955 -0.018446077
000180 40 42 7d 3c 20 17 77 bc 7a 68 e1 3c 8f 58 3c 3c
       0.01545769 -0.015081197 0.027515639 0.011495723
000190 40 fc 28 3a ed 70 35 3c df 86 cb bb 2c 40 8f bb
       0.00064462796 0.011074287 -0.0062111462 -0.0043716636
0001a0 bb c1 11 3c bb af c0 3a 2f da 1c ba 7a d0 18 3c
       0.008896287 0.0014700809 -0.00059834396 0.009327048
0001b0 87 f5 10 bc 08 06 f5 3b 5f 51 89 3c 25 d5 03 bc
       -0.008847601 0.0074775256 0.016762434 -0.008046423
0001c0 0f 90 57 3b df 25 ed bb 18 e5 30 bc 32 71 6f bc
       0.0032892262 -0.0072371806 -0.010796808 -0.01461439
0001d0 87 60 4b 39 7c 82 81 3b ea db db bb 8d dc bb 3b
       0.00019395548 0.0039523225 -0.0067095654 0.005733079
0001e0 df 8a db 3a a2 22 44 bc 2d 02 18 bc ab 8d b7 3b
       0.0016749761 -0.011971148 -0.0092778625 0.005601605
0001f0 cd e6 d5 3a 83 ed a7 3a ef 93 82 3b 16 bc a0 3c
       0.0016319394 0.0012811873 0.00398492 0.019620936
000200 0c c6 a5 bc 3b 86 40 3c ee 99 0f bc a1 55 bd 3c
       -0.020236038 0.011750753 -0.008764727 0.02311212
000210 3b 10 32 bc 60 d0 fd 3b 17 b2 ef ba 92 b1 e5 bb
       -0.010868127 0.0077457875 -0.0018287328 -0.0070096934
000220 1b 96 10 3c 93 c5 77 3b a1 1b b0 bb ad 91 db 3a
       0.00882485 0.0037806972 -0.0053743874 0.0016751789
000230 0b a4 0d 38 e7 49 a2 bc c4 48 8e bb 1b 1a 0b bb
       3.3769797e-05 -0.01981063 -0.0043421704 -0.0021225277
000240 e8 33 d7 bb ae 53 29 bc 9f ed e7 3b 50 69 51 bb
       -0.006567467 -0.010334892 0.007077887 -0.003195364
000250 0d ac 17 3b 92 8d fb bb 18 9d bd bb 73 7b 7e bb
       0.0023143322 -0.0076767886 -0.0057865493 -0.0038830906
000260 11 60 39 3c ff dd 6e bc 74 9f 39 bb 4b 9d c1 bb
       0.011314408 -0.014579295 -0.0028323801 -0.0059086434
000270 73 86 10 bc b7 d0 af bb 9d 20 b9 3a 8e 87 05 3c
       -0.008821118 -0.005365457 0.0014124099 0.008149995
000280 53 55 25 bb 88 4a 13 bc c8 1d 57 bc dd 3b 3f 3c
       -0.002522786 -0.008989938 -0.013129659 0.011671987
000290 e3 e7 d8 ba 93 b9 70 bc 18 6b b6 bb 03 ad 52 bb
       -0.00165486 -0.014692682 -0.005566966 -0.003214658
0002a0 78 5e 0f bc f0 dc d9 ba b7 df b1 3b a6 e2 1c bc
       -0.00875055 -0.0016621631 0.00542828 -0.009575522
0002b0 a0 5f cf 3b 9f e5 02 bc 75 ef 45 bb dd f9 bc 3b
       0.006328538 -0.007989316 -0.0030202542 0.0057670907
0002c0 d3 77 3d bc 63 23 54 3b 80 fa ac 3b be 55 81 3b
       -0.011564213 0.0032369725 0.0052788854 0.003946989
0002d0 a8 3d ec 3c a5 4e 16 bc 8c 48 12 ba 7c 63 96 bb
       0.028837994 -0.009174024 -0.00055802683 -0.004589496
0002e0 6b b2 6a bc a5 eb d5 bb d3 d3 65 3b ae ff 8d bc
       -0.014324765 -0.006528335 0.0035068884 -0.017333832
0002f0 3f 55 0a bc 65 88 f4 ba 17 ab b7 bb cd 90 09 3c
       -0.008443176 -0.0018656371 -0.0056051123 0.00839634
000300 b9 4c 10 3c e0 5e 53 bc e6 58 19 3b 0b 44 42 bc
       0.008807355 -0.012901038 0.0023398935 -0.011857043
000310 72 2e 40 bb 35 3a 13 bc 61 4e 0c bc 8a fe 61 3b
       -0.0029324559 -0.008986046 -0.008563609 0.0034483992
000320 d5 b8 fd 3a 32 0f d1 3b bc a2 bd b9 46 39 08 bc
       0.0019357452 0.0063799853 -0.00036170136 -0.008314436
000330 bf 11 46 bb 81 57 3a 3c fd 73 d8 bb 87 59 5c bb
       -0.003022298 0.011373402 -0.0066056238 -0.0033622698
000340 63 04 59 3c f3 0b 47 3c 8e 44 26 3c bd 32 86 bc
       0.013245675 0.012148845 0.010148181 -0.016381616
000350 7e 7d a4 3b ac 8a c6 3a d5 8d 6e 3b d3 59 22 3b
       0.0050198426 0.0015147529 0.0036400456 0.0024772778
000360 02 83 09 3b f3 40 fa 3b d8 d5 17 3c a4 04 9d 39
       0.0020982628 0.007637137 0.009267293 0.0002994883
000370 6e 4e c9 ba 75 d6 7f bb 9e 41 9d 3b 2f 54 8d bb
       -0.0015358457 -0.0039037738 0.004799082 -0.004313014
000380 d8 20 2b bc e3 74 e9 3b 9a 2f 9d bb dd 89 a2 bb
       -0.010444842 0.0071245297 -0.0047969343 -0.0049602822
000390 34 79 2e 3c cf 76 e0 bb 50 70 df 3b 0e d7 81 bc
       0.010649014 -0.0068501006 0.0068188086 -0.015849616
0003a0 c7 a4 2e 3c d0 b3 9f 3b b3 58 da 3b a5 17 33 bc
       0.010659403 0.0048737302 0.006663406 -0.01093093
0003b0 b7 45 81 bb 9f 15 f8 3b cf cc d7 b9 42 00 fd 3b
       -0.0039450782 0.007570937 -0.0004116059 0.007720978
0003c0 0e 92 1e bb 9f 1b f5 3b cf 0b 5a 3a 70 18 21 3c
       -0.0024195942 0.0074800993 0.00083177997 0.0098324865
0003d0 a2 b5 97 3a cd 60 69 bc 79 16 ab 38 5d 79 0c 3c
       0.0011574517 -0.0142442705 8.158101e-05 0.008573857
0003e0 30 d7 a4 3c 21 ac c0 37 ff 0e 63 3c 8d c9 78 3b
       0.02012214 2.2968337e-05 0.013858556 0.003796193
0003f0 bc 3b 44 3c dd e6 76 bb 83 52 36 3c db b6 b0 3a
       0.011977132 -0.0037674226 0.011128071 0.001348223

action_model._discrete_distribution.branches.0.bias f4 [3]
000000 00 00 00 00 00 00 00 00 00 00 00 00
       0.0 0.0 0.0
