results/ppo/ControlCar/ControlCar-11970.pt (torch, 453156 bytes, 43 tensors)

discrete_act_size_vector f4 [1, 3]
3.0 3.0 1.0
00000000: 0000 4040 0000 4040 0000 803f

network_body._body_endoder.seq_layers.0.weight f4 [128, 6]
-0.48248574 0.10272179 0.13632683 -0.04136283 0.29722324 -0.38659796 -0.13940229 0.09117523
-0.35229704 -0.1921673 -0.2731865 -0.2215437 0.1990537 0.0068740523 0.023387425 -0.49968785
-0.45887357 -0.018286007 -0.3118871 -0.547697 0.5328354 0.08119089 0.5985829 -0.61099374
0.09569532 -0.27148962 -0.4193401 0.9989686 0.54312 0.67673576 -0.43571684 0.14589629
0.14066006 0.46275932 -0.38746253 0.930888 0.16662084 -0.6117373 -0.5024576 -0.2988
-0.77395886 0.49958947 0.14799246 0.28707212 -0.11575504 0.10265062 -0.77057666 0.35309136
-0.64423674 -0.24978319 0.2464299 -0.6328942 -0.38575146 0.049697153 -0.44989184 -0.4939479
-0.45466894 0.673913 -0.15520796 -0.13774163 -0.39163402 0.7405789 -0.22933862 -0.041783277
-0.15361927 -0.13722292 0.40773645 0.16270065 0.49372604 0.18279463 -0.5579895 0.39230043
0.093699716 0.1365223 0.3469953 0.81428295 -0.34311736 0.86464655 0.05082931 0.29802102
0.14146872 0.5864681 -0.2692012 -0.12916288 -0.7384916 0.5738935 -0.29611963 -0.5705847
0.21997756 0.677362 -1.3754333 0.24879277 0.49899432 0.6003889 0.87447584 0.14172864
-0.032912053 0.633328 -0.061520062 0.42729214 -0.13267408 0.3189316 -0.124069355 -0.3240542
-0.23927303 0.3417804 0.27633002 0.7717763 -0.03624378 -0.18311873 -0.53714883 -0.80772805
-0.6179224 -0.0062727835 0.024370654 0.137005 0.4084187 0.46345276 0.49389642 -0.1625012
-0.22037143 1.0883012 -0.09092487 -0.50745475 -0.043089323 0.014830184 -0.06263328 0.33499223
-0.03197661 -0.12736444 0.3464651 0.000794848 0.03338631 0.5754904 0.076646686 -0.066765085
-0.7238848 0.76039505 0.46849558 0.021115972 0.13765666 0.35234052 0.2247956 -0.41173542
-0.020460738 -0.35732862 0.9532564 0.14361678 -0.12806818 -0.29502475 -0.11988618 0.06258315
0.5091001 -0.02287219 0.177691 -0.23840234 -0.023173258 0.841963 0.11276644 -0.091398306
0.18302216 0.14435393 0.054158937 0.022614518 0.4563656 -0.19369958 -0.20741795 0.39539537
0.3872187 -0.11066073 -0.114602275 0.124972455 0.78691065 0.32954717 0.022899333 -0.5711006
-0.3457713 0.5008035 -0.20539366 -0.7287834 0.5328832 -0.2946161 -0.19444034 -0.48005533
-0.21623665 0.15044053 0.77634287 0.115189984 -0.3398594 0.5019264 -0.30235422 -0.86282057
-0.33453694 -0.7443692 0.0033074147 -0.36427763 -0.45190492 -0.5516046 -0.12500015 -0.20459948
0.10386562 -0.3969621 0.20217513 -0.53206956 -0.39143148 -0.5455587 -0.54956704 -0.13120095
-0.06638372 0.31409487 0.648963 0.6550768 0.13287178 0.31601378 0.28307226 -0.06526066
0.82709044 -0.11845886 0.45076787 -0.70629036 0.1909066 -0.47159037 0.5760882 -0.00619097
-0.7737493 0.18799515 -0.6821 -0.70358884 0.23258194 -0.17307581 0.047191557 0.54573715
-0.08781827 0.099168845 0.5811155 0.0202139 -0.18118376 0.39431053 -0.080552705 -0.37407324
-0.5926817 -0.14032501 0.13084306 0.25052676 0.008743985 0.013054535 0.24151668 0.039328165
-0.35566637 -0.0867478 0.002742506 -0.49586427 -0.123596646 1.3042307 0.2505603 0.2532872
00000000: 5f08 f7be cd5f d23d 4399 0b3e 126c 29bd
00000010: a52d 983e 2bf0 c5be 79bf 0ebe 14ba ba3d
00000020: 4760 b4be 81c7 44be 1adf 8bbe 5adc 62be
00000030: bcd4 4b3e bb3f e13b fc96 bf3c 16d7 ffbe
00000040: 7af1 eabe 89cc 95bc aaaf 9fbe df35 0cbf
00000050: e767 083f 6947 a63d bb3c 193f 166a 1cbf
00000060: e8fb c33d b000 8bbe bfb3 d6be 68bc 7f3f
00000070: ea09 0b3f 8e3e 2d3f 4716 dfbe d665 153e
00000080: 3109 103e caee ec3e 7d61 c6be ad4e 6e3f
00000090: a79e 2a3e d19a 1cbf 10a1 00bf 50fc 98be
000000a0: 2b22 46bf 31ca ff3e 568b 173e 1efb 923e
000000b0: fa10 edbd 7d3a d23d 8344 45bf 64c8 b43e
000000c0: b3ec 24bf 2ac7 7fbe 1f58 7c3e 5b05 22bf
000000d0: 3781 c5be 3e8f 4b3d 3958 e6be bde6 fcbe
000000e0: 5eca e8be 9085 2c3f d6ee 1ebe 240c 0dbe
000000f0: 4184 c8be 9496 3d3f bed7 6abe f124 2bbd
00000100: 5f4e 1dbe 2a84 0cbe d5c2 d03e 009b 263e
00000110: a9c9 fc3e 842e 3b3e 66d8 0ebf 9adb c83e
00000120: a3e5 bf3d 80cc 0b3e 5ea9 b13e d974 503f
00000130: 14ad afbe 7a59 5d3f 6532 503d 3696 983e
00000140: 2ddd 103e c622 163f bdd4 89be 4643 04be
00000150: c90d 3dbf afea 123f fe9c 97be d711 12bf
00000160: cc41 613e 9967 2d3f 330e b0bf 88c3 7e3e
00000170: 2f7c ff3e 16b3 193f a6dd 5f3f 5021 113e
00000180: cace 06bd c921 223f 76fc 7bbd 09c6 da3e
00000190: b7db 07be 014b a33e 1318 febd 6fea a5be
000001a0: fd03 75be d7fd ae3e 217b 8d3e 2293 453f
000001b0: 5c74 14bd 7a83 3bbe 9682 09bf 44c7 4ebf
000001c0: 2a30 1ebf ec8b cdbb f7a4 c73c 0a4b 0c3e
000001d0: 411c d13e ae49 ed3e fedf fc3e b766 26be
000001e0: 0ca9 61be 744d 8b3f d136 babd 8ee8 01bf
000001f0: 6e7e 30bd 4dfa 723c e145 80bd 1a84 ab3e
00000200: e8f9 02bd d36b 02be e063 b13e 595d 503a
00000210: 15c0 083d 5753 133f f0f8 9c3d 22bc 88bd
00000220: 8450 39bf 40a9 423f a7de ef3e 67fb ac3c
00000230: def5 0c3e fa65 b43e d130 663e fcce d2be
00000240: 479d a7bc c7f3 b6be 9d08 743f 4710 133e
00000250: 4e24 03be 7c0d 97be e386 f5bd 982b 803d
00000260: 6254 023f 765e bbbc a1f4 353e be1f 74be
00000270: d8d5 bdbc e38a 573f 17f2 e63d 092f bbbd
00000280: 296a 3b3e 84d1 133e c3d5 5d3d 1542 b93c
00000290: c0a8 e93e 2f59 46be 5f65 54be 4371 ca3e
000002a0: 8841 c63e 18a2 e2bd 99b4 eabd 8ff1 ff3d
000002b0: fa72 493f 68ba a83e 6297 bb3c a633 12bf
000002c0: f008 b1be a834 003f b752 52be 8d91 3abf
000002d0: 096b 083f ecd7 96be 5e1b 47be d0c9 f5be
000002e0: 246d 5dbe 150d 1a3e 68be 463f bae8 eb3d
000002f0: 0d02 aebe 407e 003f 2cce 9abe cfe1 5cbf
00000300: 6d48 abbe fb8e 3ebf 36c1 583b 9982 babe
00000310: 1560 e7be f635 0dbf 0a00 00be 8782 51be
00000320: 80b7 d43d 9e3e cbbe ff06 4f3e b635 08bf
00000330: b569 c8be bca9 0bbf 6db0 0cbf 8b59 06be
00000340: 30f4 87bd 0bd1 a03e 7022 263f 1db3 273f
00000350: 8a0f 083e 8fcc a13e d9ee 903e 62a7 85bd
00000360: 33bc 533f 8f9a f2bd 0ccb e63e 72cf 34bf
00000370: 057d 433e 4b74 f1be 847a 133f 9fdd cabb
00000380: 6f14 46bf cd81 403e 1b9e 2ebf 661e 34bf
00000390: f629 6e3e c93a 31be ef4b 413d 6eb5 0b3f
000003a0: 11da b3bd 0919 cb3d fcc3 143f 9f97 a53c
000003b0: 3c88 39be 12e3 c93e d1f8 a4bd 8786 bfbe
000003c0: fdb9 17bf 5cb1 0fbe b9fb 053e 0b45 803e
000003d0: ee42 0f3c b0e2 553c 2650 773e 9216 213d
000003e0: e719 b6be d5a8 b1bd 9ebb 333b ece1 fdbe
000003f0: 3d20 fdbd 08f1 a63f 7149 803e dcae 813e

network_body._body_endoder.seq_layers.0.bias f4 [128]
-0.001059018 -0.00035742144 0.00043147375 5.5242055e-10 1.042477e-05 7.762807e-05 -0.0010790327 -0.0014697309
-0.00013400674 8.507731e-07 0.00045222553 -0.0013521656 -0.0031609808 -0.00066185143 0.00040145914 -0.0010304446
0.00044308777 -0.00038814262 0.0011401208 0.00036512665 0.0021950223 0.0018756365 5.9081467e-05 0.0012104627
-0.0009206566 -2.1323205e-05 -5.408925e-06 0.00092393364 -0.00052333524 1.5940324e-22 0.0005178655 1.0613392e-17
0.0010593608 -8.90811e-10 -0.0013220564 -0.00027549732 2.9478388e-08 -1.5447711e-21 -0.0004188859 0.0013217075
0.000265653 1.90248e-18 -0.0019950077 0.000816337 -0.0013723357 0.00030309992 0.0011269384 -0.00045328995
-2.0053403e-11 0.00023051129 8.398704e-24 -0.00033160564 1.2516139e-05 0.00052126887 -0.0004170273 0.0005468058
0.0012493163 -0.0008416126 -8.587431e-06 -4.41108e-05 -2.0438377e-10 0.00054729404 0.00048044612 -0.00049936096
1.0766575e-29 -0.00011228711 7.46671e-05 -9.558833e-05 0.00021453535 0.0011002856 -1.1755542e-10 -0.00043691936
0.0009545312 -0.00045139692 -0.0019022862 -0.00072131347 -0.0005360073 -0.00035312778 0.0008212836 -0.00036492723
0.000114740455 0.0017024493 -0.0003362134 0.00056445785 -0.0006947928 0.00045750942 0.0012857963 0.00061437377
0.0011382679 8.413449e-05 -0.00059382606 2.4022382e-26 -9.0358155e-24 7.6221364e-14 0.001372207 -0.0014983506
-0.0010652341 -0.00028688484 -1.00251557e-19 0.00065917696 0.0012455994 0.00028296176 1.8963917e-08 9.9419514e-05
7.950841e-05 4.0341416e-05 0.00075254124 0.0009879452 -0.0018294634 -0.00044399092 -0.00018811006 -9.40986e-25
-0.00021526686 -0.0018266966 -5.4312928e-14 7.482327e-09 -0.00068654586 7.201591e-09 -0.002248451 -0.0016162609
0.0015144077 -0.00094273605 -0.00013060903 0.00047124136 -0.0007511008 -3.26436e-05 -0.00016905267 -0.0013706856
00000000: bfce 8aba 4b64 bbb9 6d37 e239 24d9 1730
00000010: 0ce6 2e37 41cc a238 546e 8dba fca3 c0ba
00000020: 2984 0cb9 af60 6435 af18 ed39 263b b1ba
00000030: 7528 4fbb 1980 2dba ef7a d239 fc0f 87ba
00000040: 3c4e e839 9f7f cbb9 1b70 953a 786e bf39
00000050: 5dda 0f3b ebd7 f53a 3ece 7738 63a8 9e3a
00000060: 3858 71ba 3cdf b2b7 507e b5b6 2334 723a
00000070: 6f30 09ba eab4 401b 5ec1 073a 54c8 4323
00000080: 40da 8a3a 40dd 74b0 da48 adba a070 90b9
00000090: a937 fd32 7070 e99c ea9d dbb9 253d ad3a
000000a0: 5847 8b39 d560 0c22 adbe 02bb 73ff 553a
000000b0: f2df b3ba 62e9 9e39 c7b5 933a 8ca7 edb9
000000c0: 4064 b0ad 67b5 7139 5e74 2219 5bdb adb9
000000d0: 68fc 5137 c3a5 083a 75a4 dab9 8457 0f3a
000000e0: 19c0 a33a aa9f 5cba bc12 10b7 9c03 39b8
000000f0: ebb8 60af 4878 0f3a 63e4 fb39 8ce7 02ba
00000100: 415f 5a0f af7b ebb8 9896 9c38 9876 c8b8
00000110: e5f4 6039 7537 903a e940 01af 5312 e5b9
00000120: 8139 7a3a 78a9 ecb9 2256 f9ba 8716 3dba
00000130: d782 0cba 0224 b9b9 694b 573a b453 bfb9
00000140: d0a0 f038 b824 df3a cc45 b0b9 20f8 133a
00000150: c122 36ba e0dd ef39 2a88 a83a ed0d 213a
00000160: ef31 953a 5c71 b038 feaa 1bba f9e7 ed14
00000170: 31c7 2e99 a0a2 ab29 a0db b33a 4e64 c4ba
00000180: 539f 8bba 0869 96b9 59b6 ec9f 9ecc 2c3a
00000190: 6143 a33a 7c5a 9439 18e6 a232 727f d038
000001a0: c1bd a638 4434 2938 3046 453a f17d 813a
000001b0: 9bca efba 74c7 e8b9 693f 45b9 4c9c 9197
000001c0: 42b9 61b9 c46d efba 8b9a 74a9 9f8b 0032
000001d0: 50f9 33ba dd71 f731 c05a 13bb b7d8 d3ba
000001e0: 177f c63a f221 77ba 18f4 08b9 f210 f739
000001f0: 85e5 44ba ccea 08b8 bb43 31b9 94a8 b3ba

network_body._body_endoder.seq_layers.2.weight f4 [128, 128]
0.03632352 -0.00495076 -0.023966797 -0.108384125 -0.1717876 -0.0796124 0.033813126 -0.070756525
0.10388507 -0.12831165 -0.034754284 -0.112056 0.053790856 0.24510139 -0.055522308 -0.123858385
-0.23042622 0.14274053 0.032285854 0.09990888 0.03943454 -0.08105421 -0.12263396 0.017570272
-0.18515591 -0.0023437412 -0.05144088 -0.12978879 0.05383198 0.022164393 -0.19981542 -0.008260452
0.004504667 -0.022455597 -0.001953441 -0.0690786 0.08135563 0.005447828 0.01909536 0.12722349
-0.18967086 -0.01925544 -0.0064361542 0.008835475 0.01654454 -0.013731589 -0.0056849313 -0.008296735
-0.07757128 0.0058298954 -0.040675648 0.12095311 0.0073300647 -0.067569755 0.022737375 -0.0012232267
-0.058561213 -0.07278112 -0.13433167 -0.35787636 -0.042457514 0.0066878838 -0.09724072 -0.004277034
-0.008005735 0.013111922 -0.017327674 -0.0480048 -0.08809083 0.03194576 0.044333816 0.022079933
0.16192365 0.034927104 -0.03014583 -0.03212242 -0.13710967 -0.023302216 -0.09684013 0.03534152
-0.010358305 0.091043755 0.027400335 0.090220325 -0.010582439 0.049777247 0.08613681 0.09286895
0.06524726 -0.03587263 0.28494945 0.05464534 -0.028775768 -0.021312436 -0.016566658 -0.09240907
-0.07311477 0.1011714 0.07769291 -0.04972405 0.021639885 0.10926634 -0.019758796 -0.17608179
0.026349403 -0.13676658 0.013554867 -0.07112017 0.090295315 0.007763751 0.025791192 0.08622976
-0.029400717 -0.010979954 -0.22214518 -0.06337634 0.0983568 0.08998805 0.0036628996 -0.04847479
0.1144999 -0.03063574 -0.090295605 -0.033647142 -0.12848708 0.0375032 -0.11493194 -0.051922318
0.0028958907 0.025353184 -0.037655104 0.010294041 -0.000986385 0.01432676 0.108301766 -0.029564263
0.036639795 0.008036354 0.076826036 -0.08315106 -0.05035315 -0.07472699 0.040680964 -0.06731958
0.17503643 -0.115331076 0.09585042 0.02825287 0.032675322 0.17310594 0.07929122 -0.03740089
0.08496192 -0.025492573 -0.3085455 0.15701365 -0.048416045 -0.03307544 0.023627987 -0.025072798
0.045116413 -0.015527295 0.037749477 -0.040926803 0.08500287 -0.004382608 -0.0074815606 -0.06359561
0.0084065795 -0.04573014 -0.08001897 -0.1795707 0.07353512 -0.1277411 -0.050851762 0.04427855
0.10544049 -0.03558471 -0.13057244 0.020162538 -0.021803314 -0.015836475 0.0867127 0.07311105
0.123901874 0.028462727 -0.04600204 -0.067941904 -0.13721542 0.054171402 -0.022126924 -0.12646788
-0.03302656 0.011394545 -0.069919094 0.1167782 -0.06294372 0.1082584 -0.10763382 -0.014143815
0.058447454 0.038401186 -0.00044261586 -0.037190165 -0.039269138 0.043624766 0.031207645 -0.0051502
-0.015696492 0.020414589 -0.17764728 0.06121244 0.032260295 -0.089301795 -0.06882916 0.045349292
0.032447007 0.033270177 0.09282674 -0.061084073 -0.016956856 0.18427049 0.17415942 0.006011758
0.03018901 -0.078842364 0.08094109 -0.1360992 0.1410003 0.0028771851 0.1278411 -0.114938386
0.0832752 0.07405318 -0.030278943 -0.24869409 -0.05579951 0.023729794 -0.0048193457 0.104356684
-0.026944026 -0.04648449 0.34957394 0.12222107 0.11038502 -0.10677784 0.047798675 0.03790337
0.1122642 0.0214111 0.066419795 -0.12295788 0.10451612 -0.03256306 0.06956423 -0.09599287
00000000: f9c7 143d fc39 a2bb 0456 c4bc 7ff8 ddbd
00000010: 17e9 2fbe d30b a3bd a27f 0a3d cce8 90bd
00000020: b2c1 d43d 2164 03be 825a 0ebd 9e7d e5bd
00000030: cd53 5c3d dcfb 7a3e 5c6b 63bd 77a9 fdbd
00000040: daf4 6bbe 932a 123e 2c3e 043d 079d cc3d
00000050: 1d86 213d c0ff a5bd 8327 fbbd 88ef 8f3c
00000060: 8399 3dbe 7499 19bb acb3 52bd 5ae7 04be
00000070: ec7e 5c3d 1a92 b53c 6a9c 4cbe d956 07bc
00000080: e39b 933b cdf4 b7bc 4d05 00bb 1579 8dbd
00000090: c89d a63d b283 b23b df6d 9c3c e046 023e
000000a0: 1439 42be 96bd 9dbc 60e6 d2bb abc2 103c
000000b0: 6a88 873c 75fa 60bc a948 babb 07ef 07bc
000000c0: b1dd 9ebd b508 bf3b 829b 26bd 44b6 f73d
000000d0: 0a31 f03b 0362 8abd bb43 ba3c ad54 a0ba
000000e0: e2dd 6fbd 450e 95bd 3e8e 09be 923b b7be
000000f0: eee7 2dbd 0926 db3b 2526 c7bd 5d26 8cbb
00000100: 7d2a 03bc 63d3 563c c4f2 8dbc aea0 44bd
00000110: f768 b4bd 8fd9 023d 6097 353d fae0 b43c
00000120: 50cf 253e b90f 0f3d 63f4 f6bc cc92 03bd
00000130: 7a66 0cbe 4ae4 bebc 1e54 c6bd 45c2 103d
00000140: e1b5 29bc 2675 ba3d ab76 e03c 6fc5 b83d
00000150: f761 2dbc 3ae3 4b3d 7f68 b03d 1332 be3d
00000160: 5ba0 853d 2eef 12bd e5e4 913e cbd3 5f3d
00000170: 29bb ebbc 6b97 aebc cdb6 87bc f740 bdbd
00000180: 32bd 95bd f332 cf3d 761d 9f3d 72ab 4bbd
00000190: 2146 b13c 08c7 df3d 33dd a1bc c94e 34be
000001a0: b4da d73c 8a0c 0cbe 3c15 5e3c 74a7 91bd
000001b0: c0ec b83d 1067 fe3b 0d48 d33c 3a99 b03d
000001c0: c6d9 f0bc 44e5 33bc 077a 63be 74cb 81bd
000001d0: 4a6f c93d a84b b83d 420d 703b 808d 46bd
000001e0: ec7e ea3d cef7 fabc e7ec b8bd 96d1 09bd
000001f0: 1e92 03be f59c 193d 7061 ebbd 7fac 54bd
00000200: fcc8 3d3b 7bb1 cf3c 3d3c 1abd 56a8 283c
00000210: 9749 81ba c9ba 6a3c 51cd dd3d c130 f2bc
00000220: 9c13 163d e9aa 033c f856 9d3d 1a4b aabd
00000230: 1b3f 4ebd 770a 99bd 15a1 263d d9de 89bd
00000240: c03c 333e b332 ecbd 3a4d c43d 9072 e73c
00000250: 8fd6 053d af42 313e 6f63 a23d ad31 19bd
00000260: 8400 ae3d cdd5 d0bc adf9 9dbe 30c8 203e
00000270: e74f 46bd 1d7a 07bd 7b8f c13c 7865 cdbc
00000280: fdcb 383d 3266 7ebc 329f 1a3d dda2 27bd
00000290: fc15 ae3d fb9b 8fbb e127 f5bb 6a3e 82bd
000002a0: c0bb 093c 874f 3bbd fce0 a3bd 62e1 37be
000002b0: 9599 963d 90ce 02be f049 50bd 6d5d 353d
000002c0: 2ff1 d73d 46c1 11bd c8b4 05be e82b a53c
000002d0: dd9c b2bc 7fbb 81bc 6e96 b13d 3fbb 953d
000002e0: 44c0 fd3d aa2a e93c a36c 3cbd 2025 8bbd
000002f0: 3382 0cbe d5e2 5d3d 8643 b5bc cc80 01be
00000300: dc46 07bd 30b0 3a3c be31 8fbd 6929 ef3d
00000310: a3e8 80bd 94b6 dd3d 1f6f dcbd 76bb 67bc
00000320: 9966 6f3d 904a 1d3d e50e e8b9 b754 18bd
00000330: add8 20bd e2af 323d 2da7 ff3c 02c3 a8bb
00000340: ee95 80bc 7f3c a73c 2be9 35be e5b9 7a3d
00000350: 5f23 043d dce3 b6bd 4df6 8cbd 2ec0 393d
00000360: 27e7 043d 4f46 083d f21b be3d 4b33 7abd
00000370: 1be9 8abc 67b1 3c3e d956 323e 48fe c43b
00000380: f14e f73c 1b78 a1bd 71c4 a53d 975d 0bbe
00000390: 6262 103e 288f 3c3b c7e8 023e d164 ebbd
000003a0: 308c aa3d 32a9 973d 8c0b f8bc aaa9 7ebe
000003b0: 078e 64bd fc64 c23c 9aeb 9dbb f5b8 d53d
000003c0: b8b9 dcbc 8566 3ebd 5bfb b23e 0a4f fa3d
000003d0: 8b11 e23d 57ae dabd 8bc8 433d 9040 1b3d
000003e0: c6ea e53d 5566 af3c 1a07 883d 57d1 fbbd
000003f0: 8c0c d63d d860 05bd b177 8e3d e997 c4bd

network_body._body_endoder.seq_layers.2.bias f4 [128]
-0.0018374422 0.0015569963 -0.00153046 -0.00044797375 -0.0010197978 0.00025803252 -3.3164324e-05 -0.0016373683
-0.0009638349 0.0012544029 -0.0017224844 0.0012198688 -0.0015770879 0.001456245 1.3221038e-09 -0.001409888
0.0001926189 -0.00021325472 -0.0001493849 -0.0013592701 -0.00013965112 0.0003697119 0.0042838505 0.00079356495
-0.0016778072 -0.000106680425 0.0012841162 -0.0034668657 0.00053778396 0.000750426 0.0003920639 -0.0012348278
-0.0004828848 -0.00126572 -0.00053478853 6.813094e-06 -0.00075719965 1.205752e-21 -0.0014941707 -0.00045761763
-8.164863e-05 -7.5794145e-05 5.3153442e-05 0.00011761469 -0.00044183753 -0.0034869837 -9.019442e-05 -0.00036628722
-0.00023274052 -0.00011685639 8.706968e-15 1.840341e-18 -0.00024519127 -0.0014915429 -0.0001604165 -0.0020019612
-0.00029567647 0.00034914236 0.0035494284 1.118212e-06 -0.002183582 -0.0014767905 -0.00066391093 -0.00041786948
-9.944026e-05 -0.000295293 -3.5753962e-07 -9.0534464e-05 -0.00015876857 -0.00055407296 2.9978582e-05 0.00094827474
4.5636312e-05 -0.0006266567 -0.0004548279 -0.0042554745 -0.0012661625 0.00010277394 1.8710082e-07 -0.00088912045
-4.827959e-06 -3.8961605e-13 0.0010911503 0.0048683146 -0.00033812525 -0.00011037375 -0.0006519186 0.0012279038
-1.5158064e-05 -0.0013906498 -4.0437185e-12 0.00014411124 -5.737548e-16 -0.0001098379 -0.0016503913 -0.00015996333
-0.001271026 -0.0005695284 -0.002283286 -0.0014862343 -8.225539e-05 -0.00053423527 -0.0017470154 -5.520579e-20
-8.111639e-05 -0.0010747694 -0.0042164414 -0.001838328 -0.003605344 -0.0007153112 -0.00016103749 -0.00111955
5.9243572e-08 0.00055207807 -4.6523625e-13 -0.0018600577 -0.00023493038 -0.00047235953 0.00020821068 1.4419844e-10
-0.00077323033 -0.0015870462 -0.00084858487 -0.0013911694 -0.00073218596 7.265613e-05 -0.00047169736 -0.0016923967
00000000: 54d6 f0ba 2014 cc3a b799 c8ba 05de eab9
00000010: bcaa 85ba 8a48 8739 ec19 0bb8 f79c d6ba
00000020: dda9 7cba c76a a43a fcc4 e1ba 01e4 9f3a
00000030: 4ab6 ceba 79df be3a 64b5 b530 fecb b8ba
00000040: bef9 4939 219d 5fb9 34a4 1cb9 8929 b2ba
00000050: 506f 12b9 e4d5 c139 8b5f 8c3b 3e07 503a
00000060: dee9 dbba 9eb9 dfb8 ca4f a83a 5b34 63bb
00000070: 12fa 0c3a 3db8 443a ed8d cd39 f2d9 a1ba
00000080: b32b fdb9 84e6 a5ba 0d31 0cba 089c e436
00000090: cf7e 46ba 4535 b61c 0dd8 c3ba 66ec efb9
000000a0: c63a abb8 acf3 9eb8 13f1 5e38 e8a7 f638
000000b0: 6ea6 e7b9 e185 64bb c326 bdb8 3d0a c0b9
000000c0: cf0b 74b9 cc10 f5b8 cdd9 1c28 0fcb 0722
000000d0: 048d 80b9 e07f c3ba 7a35 28b9 5633 03bb
000000e0: 0605 9bb9 180d b739 879d 683b 7915 9635
000000f0: 6d1a 0fbb de90 c1ba 4f0a 2eba 7e15 dbb9
00000100: 958a d0b8 8ed1 9ab9 dff3 bfb4 52dd bdb8
00000110: 1d7b 26b9 353f 11ba 847a fb37 a495 783a
00000120: 9e69 3f38 3846 24ba f875 eeb9 8271 8bbb
00000130: 5df5 a5ba 5788 d738 e2e5 4834 dd13 69ba
00000140: daff a1b6 9755 dbaa ee04 8f3a 6286 9f3b
00000150: 6746 b1b9 7578 e7b8 84e5 2aba 9df1 a03a
00000160: 644f 7eb7 7746 b6ba 9446 8eac 911c 1739
00000170: a25f 25a6 c658 e6b8 f151 d8ba d4bb 27b9
00000180: 8e98 a6ba 674c 15ba 2fa3 15bb bfcd c2ba
00000190: 8780 acb8 ec0b 0cba 1cfc e4ba da59 829f
000001a0: 081d aab8 47df 8cba 132a 8abb 0df4 f0ba
000001b0: a347 6cbb b983 3bba 2cdc 28b9 ddbd 92ba
000001c0: ff72 7e33 55b9 103a cef3 02ab 2ecd f3ba
000001d0: a557 76b9 06a7 f7b9 2153 5a39 418c 1e2f
000001e0: 9cb2 4aba 6f04 d0ba 9173 5eba e657 b6ba
000001f0: 2bf0 3fba f65e 9838 264e f7b9 69d3 ddba

action_model._discrete_distribution.branches.0.weight f4 [3, 128]
-0.00076210144 0.00083557493 0.0014326081 -0.00024738468 -0.0023921079 -0.0008532291 0.0031497336 0.0057150936
0.0010755857 -0.009791621 0.0066181254 0.011962132 0.01503072 -0.009135349 -0.0068985433 -8.943763e-05
-0.0015723491 0.009440159 0.010463181 0.0055626733 0.008789926 0.012854703 0.0015635095 0.0073914523
-0.0021300032 0.0003190809 0.011373432 0.011645787 -0.007688442 -0.00015244709 0.0052231126 -0.013990657
-0.0052679246 -0.0044250553 -0.004787748 0.009546903 0.0013735618 0.00071037526 -0.008182146 0.01266524
0.0015130531 -0.002547155 -0.0045064217 -0.013006245 0.0031626394 -0.01462433 0.007814603 0.008969764
0.017465528 -0.002779493 0.011222297 0.00014621396 -0.009166606 -0.012434812 -0.011153931 -0.006183095
0.016287787 3.0278741e-05 -0.0006081586 -0.014493076 -0.002859774 0.00967054 -0.0014521886 -0.012175836
0.010739959 0.006870584 0.021410152 0.0054532336 -0.007812479 -0.020025391 0.006088065 0.012507892
-0.002292464 0.012139433 0.009861419 0.000983127 0.021759931 -0.0067789615 -0.009713454 0.0044817124
-0.007396122 -0.0044351253 0.012698772 -0.005268193 -0.0010620009 -0.0088348575 -0.008273406 0.003303929
-0.009538455 0.013343082 0.0047235712 0.0016391769 -0.012600347 0.003929846 -0.01767552 -0.017637499
0.006373957 -0.0001549774 0.0033777335 0.0030618466 0.0035073448 -0.0036398417 0.0014889317 0.011242893
-0.0052777934 -0.006939003 0.0013848962 0.01237357 -0.008276214 -0.007922013 0.003580219 0.00739824
0.0027980972 0.0069619324 -0.00016548108 0.008829419 -0.005952997 -0.0053921044 0.0023210957 -0.0020775204
-0.0062427158 -0.00044822355 -0.0038758956 -0.0016445362 -0.00168291 0.022434458 -0.014416116 0.003910475
-0.0055460436 -0.0004505495 -0.0069152373 -0.0067445072 -0.00031881884 0.0023568957 -0.0027601814 0.013530427
-0.0016275503 -0.007992598 0.0020060535 -0.012902062 0.0055209766 0.0034762062 0.0036519656 0.0077041723
0.0006992751 0.007474832 -0.005670492 0.0049147224 0.005684305 -0.00785961 0.013059606 0.0059906417
-0.0006300125 -0.010196244 0.00650065 -0.0067401864 0.0008209019 -0.0027645621 0.0063178334 0.0089856675
0.0016091579 -0.006261173 -0.004443946 -0.002084245 -0.007855271 -0.008857012 -0.0059101917 0.018762894
-0.0001753011 0.012849694 0.01153256 -0.009157215 0.019307682 -0.0043382747 -0.017416878 0.016173057
-0.0029509987 0.008654632 0.00015909423 -0.0010623266 -0.0023412746 0.0013044507 0.031386506 -0.00025575733
0.0034570917 -0.0047622146 0.004929765 0.004978978 -0.015859352 0.007744892 -0.008356832 3.9402606e-05
0.0048979376 -0.009533326 -0.003549118 -0.004577751 0.007894612 -0.0025870632 -0.002958407 -0.0033631616
0.008254599 -0.0030126234 0.0061415886 0.001313751 0.0001914933 0.004375626 0.0047034337 -0.0070550223
0.0051707006 -0.018909983 0.0052110828 0.019439327 -0.00056781626 -0.0068835737 0.0030950939 -0.0057623438
-0.0038460263 -0.005488104 -0.0011067847 -0.011893436 -0.009390849 0.012284437 -0.015836703 0.00019827216
-0.006869877 -0.0052981223 0.005443699 0.002930667 -0.014371914 0.013987932 -0.005487765 -0.016333131
-0.004785708 -0.01443014 0.0033215072 0.014115319 -0.0039639114 0.0011196794 -0.0064297966 0.0013166053
0.0044115577 -0.017529435 0.0011668807 0.011663861 -0.0092592845 0.01911748 -0.014680693 0.0005166985
-0.002426681 -0.014089496 -0.0023222684 -0.0013851415 -0.0047367616 -0.013037735 -0.0036573894 -0.0016995455
00000000: c3c7 47ba 7c0a 5b3a 5ac6 bb3a 69b3 81b9
00000010: e9c4 1cbb 3cab 5fba c36b 4e3b ae45 bb3b
00000020: abfa 8c3a 096d 20bc dcdc d83b d1fc 433c
00000030: 6943 763c 6eac 15bc 2d0d e2bb 7690 bbb8
00000040: 4817 ceba e6aa 1a3c c36d 2b3c 1647 b63b
00000050: 9f03 103c 889c 523c acee cc3a ff33 f23b
00000060: 8697 0bbb 504a a739 a257 3a3c f9cd 3e3c
00000070: 53ef fbbb 34da 1fb9 a526 ab3b 1239 65bc
00000080: 8e9e acbb 0e00 91bb 8be2 9cbb 9d6a 1c3c
00000090: 1609 b43a 7a38 3a3a 680e 06bc de81 4f3c
000000a0: a351 c63a 2bee 26bb 9baa 93bb 2518 55bc
000000b0: 4944 4f3b e39a 6fbc d208 003c ebf5 123c
000000c0: de13 8f3c 2828 36bb badd 373c 0351 1939
000000d0: 882f 16bc 62bb 4bbc fabe 36bc 8f9b cabb
000000e0: f76d 853c 1aff fd37 d56c 1fba 5e74 6dbc
000000f0: 0c6b 3bbb 2f71 1e3c 5d57 beba 287d 47bc
00000100: a7f6 2f3c a322 e13b 5864 af3c 0ab1 b23b
00000110: d3ff ffbb 4a0c a4bc 647e c73b e7ed 4c3c
00000120: 2a3d 16bb 79e4 463c ca91 213c 45dc 803a
00000130: e241 b23c 0d22 debb 2e25 1fbc 54db 923b
00000140: 2b5b f2bb 8754 91bb 830e 503c cea0 acbb
00000150: d632 8bba 14c0 10bc 2e8d 07bc bb86 583b
00000160: 2e47 1cbc f19c 5a3c 30c8 9a3b a6d9 d63a
00000170: b071 4ebc f0c5 803b 41cc 90bc 847c 90bc
00000180: a0dc d03b 6e81 22b9 f75c 5d3b 43a9 483b
00000190: 7bdb 653b 698a 6ebb 4228 c33a 1c34 383c
000001a0: 57f1 acbb 9360 e3bb 6885 b53a 84ba 4a3c
000001b0: f598 07bc 55cb 01bc 1ca2 6a3b ef6c f23b
000001c0: 4860 373b ec20 e43b fd84 2db9 44a9 103c
000001d0: 5c11 c3bb 40b0 b0bb 861d 183b 0227 08bb
000001e0: b28f ccbb 8cff eab9 bd02 7ebb 7a8d d7ba
000001f0: 1795 dcba 78c8 b73c 9331 6cbc 7123 803b
00000200: 96bb b5bb bb37 ecb9 3799 e2bb 0701 ddbb
00000210: 2427 a7b9 2676 1a3b 29e4 34bb b9ae 5d3c
00000220: 8753 d5ba 63f3 02bc fe77 033b 2c63 53bc
00000230: 4fe9 b43b 10d1 633b d155 6f3b 4873 fc3b
00000240: 8f4f 373a 6fef f43b 89cf b9bb ae0b a13b
00000250: 6843 ba3b 98c5 00bc f5f7 553c 254d c43b
00000260: 6c27 25ba 260e 27bc 6803 d53b c8dc dcbb
00000270: cb31 573a a82d 35bb d405 cf3b 9f38 133c
00000280: 61ea d23a 872a cdbb 859e 91bb d497 08bb
00000290: 65b3 00bc 001d 11bc 48aa c1bb a4b4 993c
000002a0: 08d1 37b9 8687 523c 10f3 3c3c 2508 16bc
000002b0: 252b 9e3c 1628 8ebb d7ad 8ebc 5c7d 843c
000002c0: 8b65 41bb 28cc 0d3c 88d2 2639 c43d 8bba
000002d0: 1270 19bb 1afa aa3a 238f 003d 2b17 86b9
000002e0: 6090 623b 5a0c 9cbb de89 a13b b226 a33b
000002f0: 79eb 81bc ddc8 fd3b 18eb 08bc 3a44 2538
00000300: e17e a03b ab31 1cbc 5298 68bb f500 96bb
00000310: 6758 013c b88b 29bb d5e1 41bb 7d68 5cbb
00000320: 4c3e 073c 6f6f 45bb 613f c93b 2b32 ac3a
00000330: 97cb 4839 6961 8f3b 431f 9a3b d12d e7bb
00000340: fb6e a93b 1ce9 9abc bbc1 aa3b 393f 9f3c
00000350: 81d9 14ba 9a8f e1bb 0fd7 4a3b 0bd2 bcbb
00000360: 9d0d 7cbb 8ed5 b3bb 8811 91ba b0dc 42bc
00000370: 13dc 19bc aa44 493c f9bb 81bc 47e7 4f39
00000380: b51c e1bb df9b adbb 0f61 b23b 6f10 403b
00000390: 2d78 6bbc a42d 653c b6d2 b3bb 0fcd 85bc
000003a0: 6ed1 9cbb 656c 6cbc a5ad 593b f043 673c
000003b0: b3e3 81bb 35c2 923a 0bb1 d2bb f191 ac3a
000003c0: d48e 903b e499 8fbc 05f2 983a c719 3f3c
000003d0: 41b4 17bc 439c 9c3c 4a87 70bc 0d73 073a
000003e0: f408 1fbb a1d7 66bc 3331 18bb a38d b5ba
000003f0: d636 9bbb 399c 55bc d0b0 6fbb 49c3 deba

action_model._discrete_distribution.branches.0.bias f4 [3]
0.00014828544 -0.00014079563 -0.00022083262
00000000: 127d 1b39 8aa2 13b9 4e8f 67b9

action_model._discrete_distribution.branches.1.weight f4 [3, 128]
0.0063513042 0.020522522 -0.0065687937 0.0044845217 0.005879048 -0.0094615435 -0.009672615 -0.00017144055
-0.006205737 -0.00836569 -0.004399561 -0.0055588298 -0.004881671 0.0022464502 0.00026766368 -0.0058977692
0.0079499 -0.0017082015 -0.0015002792 -0.0111435745 -0.0039325315 -0.005991324 -0.008746364 -0.002593462
-0.009743905 0.015126669 0.0077281487 0.025162982 -0.011971436 0.0050523407 -0.0020384768 0.0024255975
-0.009011415 -0.010310231 -0.00043921772 0.0053603253 0.0045739296 0.0039309305 0.0043119425 0.0063618366
-0.0045437873 0.010858902 0.006580476 0.015499433 -0.007870026 -0.0013385948 -0.0014828991 0.0027927288
0.011830509 -0.007525808 -0.004927644 0.008042935 0.0030224936 -0.013845315 0.0068469835 0.0069422103
0.007957931 0.011908529 -0.0032077737 8.374075e-05 -0.007466206 0.006298532 -0.0047976742 0.011086249
0.003726743 -0.0076027676 -0.010702835 0.009158868 -0.0032356624 -0.013271805 -0.00957087 -0.00998186
0.00084811635 -0.00069563754 -0.004117238 -0.0022528183 0.0071429866 0.008861209 -0.0020630152 -0.012516397
0.014792615 -0.0048112026 -0.010773404 0.0016754258 -0.006467548 0.019170394 -0.004402327 0.0031418486
0.0023695729 -0.0019917234 0.0075441594 0.0018930042 0.00031373903 0.0069803474 0.000662899 0.009563618
-0.0007820579 0.00030146772 0.0067668473 0.0023818032 -0.009529663 0.008596814 0.011927707 -0.013651036
-0.027235368 0.013335141 0.005575357 0.014186931 -0.002734679 0.013680832 8.799338e-05 -0.0065940693
0.005399695 0.0023534968 -0.009805619 0.0071004885 0.0075702113 -0.00873106 0.017224696 -0.015828177
-0.011064504 0.005764863 -0.0044136024 -0.00606115 -0.0071380804 -0.0019199161 0.0033466935 0.004849429
-0.001836467 -5.3650176e-05 -0.013797253 0.021340951 -0.00093165616 0.0024596092 0.02009407 -0.007407405
0.00011965377 -0.0067833 -0.011493593 0.010694072 -0.0026253883 -0.008569023 -0.0011633298 -0.0070806593
-0.0123328185 -0.0077178143 0.005397959 0.00071793003 -0.004473177 -0.0050706775 0.0019561024 0.0038238857
0.006748265 0.008981817 -0.012716147 -0.0033516898 -0.007132723 -0.017577313 -0.0025649497 2.6713666e-05
0.0066245273 0.0021087301 -0.0011707545 -0.0027721026 -0.00431821 0.0034196493 0.0038080763 0.00024903644
-0.0120663475 -0.0088481335 -0.012570891 -0.017918501 -0.0005315937 0.01002114 0.0055982647 0.011340715
-0.0048947493 -0.017677365 0.010709523 -0.004462925 0.001303411 -0.007128529 -0.007629461 0.0027870073
-0.01915263 -0.01394421 0.0008066983 0.0022936505 0.0034000762 0.00985041 0.009274895 -0.0056068124
-0.0022180392 0.011717829 0.009238311 0.0017365791 -0.0037165133 -0.0030148276 0.0006682145 -0.005263374
-0.009662584 0.0074515804 -0.0021348356 -0.007690813 -0.007967161 -0.002804316 0.02020782 0.010574126
0.0063312645 -0.0097529655 -0.0022202078 -0.0123295775 -0.005091949 0.0059887003 0.0014141791 0.00045814988
0.01372421 -0.014493134 0.0021483859 -0.012124151 0.004817879 -0.0125931855 -0.012801389 -0.0026571439
0.014416204 -0.013673045 -0.0067370837 0.0078585595 -0.0017341181 0.010618331 0.0040073227 -0.01038327
0.0064968467 0.0020688449 -0.00392484 0.0019223364 0.018136067 -0.009755869 0.0037939164 -0.001629495
-0.0028801449 -0.011178303 0.004469679 -0.0072657904 -0.00032742045 -0.002661816 -0.016080104 0.0041757175
0.010268937 -0.0019632205 0.010791726 0.0004762532 0.00018883146 -0.0075614364 0.01424767 0.005918466
00000000: 9a1e d03b d91e a83c 093f d7bb e5f2 923b
00000010: 07a5 c03b 9704 1bbc e379 1ebc b9c4 33b9
00000020: 7f59 cbbb 3f10 09bc 312a 90bb d826 b6bb
00000030: 6df6 9fbb 2e39 133b 3655 8c39 1342 c1bb
00000040: 4c40 023c bbe5 dfba 04a5 c4ba 8a93 36bc
00000050: 77dc 80bb de52 c4bb e94c 0fbc 12f7 29bb
00000060: e6a4 1fbc d9d5 773c 693c fd3b 9922 ce3c
00000070: d823 44bc 1b8e a53b f797 05bb c6f6 1e3b
00000080: 9da4 13bc 3eec 28bc ce46 e6b9 aba5 af3b
00000090: e7e0 953b 09cf 803b 324b 8d3b f476 d03b
000000a0: 0de4 94bb 89e9 313c 09a1 d73b 55f1 7d3c
000000b0: 48f1 00bc ca73 afba d65d c2ba 3706 373b
000000c0: c0d4 413c 0e9b f6bb 1378 a1bb 84c6 033c
000000d0: 0715 463b 76d7 62bc a95c e03b 7b7b e33b
000000e0: fb61 023c fe1b 433c 8339 52bb f99d af38
000000f0: 13a7 f4bb ea63 ce3b cf35 9dbb 19a3 353c
00000100: 5f3c 743b a320 f9bb f25a 2fbc 140f 163c
00000110: 680d 54bb fc71 59bc 23cf 1cbc f58a 23bc
00000120: 2054 5e3a 725b 36ba e5e9 86bb 05a4 13bb
00000130: b70f ea3b 9b2e 113c a733 07bb 9311 4dbc
00000140: b95c 723c 4ba7 9dbb ee82 30bc f699 db3a
00000150: baed d3bb 3b0b 9d3c 6541 90bb 79e7 4d3b
00000160: d64a 1b3b 9387 02bb ff34 f73b ae1e f83a
00000170: 577d a439 66bb e43b 66c6 2d3a b9b0 1c3c
00000180: 0403 4dba 500e 9e39 6ebc dd3b 0718 1c3b
00000190: 4e22 1cbc a7d9 0c3c 6e6c 433c 98a8 5fbc
000001a0: b51c dfbc a37b 5a3c 7cb1 b63b 4d70 683c
000001b0: 4d38 33bb 9225 603c 1689 b838 1013 d8bb
000001c0: edef b03b 203d 1a3b bfa7 20bc 37ab e83b
000001d0: 890f f83b b80c 0fbc ce1a 8d3c 18aa 81bc
000001e0: e547 35bc 2de7 bc3b fb9f 90bb 9d9c c6bb
000001f0: 8fe6 e9bb b2a5 fbba 3354 5b3b f5e7 9e3b
00000200: 9bb5 f0ba 7006 61b8 e00d 62bc 38d3 ae3c
00000210: 633a 74ba 6531 213b 529c a43c d1b9 f2bb
00000220: a1ee fa38 7246 debb a04f 3cbc 3036 2f3c
00000230: b50e 2cbb 1665 0cbc df7a 98ba e004 e8bb
00000240: 970f 4abc b8e5 fcbb 5de1 b03b 7833 3c3a
00000250: ba93 92bb ed27 a6bb f431 003b 289a 7a3b
00000260: 8d20 dd3b 7928 133c 6357 50bc 06a8 5bbb
00000270: 9eb9 e9bb 4cfe 8fbc b718 28bb 2917 e037
00000280: 9012 d93b 9f32 0a3b 0174 99ba 2aac 35bb
00000290: c57f 8dbb 321c 603b eb90 793b 1b91 8239
000002a0: eeb1 45bc c3f7 10bc 23f6 4dbc d2c9 92bc
000002b0: a65a 0bba b52f 243c a671 b73b 68ce 393c
000002c0: 2264 a0bb 1fd0 90bc ff76 2f3c ba3d 92bb
000002d0: 37d7 aa3a 6f96 e9bb 8f00 fabb 39a6 363b
000002e0: fae5 9cbc 4176 64bc 9b78 533a 1251 163b
000002f0: d0d3 5e3b 9d63 213c bbf5 173c 5ab9 b7bb
00000300: 865c 11bb 23fc 3f3c 495c 173c ed9d e33a
00000310: bf90 73bb 6a94 45bb 1e2b 2f3a 6278 acbb
00000320: d14f 1ebc 632c f43b 99e8 0bbb 3703 fcbb
00000330: b288 02bc 9ec8 37bb df8a a53c 193f 2d3c
00000340: 7f76 cf3b e7ca 1fbc e880 11bb ff01 4abc
00000350: 5dda a6bb dc3c c43b fa5b b93a d633 f039
00000360: 82db 603c 9c74 6dbc efcb 0c3b 60a4 46bc
00000370: 4cdf 9d3b a653 4ebc ebbc 51bc 7a23 2ebb
00000380: f131 6c3c e804 60bc c1c2 dcbb 30c1 003c
00000390: 594b e3ba 82f8 2d3c dc4f 833b 971e 2abc
000003a0: 80e3 d43b 7595 073b f29b 80bb e8f6 fb3a
000003b0: 1792 943c 15d7 1fbc 5ba3 783b c794 d5ba
000003c0: d0c0 3cbb 3325 37bc 6376 923b de15 eebb
000003d0: a1a9 abb9 dd71 2ebb 6cba 83bc 75d4 883b
000003e0: 0b3f 283c 60a9 00bb c8cf 303c 9fb1 f939
000003f0: 0f01 4639 edc5 f7bb 0f6f 693c b1ef c13b

action_model._discrete_distribution.branches.1.bias f4 [3]
0.00023731648 -0.00062885205 9.6215816e-05
00000000: 28d8 7839 8cd9 24ba 79c7 c938

action_model._discrete_distribution.branches.2.weight f4 [1, 128]
-0.007999967 -0.007407319 0.0059948624 0.0010167538 -0.0048362934 0.007621657 -0.003104339 -0.0030513655
0.0059191696 0.0064109648 0.0055760317 -0.018266935 0.0028349252 0.001419437 0.005542441 -0.0058956677
-0.0009842552 0.0016179158 -0.00033336162 -0.00952365 0.0005832372 0.00981734 -0.00512761 -0.006814956
-0.006409594 -0.008478771 0.0075599514 0.0040794364 -0.0027504307 -0.013784711 -0.0012442934 0.0099486215
0.011033632 -0.0075386404 -0.003952728 -0.00096192857 0.014271448 -0.006500212 -0.010662461 0.008754364
0.00045090137 -0.00014337292 0.0016963175 0.00066488085 0.016817898 0.014566109 0.0255642 0.010175325
0.026012713 -0.004999009 0.006351692 -0.0061565656 0.014712793 -0.006519921 -0.0065742554 0.018524637
0.012846929 -0.02003857 -0.0052155927 -0.0049187187 0.0014664271 0.008485786 -0.014206171 0.0021137646
0.015350184 0.012333913 -0.0009936166 -0.007602516 0.0023117827 0.023841659 0.0029427952 0.015220048
0.0032548967 -0.007096459 -0.0122169405 -0.015897576 0.0071898974 0.00030183868 -0.0074432753 -0.0007142946
-0.0006478925 -0.007081225 0.0075136325 -0.005464976 -0.0035756286 0.008628991 0.0036513656 0.015484735
0.0013177993 0.0052131056 -0.013935866 -0.0014732269 -0.010475963 -0.012709014 0.0061286 -0.0036315266
-0.0018274682 0.0017508168 0.0011431933 0.003052632 -0.002196982 -0.0025806339 -0.0044150054 0.026200179
0.02072276 -0.008596001 0.0001944563 0.0026549709 -0.00050673494 0.002773267 0.0047212695 0.011703609
0.002970315 0.0052942033 0.011858123 0.006881232 -0.020523181 -0.005288016 0.0048503107 -0.0009353721
0.0055187447 -0.012074268 -0.011794786 0.00934889 -0.012499506 -0.0127035035 -0.0039362996 -0.0024239034
00000000: 4b12 03bc 18b9 f2bb 8d70 c43b 9944 853a
00000010: c579 9ebb 18bf f93b 2a72 4bbb 6bf9 47bb
00000020: 98f5 c13b 1213 d23b 25b7 b63b 8aa4 95bc
00000030: 27ca 393b 670c ba3a 5d9d b53b 7230 c1bb
00000040: 2002 81ba 3f10 d43a 0ac7 aeb9 1509 1cbc
00000050: 63e4 183a e9d8 203c 8305 a8bb ff4f dfbb
00000060: 9207 d2bb 8bea 0abc 78b9 f73b cbac 853b
00000070: 9240 34bb 45d9 61bc 8f17 a3ba 8bff 223c
00000080: 68c6 343c b306 f7bb e385 81bb ef29 7cba
00000090: cbd2 693c bbff d4bb 9ab1 2ebc 776e 0f3c
000000a0: f566 ec39 6056 16b9 f856 de3a 664b 2e3a
000000b0: b0c5 893c b0a6 6e3c 036c d13c 68b6 263c
000000c0: 9d18 d53c bace a3bb db21 d03b 04bd c9bb
000000d0: ed0d 713c 10a5 d5bb da6c d7bb fbc0 973c
000000e0: ed7b 523c ed27 a4bc 90e7 aabb 342d a1bb
000000f0: 2135 c03a f707 0b3c 00c1 68bc 1687 0a3b
00000100: 577f 7b3c 2e14 4a3c 3e3c 82ba 871e f9bb
00000110: 4781 173b 954f c33c e9db 403b 825d 793c
00000120: 1b50 553b 6a89 e8bb 9029 48bc a23b 82bc
00000130: 3b99 eb3b 1a40 9e39 b8e6 f3bb 803f 3bba
00000140: 54d7 29ba 9f09 e8bb eb34 f63b 8b13 b3bb
00000150: 1855 6abb 9d60 0d3c c04b 6f3b b0b3 7d3c
00000160: 02ba ac3a b3d2 aa3b 4253 64bc 4b19 c1ba
00000170: 60a3 2bbc 7839 50bc 6cd2 c83b e8fe 6dbb
00000180: a887 efba aa7b e53a 34d7 953a ab0e 483b
00000190: 3efb 0fbb da1f 29bb c0ab 90bb c2a1 d63c
000001a0: c7c2 a93c 3ed6 0cbc f7e6 4b39 05ff 2d3b
000001b0: 68d6 04ba b3bf 353b e1b4 9a3b 7ec0 3f3c
000001c0: 9ea9 423b ff7a ad3b 9348 423c f57b e13b
000001d0: 3b20 a8bc 1847 adbb 5bef 9e3b c233 75ba
000001e0: 96d6 b43b 27d3 45bc eb3e 41bc 162c 193c
000001f0: baca 4cbc 5b22 50bc 13fc 80bb 5ada 1ebb

exp_avg f4 [128, 6]
-2.4527963e-06 5.8425327e-09 1.0898852e-06 -2.5383622e-06 8.752965e-08 3.8513062e-06 -1.2576277e-08 3.016958e-11
5.599815e-09 -1.3022371e-08 4.490474e-10 1.9758081e-08 1.1137954e-05 -3.180167e-08 2.8984603e-05 1.1487648e-05
-3.7246411e-07 1.7169634e-05 1.2200061e-15 -3.9843115e-18 -5.346654e-16 1.2606195e-15 -4.3469506e-17 -1.9130544e-15
-0.00037645866 -1.773885e-06 -0.0013157955 -0.0003356957 -2.5391035e-05 -0.0021071485 0.00031014753 1.2385456e-06
0.0015888098 0.00026820722 1.73514e-05 0.0021068372 -7.069364e-06 2.6490773e-07 -0.0013031947 5.0667586e-06
4.2797474e-06 -0.0010971691 -0.00032746902 -9.01969e-07 -0.0010757588 -0.00029803423 -1.3428257e-05 -0.0014676808
-0.0002808187 -8.532504e-07 -0.0008718638 -0.00026135746 -1.2047978e-05 -0.0012344632 6.332588e-10 2.8408025e-12
3.8443282e-10 5.723875e-10 4.0884823e-11 1.7989319e-09 -1.0039142e-05 2.8428303e-08 4.5023617e-06 -1.0420831e-05
3.5933888e-07 1.5810941e-05 0.00083144597 3.7156374e-06 0.0015601846 0.0007533168 5.3484666e-05 0.0032921203
-0.000365961 -1.5285865e-06 0.0009338383 -0.0003590333 -2.2253314e-05 0.00013591468 -9.580119e-05 -6.148861e-07
0.0026154672 -0.0001259385 -8.995663e-06 0.0022004545 0.00014662907 4.505616e-07 0.001502593 0.00012242205
6.380054e-06 0.0016330841 0.0003890449 1.8229641e-06 0.0024646735 0.00032320264 2.6074755e-05 0.0032389744
0.0011781628 5.840908e-06 -0.00064846204 0.0011042585 8.4714644e-05 0.0022489019 0.00030526117 1.2000836e-06
-0.0014472376 0.0003078849 1.7685723e-05 -0.000770139 2.4747927e-05 -5.8971782e-08 -1.1081904e-05 2.5653546e-05
-8.846039e-07 -3.8922575e-05 0.0004681016 2.191971e-06 -0.0003153492 0.00044155942 3.161461e-05 0.00077216007
2.5518693e-06 -1.589853e-08 3.027415e-05 2.712659e-06 -9.3541445e-08 2.738748e-05 -3.9621477e-06 -4.0145043e-08
-1.400109e-05 -3.2664384e-06 -5.400685e-07 -3.1914202e-05 0.00035824653 9.5148795e-07 0.0014094698 0.0003222084
1.3751001e-05 0.0017943353 3.7448294e-07 1.6938523e-09 2.6297323e-07 3.4543086e-07 2.4673627e-08 1.0856398e-06
0.00028892647 1.5118123e-06 0.0008606015 0.00025926906 2.17669e-05 0.0015348651 -0.00051452586 -1.8399551e-06
-0.0018286548 -0.0004639066 -2.5904763e-05 -0.002610008 -0.0010458127 -5.1849443e-06 -0.00023893724 -0.0009741499
-7.474665e-05 -0.0027422744 0.00017503549 6.6481687e-07 0.0009533071 0.00015270071 9.578191e-06 0.001227868
0.0013672597 6.064286e-06 0.0016122714 0.0012593168 8.716147e-05 0.00448441 -1.4718784e-26 -6.467753e-29
-7.55222e-27 -1.3027571e-26 -9.30541e-28 -4.0943798e-26 0.00013941206 7.260463e-07 0.00012116095 0.00012688067
1.0511969e-05 0.000464839 -1.8427353e-21 -7.998038e-24 -8.950064e-22 -1.6105333e-21 -1.1503808e-22 -5.0616757e-21
4.073439e-09 -1.3879918e-11 -1.7782396e-09 4.202235e-09 -1.4490423e-10 -6.3757772e-09 -1.917199e-11 5.794453e-14
8.337643e-12 -1.9799943e-11 6.8275577e-13 3.0041226e-11 0.00042715322 2.0052073e-06 0.00018552785 0.00038757472
2.8664566e-05 0.0011685991 0.00056417903 2.5091329e-06 0.0024328537 0.0005000798 3.5719968e-05 0.0035196152
2.291113e-12 9.2454154e-15 1.0143006e-11 1.8363594e-12 1.3116941e-13 1.3978573e-11 -1.9596753e-26 -8.537454e-29
-1.1982691e-26 -1.7190298e-26 -1.22788e-27 -5.402674e-26 3.469175e-05 1.5131168e-07 0.00015782949 3.1276828e-05
2.2340573e-06 0.0002248808 9.361091e-07 4.2506603e-09 6.144254e-07 8.5507696e-07 6.1076925e-08 2.6873852e-06
0.00029306783 1.1842596e-06 0.0012047031 0.00025693106 1.7080734e-05 0.0017236307 7.6222977e-22 3.38013e-24
4.381152e-22 6.808826e-22 4.863448e-23 2.139917e-21 0.0002289135 1.1682478e-06 0.00086293695 0.0002021006
00000000: b89a 24b6 76bf c831 2c48 9235 bb58 2ab6
00000010: eff7 bb33 783a 8136 0d0f 58b2 edaf 042e
00000020: 7e68 c031 feb8 5fb2 cedd f62f 7bb8 a932
00000030: 26dd 3a37 4e96 08b3 f623 f337 13bb 4037
00000040: 14f7 c7b4 8207 9037 48d2 af26 c2fe 92a2
00000050: 581b 1aa6 a7ac b526 bc77 48a4 a0d9 09a7
00000060: 6d5f c5b9 3916 eeb5 c576 acba 5000 b0b9
00000070: d5fe d4b7 1618 0abb 4c9b a239 1a3c a635
00000080: 9c3f d03a 2a9e 8c39 d98d 9137 dd12 0a3b
00000090: 6035 edb6 a438 8e34 f5cf aaba 2003 aa36
000000a0: c09a 8f36 e3ce 8fba 26b0 abb9 d61e 72b5
000000b0: 7a00 8dba 7a41 9cb9 ed49 61b7 325f c0ba
000000c0: d93a 93b9 ec0a 65b5 ca8d 64ba ce06 89b9
000000d0: ac21 4ab7 b6cd a1ba a011 2e30 59e7 472c
000000e0: 1c58 d32f 3156 1d30 38d0 332e 4a3e f730
000000f0: c96d 28b7 8032 f432 fe12 9736 21d5 2eb7
00000100: 29eb c034 bda1 8437 65f5 593a 2a5a 7936
00000110: 1c7f cc3a 3c7a 453a b954 6038 9dc0 573b
00000120: 74de bfb9 d529 cdb5 d4cc 743a a23c bcb9
00000130: a1ac bab7 5284 0e39 dfe8 c8b8 a70e 25b5
00000140: 4268 2b3b 5c0e 04b9 14ec 16b7 8035 103b
00000150: 71c0 1939 b7e4 f134 a8f2 c43a 6b5e 0039
00000160: 3f14 d636 360d d63a b9f8 cb39 92ac f435
00000170: 5c86 213b 8673 a939 1cbb da37 f944 543b
00000180: 956c 9a3a 05fd c336 8dfd 29ba c4bc 903a
00000190: d4a8 b138 5062 133b 760b a039 8f12 a135
000001a0: 3cb1 bdba 9d6b a139 cd5b 9437 27e3 49ba
000001b0: c599 cf37 2948 7db3 6aec 39b7 9232 d737
000001c0: 8475 6db5 cc40 23b8 896b f539 c619 1336
000001d0: 7455 a5b9 1a81 e739 ee99 0438 c96a 4a3a
000001e0: c840 2b36 3d91 88b2 3ef5 fd37 200b 3636
000001f0: f4e0 c8b3 2abe e537 97f2 84b6 f16b 2cb3
00000200: 39e6 6ab7 fc34 5bb6 3af9 10b5 9ddb 05b8
00000210: 09d3 bb39 c169 7f35 f5bd b83a 14ee a839
00000220: 19b4 6637 e72f eb3a 8b0c c934 21cd e830
00000230: c42e 8d34 a873 b934 e1f1 d332 4db6 9135
00000240: 0e7b 9739 7ae9 ca35 fd99 613a 81ee 8739
00000250: 1098 b637 872d c93a 3fe1 06ba 60f4 f6b5
00000260: 79af efba 7d38 f3b9 0e4e d9b7 ab0c 2bbb
00000270: a713 89ba 55fa adb6 3a8b 7ab9 185e 7fba
00000280: 4dc1 9cb8 bbb7 33bb bb89 3739 de75 3235
00000290: 5be7 793a 491e 2039 04b2 2037 6af0 a03a
000002a0: 9f35 b33a d27b cb36 da52 d33a a90f a53a
000002b0: 75ca b638 f5f1 923b 8dc4 9194 1efa a390
000002c0: 4e96 1594 d104 8194 3a73 9392 6ebe 4a95
000002d0: 242f 1239 86e5 4235 ca17 fe38 450b 0539
000002e0: 905c 3037 a2b5 f339 af3b 0b9d 5eb4 1a99
000002f0: e23f 879c 7d60 f39c 9012 0b9b 8639 bf9d
00000300: 59f6 8b31 982d 74ad 3e66 f4b0 4063 9031
00000310: ea52 1faf ee11 dbb1 7ca3 a8ad bf7a 8229
00000320: 68ad 122d 8229 aead bd2d 402b 6a1f 042e
00000330: 89f3 df39 3391 0636 418a 4239 6633 cb39
00000340: b074 f037 ae2b 993a 6ae5 133a 9362 2836
00000350: 8370 1f3b ca17 033a 06d2 1538 58a9 663b
00000360: 0639 212c f48c 2628 0a70 322d e938 012c
00000370: 02af 132a e5e9 752d ac13 c294 3f73 d890
00000380: 7657 6d94 953e aa94 bb90 c292 84c3 8595
00000390: fc81 1138 3d78 2234 087f 2539 3d2f 0338
000003a0: d0ec 1536 fbcd 6b39 ed48 7b35 340d 9231
000003b0: feee 2435 7188 6535 6529 8333 ed58 3436
000003c0: e6a6 9939 daf2 9e35 21e7 9d3a b4b4 8639
000003d0: 9948 8f37 73eb e13a ac5e 661c 30c3 8218
000003e0: 8669 041c bdc8 4d1c 922e 6b1a 04b0 211d
000003f0: 8008 7039 b0cc 9c35 b836 623a f7ea 5339

exp_avg_sq f4 [128, 6]
2.4958483e-10 1.5390524e-15 4.9234217e-11 2.674213e-10 3.1797996e-13 6.1560923e-10 1.7123059e-15 1.0595249e-20
3.374179e-16 1.8344423e-15 2.1812645e-18 4.2229293e-15 1.7655386e-08 1.0593512e-13 3.3621265e-07 1.8980533e-08
2.2758198e-11 4.229904e-07 1.5700602e-28 9.601833e-34 3.0981027e-29 1.6824125e-28 2.000482e-31 3.8724775e-28
1.7269139e-07 3.052702e-12 2.94767e-06 1.3450364e-07 6.308722e-10 6.1156e-06 6.392367e-07 1.1178419e-11
8.3598325e-06 5.786435e-07 2.333494e-09 1.8942645e-05 6.7999184e-07 1.3791618e-11 1.2650404e-05 5.3055476e-07
2.8788631e-09 2.6857797e-05 1.8529259e-07 1.322938e-12 1.1577405e-06 1.6073598e-07 2.685051e-10 2.397265e-06
2.2313141e-07 1.8424151e-12 1.5399361e-06 2.1914073e-07 3.8902984e-10 3.3086203e-06 2.2701927e-20 4.582198e-25
8.3784236e-21 1.8585396e-20 9.482345e-23 1.8357818e-19 1.7539033e-08 1.0668833e-13 3.452932e-09 1.8788889e-08
2.2341132e-11 4.3252456e-08 2.7640576e-07 5.5199365e-12 4.4051085e-06 2.1814304e-07 1.1368423e-09 9.618968e-06
2.0558441e-07 3.15927e-12 2.2380486e-06 1.7862486e-07 6.562408e-10 4.9359273e-06 2.1935052e-06 4.1877043e-11
3.4363813e-05 1.7131825e-06 8.7407255e-09 7.5172284e-05 1.232743e-06 2.5666849e-11 2.30338e-05 9.667774e-07
5.3713225e-09 4.9223218e-05 3.972629e-07 6.822718e-12 6.5447916e-06 3.144462e-07 1.4155668e-09 1.3548952e-05
1.3156686e-06 2.8682941e-11 2.3382177e-05 1.0455437e-06 5.9941097e-09 5.089422e-05 1.1283694e-06 2.0073039e-11
1.9336265e-05 8.8421945e-07 4.1856634e-09 4.0176972e-05 1.2404002e-08 7.289268e-14 2.451383e-09 1.3292616e-08
1.5805721e-11 3.0599885e-08 4.0088034e-07 7.585251e-12 6.378615e-06 3.120765e-07 1.5698051e-09 1.37653105e-05
2.36421e-08 1.4575442e-13 1.8980273e-08 2.5340736e-08 3.0131727e-11 7.7286415e-08 2.3045568e-07 1.3850889e-12
7.5095494e-07 2.4762306e-07 2.9200978e-10 1.9696483e-06 4.5343876e-07 3.8025082e-12 2.5007662e-06 4.703093e-07
8.018016e-10 6.004572e-06 3.5430175e-14 7.4547755e-19 1.8707712e-14 3.01977e-14 1.5406985e-16 2.9827933e-13
1.0016009e-07 1.6740972e-12 1.5623159e-06 8.131998e-08 3.5115386e-10 3.295423e-06 6.9805867e-07 1.6281369e-11
1.5904414e-05 5.481287e-07 3.3991339e-09 3.3161123e-05 6.3817873e-07 1.6453342e-11 1.0452497e-05 5.0327895e-07
3.4034764e-09 2.4508192e-05 1.0390402e-07 3.2462449e-12 2.834692e-06 8.954574e-08 6.746875e-10 6.110189e-06
1.1922618e-06 1.661193e-11 1.4690484e-05 9.922558e-07 3.4645655e-09 3.133967e-05 0.0 0.0
0.0 0.0 0.0 0.0 1.6687603e-07 1.4581037e-12 5.0792374e-07 1.6696644e-07
3.0321345e-10 1.4667297e-06 1.67e-43 0.0 3.6e-44 1.28e-43 0.0 1.232e-42
1.5829059e-14 9.659779e-20 3.1212641e-15 1.6959766e-14 2.0166189e-17 3.9041734e-14 1.7838567e-19 1.0462394e-24
3.5230485e-20 1.9115385e-19 2.272937e-22 4.4004044e-19 1.2459617e-07 7.1881373e-13 4.1714353e-07 1.2740823e-07
1.5098583e-10 7.9298877e-07 1.848253e-06 3.5119817e-11 3.1682317e-05 1.4357141e-06 7.3250703e-09 6.7628585e-05
2.5290993e-24 4.4279188e-29 4.4596083e-23 1.7511223e-24 8.934341e-27 8.9630225e-23 0.0 0.0
0.0 0.0 0.0 0.0 2.4638677e-08 4.812043e-13 3.8705065e-07 1.9434337e-08
9.915479e-11 8.283917e-07 2.777811e-13 5.5781644e-18 1.03277474e-13 2.2661048e-13 1.156176e-15 2.2383564e-12
6.023902e-08 3.6416473e-12 2.0981108e-06 5.405351e-08 7.437646e-10 5.1493525e-06 6.2e-44 0.0
8e-45 4.2e-44 0.0 4.55e-43 1.610141e-07 2.8602535e-12 2.3926466e-06 1.3260409e-07
00000000: f135 892f 03cd dd26 cd88 582e 3404 932f
00000010: be01 b32a a637 2930 f0c4 f626 7b23 481e
00000020: 1882 c225 7d2f 0427 ecf2 2022 a625 9827
00000030: 9ba8 9732 708b ee29 b780 b434 a20a a332
00000040: e82e c82d 5c17 e334 5e07 4711 ae89 9f08
00000050: ac17 1d10 6845 5511 b5d6 810c 8a72 f511
00000060: 0c6d 3934 97d0 562c 96d0 4536 146c 1034
00000070: af69 2d30 9b34 cd36 0398 2b35 20a7 442d
00000080: 3541 0c37 1454 1b35 435b 2031 05e7 9e37
00000090: af88 3635 ed9f 722d 123d 5437 726b 0e35
000000a0: 7fd5 4531 ae4c e137 d7f4 4634 dd2f ba2b
000000b0: a963 9b35 c596 2c34 bc9c 932f b3e0 2036
000000c0: e595 6f34 00a6 012c cdaf ce35 f24c 6b34
000000d0: 15df d52f aa09 5e36 e469 d61e eacf 0d17
000000e0: 9243 1e1e bb88 af1e df44 e51a 1abb 5820
000000f0: bea8 9632 a33d f029 9f48 6d31 3465 a132
00000100: c283 c42d 94c4 3933 eb64 9434 2b37 c22c
00000110: 98cf 9336 b43a 6a34 153f 9c30 2761 2137
00000120: 9dbe 5c34 5950 5e2c 6231 1636 07cc 3f34
00000130: d762 3430 4b9f a536 2234 1336 5c2d 382e
00000140: dd21 1038 81f0 e535 1e2a 1632 d0a5 9d38
00000150: ba74 a535 9bc4 e12d b538 c137 38c2 8135
00000160: a78e b831 0775 4e38 6647 d534 950d f02c
00000170: 559b db36 28d1 a834 d48d c230 4e50 6337
00000180: 0796 b035 3e4c fc2d d824 c437 9c54 8c35
00000190: bff4 cd31 4177 5538 7a72 9735 7790 b02d
000001a0: 5034 a237 195b 6d35 7cd1 8f31 b283 2838
000001b0: 6119 5532 c523 a429 3075 2831 8b5d 6432
000001c0: 5207 8b2d ee6c 0333 9338 d734 ef70 052d
000001d0: e307 d636 788b a734 9bc0 d730 8ff1 6637
000001e0: 8715 cb32 da1a 242a 100a a332 deac d932
000001f0: 4f85 042e a8f8 a533 2d73 7734 16ef c22b
00000200: 3b95 4935 0ef1 8434 b988 a02f 4d2e 0436
00000210: 2670 f334 f3c9 852c d6d2 2736 d17e fc34
00000220: c665 5c30 e17a c936 3690 1f29 b106 5c21
00000230: 0c81 a828 94ff 0729 65a1 3125 95ea a72a
00000240: 9817 d733 b59b eb2b c4b0 d135 22a2 ae33
00000250: 830c c12f f026 5d36 3a62 3b35 6236 8f2d
00000260: 786a 8537 1e23 1335 3296 6931 7c16 0b38
00000270: 4f4f 2b35 a2b9 902d 225d 2f37 1119 0735
00000280: 97e2 6931 f196 cd37 d721 df33 266f 642c
00000290: a33b 3e36 4b4c c033 e974 3930 2006 cd36
000002a0: ce05 a035 be1e 922d 2677 7637 a62d 8535
000002b0: 4815 6e31 b772 0338 0000 0000 0000 0000
000002c0: 0000 0000 0000 0000 0000 0000 0000 0000
000002d0: 892e 3334 b935 cd2b 4158 0835 6347 3334
000002e0: 80b1 a62f 73dc c435 7700 0000 0000 0000
000002f0: 1a00 0000 5b00 0000 0000 0000 6f03 0000
00000300: 5393 8e28 c815 e41f 29e9 6027 8fc2 9828
00000310: 1100 ba23 0ed4 2f29 c399 5220 d0e5 a117
00000320: 0b5f 261f b5ac 6120 ff63 891b 84e0 0121
00000330: bcc8 0534 fd53 4a2b c5f3 df34 b5cd 0834
00000340: bc02 262f c6dd 5435 7d11 f835 6675 1a2e
00000350: a1e2 0438 c3b2 c035 00b0 fb31 d2d3 8d38
00000360: f9ad 4318 ac85 6010 47a7 571a 8d7c 0718
00000370: 7ef6 3014 6cb6 d81a 0000 0000 0000 0000
00000380: 0000 0000 0000 0000 0000 0000 0000 0000
00000390: 06a5 d332 6d72 072b d6cb cf34 8ff0 a632
000003a0: 2f0b da2e a55e 5e35 7a60 9c2a 46cc cd22
000003b0: 698f e829 0624 7f2a 5e9f a626 a582 1d2c
000003c0: c05c 8133 0b21 802c 45cd 0c36 7628 6833
000003d0: c871 4c30 9ac8 ac36 2c00 0000 0000 0000
000003e0: 0600 0000 1e00 0000 0000 0000 4501 0000
000003f0: 38e3 2c34 bf45 492c 5b91 2036 ef61 0e34
