results/ppo/ControlCar/ControlCar-4160.pt (torch, 163817 bytes, 15 tensors)

discrete_act_size_vector f4 [1, 3]
000000 00 00 40 40 00 00 40 40 00 00 80 3f
       3.0 3.0 1.0

network_body._body_endoder.seq_layers.0.weight f4 [128, 16]
000000 52 ce 88 be 17 31 02 3f d2 bd d2 3d fc 21 e6 3c
       -0.2671991 0.50856155 0.102901116 0.028092377
000010 99 1d ae bd c7 06 96 be ad 28 a9 3e fe 28 ec 3d
       -0.08501739 -0.29302046 0.33038846 0.11531256
000020 84 6a c9 be 9f 5f 11 be de e2 c4 3c 33 57 46 bd
       -0.39339077 -0.14196633 0.02403396 -0.048423003
000030 9e 42 21 be f6 c2 15 3e f7 85 0d bf 03 62 ba be
       -0.15748069 0.14625153 -0.5528254 -0.36402902
000040 ef 37 43 be e3 ce 66 bc bd 89 a9 3a 46 23 20 be
       -0.19064306 -0.014087412 0.0012934726 -0.15638456
000050 30 a5 d8 3e 99 24 43 3e 77 79 90 3c 7b 2e 16 3d
       0.42313528 0.1905693 0.017636044 0.03666542
000060 19 37 a3 be 0b 1d e5 bb 1e cd a7 3d 29 b0 e2 bd
       -0.31877974 -0.0069919876 0.0819342 -0.11068756
000070 32 94 62 3c 8f 56 ca 3e 3e 25 2c 3e 79 3d f3 3c
       0.013829278 0.39519164 0.16811082 0.029692398
000080 79 ae 38 ba 3a 46 0e be b0 0c 08 3e 84 09 8b be
       -0.00070450414 -0.13893977 0.1328609 -0.27155697
000090 11 7b d6 be 18 9b b7 bd 44 b2 2e be 3c a6 0f be
       -0.41890767 -0.08965129 -0.1706019 -0.14028257
0000a0 ba ac 4f be ca 7e 93 3e 45 c3 52 be cd c4 11 be
       -0.20280734 0.2880767 -0.20582302 -0.1423523
0000b0 52 56 b8 bd b4 e7 11 3e ea 3c 6b 3e a3 80 c7 bd
       -0.09000839 0.14248544 0.22972456 -0.097413324
0000c0 85 dd 9c be d2 7f 12 3e 00 a2 3e 3e 27 0b 99 3c
       -0.30637756 0.14306572 0.18616486 0.018682076
0000d0 50 bb 83 be 09 b9 5f 3e 7a ec de 3e a9 eb 95 3e
       -0.25728846 0.21847929 0.43539792 0.29281357
0000e0 56 aa 70 be f4 fa 46 be f4 bd 5e bd 30 f3 a8 3e
       -0.23502478 -0.19431669 -0.054380372 0.32998037
0000f0 ed ab fc bc d6 9b 1d bf cf a6 a6 3d 5c 5c fa 3c
       -0.0308437 -0.6156591 0.08137285 0.030561619
000100 03 e8 b2 3c 1b d0 26 be 1e 5f b8 3d da 05 da bc
       0.021839147 -0.16290323 0.09002517 -0.026614118
000110 42 e2 03 bf a2 76 76 be 60 ae e8 3d f9 11 3c bd
       -0.5151712 -0.24068692 0.113613844 -0.045915578
000120 7d f8 10 bf 26 71 34 3d ac f9 bf be 41 7e 0b be
       -0.56629163 0.04405322 -0.37495172 -0.13622381
000130 a7 74 88 be 6e ca e5 bd 45 7f c0 be 19 11 1f 3f
       -0.266515 -0.11220251 -0.375971 0.62135464
000140 57 c8 e1 3b 53 45 97 3e fb 93 ca be f7 70 8d be
       0.0068903374 0.29545078 -0.39566025 -0.27625248
000150 0d 80 03 3f 9d 46 43 3e b7 a9 70 bc cc 14 81 bd
       0.51367265 0.19069906 -0.014688901 -0.06302795
000160 7e 94 06 be 23 b5 a2 3e 17 f6 18 bf 7c c3 d6 3d
       -0.13142583 0.3177882 -0.59750503 0.104865044
000170 a3 ac 0d 3d 13 5b cf be 77 50 7e 3e c1 6a 8d 3e
       0.034588467 -0.40499172 0.24835382 0.2762051
000180 d5 3a 72 3e 45 f4 82 be d8 26 62 be 00 64 a6 be
       0.23655255 -0.25576988 -0.2208513 -0.3249817
000190 47 a2 00 be a5 45 ab be a9 7e 03 3e cf 3a 32 be
       -0.12561904 -0.33451572 0.12841286 -0.17405246
0001a0 eb 2f 6c be 1e a3 92 bc 56 f0 c9 bd a7 4c ab be
       -0.23065154 -0.017900046 -0.098602936 -0.3345692
0001b0 39 af 97 be fa c9 f2 3d 9d 08 09 be cd d8 71 be
       -0.29625872 0.1185493 -0.13382192 -0.23617859
0001c0 32 03 1c 3e 87 a4 7a 3e 62 7d 5c bd 63 6b b2 be
       0.15235594 0.24476825 -0.053830512 -0.34847555
0001d0 86 eb 09 3e a5 ac 52 3e 3e 6d a1 be cf 36 a8 be
       0.13468751 0.20573671 -0.31528658 -0.32854316
0001e0 51 29 c8 be 1e 28 9d 39 31 57 8f be a7 3e 26 3e
       -0.39094022 0.00029975263 -0.2799621 0.16234837
0001f0 28 ed f0 3d 21 a8 8d bd 70 26 8f 3e b2 ca 20 3e
       0.11763984 -0.06916834 0.27959013 0.15702322
000200 bb ab 46 be 38 e6 6c 3e 70 6f 2b 3d 1b 62 a4 be
       -0.19401447 0.23134696 0.041854322 -0.321061
000210 9a c4 ea bd d2 cc 00 3e 92 52 e0 bd 08 4b 9c 3e
       -0.1146328 0.12578133 -0.10953249 0.30525994
000220 8e 20 7b be fa 0e a3 3e 87 ac 49 be a5 0d db 3e
       -0.24524137 0.31847364 -0.1969472 0.42783847
000230 2f bb bc be b2 d3 71 3e ad e3 93 3e 33 a6 3d bd
       -0.3686156 0.23615912 0.2888464 -0.046301078
000240 e5 f6 20 be e1 31 a1 be d9 85 de bd 0b a2 e3 3e
       -0.15719183 -0.31483367 -0.10865373 0.44459566
000250 08 40 21 3e 5b b6 42 be 43 62 07 3c f3 fa d0 3e
       0.15747082 -0.19014876 0.0082631735 0.4081646
000260 e3 0f c4 be 97 c8 35 3e 79 9e 33 3d 83 fc 46 3e
       -0.3829337 0.177523 0.043852303 0.19432263
000270 ce be 8f 3e fa aa a2 be b7 4d 15 3d 2e 79 66 be
       0.2807526 -0.3177107 0.036451068 -0.22507164
000280 44 92 be 3b 64 98 32 3f 28 eb 63 bd e8 88 f3 3c
       0.005815776 0.6976378 -0.055644184 0.029728368
000290 e6 27 7f be dd 82 89 be 90 11 a1 be 8c eb c1 be
       -0.24917564 -0.26857653 -0.31458712 -0.3787502
0002a0 e4 26 c2 bb 09 b5 d9 bd eb 49 91 bd ec 56 e4 3e
       -0.0059250463 -0.10630233 -0.07094177 0.44597566
0002b0 4f ca 5a 3e e3 0d 91 3a 85 8c c4 3e 4d 83 90 be
       0.21366237 0.0011066761 0.38388458 -0.28225175
0002c0 ac 6c 68 3e 1d 9d 8e be 47 0b c2 3d 80 42 8f 3e
       0.22697705 -0.27854243 0.09474807 0.27980423
0002d0 5c 39 fe bd d9 b0 af be 6d 6b 9a be 9b 88 37 3d
       -0.12413284 -0.34314612 -0.30160084 0.04480801
0002e0 97 74 8a 3c 69 5d 2b bc 87 70 89 3e 88 1c 35 be
       0.016901297 -0.010459282 0.26843664 -0.17686665
0002f0 9b 65 14 bd 0a 4f 80 ba b1 d7 b2 be 7c 9d 2d 3f
       -0.03622971 -0.000978918 -0.34930184 0.6781843
000300 b1 8a fc bb 5c 8b d1 be e2 79 b5 3e 35 17 42 3d
       -0.007706963 -0.40926635 0.35444552 0.047385413
000310 d8 94 d4 bb cd d2 c0 be 29 4a 66 be a0 f0 23 3f
       -0.00648747 -0.37660828 -0.22489227 0.6403904
000320 4f 16 d4 3e f7 df 73 bd fd 93 89 be b5 17 1d be
       0.4142327 -0.05953976 -0.2687072 -0.15341075
000330 8d 3c e9 3e 45 78 9e 3e 96 79 06 be 78 7d 35 3e
       0.4555401 0.30951133 -0.13132319 0.17723644
000340 27 91 0d 3f 7f 96 ef be c6 96 f9 bd e9 31 18 bf
       0.5529961 -0.46794507 -0.12186961 -0.59451157
000350 61 49 b0 3c ed bb 33 3f 69 ce a5 be 6b 62 77 be
       0.021519365 0.70208627 -0.3238404 -0.24158637
000360 24 89 4c be 53 a6 20 bf 23 52 86 be d7 a0 28 be
       -0.1997419 -0.6275379 -0.2623454 -0.16467606
000370 0b 70 b6 3e 55 90 60 bd f6 19 ee be 3c 2d d0 bd
       0.35632357 -0.054825146 -0.46504182 -0.10164878
000380 fc 32 33 bd 01 76 db 3e a4 19 11 bc f3 d9 5b bd
       -0.043749794 0.42863467 -0.008856211 -0.05367465
000390 38 b2 28 3e 86 94 78 3e cb 9c b7 bd f1 9b 36 3e
       0.16474235 0.24275407 -0.08965453 0.17832924
0003a0 d3 3b a1 3e 2d d2 67 3e d5 f5 8b be 19 ac 11 be
       0.31490955 0.2263877 -0.27335992 -0.14225806
0003b0 5b 75 68 be 26 94 8c 3e d9 ce cc 3c 08 dc 2d bb
       -0.22701018 0.27456778 0.025000976 -0.0026528854
0003c0 4c 99 da 3d 69 b6 3b 3e 0e 0e c1 3d e4 36 0c 3d
       0.1067377 0.18331303 0.09426509 0.034232035
0003d0 f9 19 2d 3b 88 31 8c be 4b 06 c3 3e cd 24 5e 3d
       0.0026413186 -0.2738154 0.3809074 0.054234315
0003e0 d6 0d 57 bd a1 2c b2 3e 3a bd 00 3f 30 73 b9 be
       -0.05250343 0.34799674 0.50288737 -0.36220694
0003f0 a9 4c 11 3e a1 ca a0 3d d0 e5 88 be 39 6e 18 3e
       0.141894 0.078511484 -0.26737833 0.14885797

network_body._body_endoder.seq_layers.0.bias f4 [128]
000000 00 00 00 00 00 00 00 00 00 00 00 00 00 00 00 00
       0.0 0.0 0.0 0.0
000010 00 00 00 00 00 00 00 00 00 00 00 00 00 00 00 00
       0.0 0.0 0.0 0.0
000020 00 00 00 00 00 00 00 00 00 00 00 00 00 00 00 00
       0.0 0.0 0.0 0.0
000030 00 00 00 00 00 00 00 00 00 00 00 00 00 00 00 00
       0.0 0.0 0.0 0.0
000040 00 00 00 00 00 00 00 00 00 00 00 00 00 00 00 00
       0.0 0.0 0.0 0.0
000050 00 00 00 00 00 00 00 00 00 00 00 00 00 00 00 00
       0.0 0.0 0.0 0.0
000060 00 00 00 00 00 00 00 00 00 00 00 00 00 00 00 00
       0.0 0.0 0.0 0.0
000070 00 00 00 00 00 00 00 00 00 00 00 00 00 00 00 00
       0.0 0.0 0.0 0.0
000080 00 00 00 00 00 00 00 00 00 00 00 00 00 00 00 00
       0.0 0.0 0.0 0.0
000090 00 00 00 00 00 00 00 00 00 00 00 00 00 00 00 00
       0.0 0.0 0.0 0.0
0000a0 00 00 00 00 00 00 00 00 00 00 00 00 00 00 00 00
       0.0 0.0 0.0 0.0
0000b0 00 00 00 00 00 00 00 00 00 00 00 00 00 00 00 00
       0.0 0.0 0.0 0.0
0000c0 00 00 00 00 00 00 00 00 00 00 00 00 00 00 00 00
       0.0 0.0 0.0 0.0
0000d0 00 00 00 00 00 00 00 00 00 00 00 00 00 00 00 00
       0.0 0.0 0.0 0.0
0000e0 00 00 00 00 00 00 00 00 00 00 00 00 00 00 00 00
       0.0 0.0 0.0 0.0
0000f0 00 00 00 00 00 00 00 00 00 00 00 00 00 00 00 00
       0.0 0.0 0.0 0.0
000100 00 00 00 00 00 00 00 00 00 00 00 00 00 00 00 00
       0.0 0.0 0.0 0.0
000110 00 00 00 00 00 00 00 00 00 00 00 00 00 00 00 00
       0.0 0.0 0.0 0.0
000120 00 00 00 00 00 00 00 00 00 00 00 00 00 00 00 00
       0.0 0.0 0.0 0.0
000130 00 00 00 00 00 00 00 00 00 00 00 00 00 00 00 00
       0.0 0.0 0.0 0.0
000140 00 00 00 00 00 00 00 00 00 00 00 00 00 00 00 00
       0.0 0.0 0.0 0.0
000150 00 00 00 00 00 00 00 00 00 00 00 00 00 00 00 00
       0.0 0.0 0.0 0.0
000160 00 00 00 00 00 00 00 00 00 00 00 00 00 00 00 00
       0.0 0.0 0.0 0.0
000170 00 00 00 00 00 00 00 00 00 00 00 00 00 00 00 00
       0.0 0.0 0.0 0.0
000180 00 00 00 00 00 00 00 00 00 00 00 00 00 00 00 00
       0.0 0.0 0.0 0.0
000190 00 00 00 00 00 00 00 00 00 00 00 00 00 00 00 00
       0.0 0.0 0.0 0.0
0001a0 00 00 00 00 00 00 00 00 00 00 00 00 00 00 00 00
       0.0 0.0 0.0 0.0
0001b0 00 00 00 00 00 00 00 00 00 00 00 00 00 00 00 00
       0.0 0.0 0.0 0.0
0001c0 00 00 00 00 00 00 00 00 00 00 00 00 00 00 00 00
       0.0 0.0 0.0 0.0
0001d0 00 00 00 00 00 00 00 00 00 00 00 00 00 00 00 00
       0.0 0.0 0.0 0.0
0001e0 00 00 00 00 00 00 00 00 00 00 00 00 00 00 00 00
       0.0 0.0 0.0 0.0
0001f0 00 00 00 00 00 00 00 00 00 00 00 00 00 00 00 00
       0.0 0.0 0.0 0.0

network_body._body_endoder.seq_layers.2.weight f4 [128, 128]
000000 8d 97 a4 bb c0 89 e2 bd 80 bf 06 3e 07 a3 c0 bd
       -0.005022949 -0.1106143 0.13158989 -0.09406095
000010 22 2a 43 bd c4 3c 8d bc 03 f8 89 3d c9 0e 03 3c
       -0.047647603 -0.01724089 0.067367576 0.0079991305
000020 31 e3 93 3c 6f 27 b7 3c f1 67 6c 3d d2 8f 6a bc
       0.01805267 0.02235767 0.057716314 -0.014316516
000030 61 f7 7f bc c6 3d 9b 3d bb 8d 4a bc 9e 00 ef bd
       -0.015622945 0.07580142 -0.012362893 -0.116700396
000040 e7 04 97 3d ab e2 ba 3b db 10 1f 3e 8d d2 7f 3d
       0.07373982 0.0057032905 0.15533774 0.062456656
000050 44 be 69 bd 13 cd ee bc ef 31 b4 3d 62 71 13 bd
       -0.057066217 -0.029150521 0.087985866 -0.035996802
000060 d2 21 0e 3b 41 3e 04 be 1d 0b 9e bd 7f 52 78 3c
       0.002168764 -0.12914373 -0.077169634 0.015156387
000070 4a 1e dc bc f8 07 d8 3d 4e 5e 30 bd d6 3e b1 3c
       -0.026869912 0.10548395 -0.043058686 0.021636408
000080 76 2e 84 bd 6d db 14 3d 47 55 c4 3d bf 4e 7a bd
       -0.06454174 0.036342073 0.09586578 -0.061110254
000090 25 b6 8e bc 90 fc aa bd fa 39 0f 3c e7 8b 9d 3b
       -0.017420838 -0.08348954 0.00874185 0.0048079374
0000a0 88 91 02 be 48 09 ab bb e2 46 d2 bc bc 04 4f 3c
       -0.12750828 -0.0052196123 -0.025668565 0.012635406
0000b0 45 3e 0e be 09 13 37 3d ff 3c d6 bd 63 a1 e3 3c
       -0.13890941 0.044695888 -0.10460853 0.027786916
0000c0 bb f6 32 bd 29 66 4c bd 5b e2 d6 3b 8e f3 2a 3e
       -0.04369233 -0.049902115 0.0065577454 0.16694471
0000d0 72 b5 26 3e ee 26 83 bd b0 19 18 be bc 65 ed bd
       0.16280153 -0.064039096 -0.14853549 -0.1159167
0000e0 33 ae 85 bc 8e 29 e8 bd 49 41 ad 3c 4d a7 ef 3d
       -0.016318416 -0.11336051 0.021149294 0.11701832
0000f0 15 2b 3e 3d 61 ee f5 ba a9 14 d9 bd 05 8e 95 bd
       0.046427805 -0.0018763059 -0.10599644 -0.07302479
000100 d3 01 23 3d 76 5f fb 3c 63 3d 28 be d6 c4 09 3b
       0.03979666 0.030685168 -0.16429667 0.0021021864
000110 1b c7 f6 bc f7 73 88 3d ce 44 94 bb 68 b5 1f 3d
       -0.030124238 0.066627435 -0.0045248037 0.03899136
000120 b8 c6 35 3d ff 8b 8a 3d 23 58 50 3d 2c c7 2c 3d
       0.044378966 0.067649834 0.050865304 0.042182133
000130 36 1f 24 bd 86 b0 3a 3d ee ab 95 bd 4d 7d 4a 3d
       -0.040068828 0.045578502 -0.073081836 0.049435902
000140 ee 63 37 be 23 69 61 3d 4d c3 51 3c c8 18 4d 3d
       -0.17909214 0.055031907 0.012802911 0.05007246
000150 cd 06 8d bd 20 d1 f3 bb 29 3f 51 3d 5e 1a c7 bc
       -0.06886063 -0.007440701 0.051085625 -0.024304565
000160 d5 e1 db bd 83 d5 a1 3c 87 bc cc bc 07 1f 9d bd
       -0.107364334 0.01975513 -0.02499224 -0.076719336
000170 c2 ae f1 bc b0 05 b2 bd 7d 49 07 3e b8 67 1c 3c
       -0.029502276 -0.08692491 0.13211627 0.009546213
000180 b3 78 73 bc 00 d8 a2 bc 78 75 82 bd dd 31 a2 bd
       -0.01486032 -0.019878387 -0.06370062 -0.07919667
000190 fc f0 23 bb 53 a1 32 3e 5d 64 18 bd 5d 69 03 3c
       -0.0025015464 0.17444353 -0.03720509 0.008020726
0001a0 63 98 9a bd e1 bc dd bd 7f df 1e 3c 80 df 09 3d
       -0.07548597 -0.108270414 0.00969684 0.03366041
0001b0 ab 95 2d bd ca 39 dd 3d 81 e7 2b bb ea d3 00 3c
       -0.042379063 0.10802038 -0.0026230516 0.007863024
0001c0 c6 df 11 be cf e2 15 3e b8 58 57 3d 35 93 d2 bd
       -0.14245519 0.14637302 0.052574843 -0.10281984
0001d0 f6 e2 24 bc 61 84 5d 3b ea 37 8f 3c b4 de 9f 3d
       -0.010063877 0.0033800828 0.017482717 0.07806149
0001e0 18 c2 46 3d 35 89 03 be 26 68 ee 3d f5 20 31 3e
       0.048524946 -0.12845309 0.116409585 0.17297728
0001f0 da 54 c6 bc 5e fb 5f 3d f7 18 17 3d 44 45 91 3c
       -0.024210382 0.05468308 0.036889043 0.017733224
000200 95 f3 0d 3d 7e 8a b0 3d 32 b2 b7 bd 5e 77 45 be
       0.034656126 0.08620165 -0.08969535 -0.19283816
000210 c4 28 ed bd c8 79 43 be 75 1e ed bc cb af 1c ba
       -0.11580041 -0.19089425 -0.028945187 -0.0005977123
000220 50 3a 43 be c2 6f 83 bc fd c5 83 3c 4c 33 23 be
       -0.19065213 -0.016044501 0.01608562 -0.15937537
000230 54 be 5f bd d7 e2 29 be c8 53 b4 3d 9c 71 10 bd
       -0.05462487 -0.16590439 0.088050425 -0.035264596
000240 cf d1 34 bc ed 0a f3 bc 7f ae f8 3d 8d 4d fe bb
       -0.01103635 -0.029668296 0.121426575 -0.0077607096
000250 c3 6f 63 3d 50 1d e5 3c 1c 80 77 3e 55 08 38 bd
       0.055526506 0.027968079 0.24169964 -0.04492982
000260 cc 77 e4 3d 44 80 67 3d 0c 12 b6 3c dc f7 4e bc
       0.11155662 0.056518808 0.022225402 -0.0126323365
000270 31 3e 7e 3d b7 e9 e3 3c 3c c4 1a bd 6e 52 19 be
       0.06207103 0.027821405 -0.0377848 -0.1497285
000280 45 db 65 be 64 0f ee 3d f3 c5 7d be 55 55 29 be
       -0.22446926 0.11624029 -0.24782543 -0.16536458
000290 2c 08 fd 3c 34 ad 5d bd 5d d3 9d 3d e9 1a d0 3d
       0.030887686 -0.054120257 0.0770633 0.10161383
0002a0 4e 37 7b 3d ea e2 c2 bc 32 ce 37 bd 1c f3 db bd
       0.06133204 -0.023789842 -0.044874378 -0.10739729
0002b0 e9 c2 ee 3d 89 62 d7 3d 6a 69 e6 bd 35 ab 9b 3c
       0.1165827 0.10516841 -0.11250575 0.019002536
0002c0 97 3d 22 bc 62 b5 8c 3d 43 33 d2 3d f1 c9 92 3c
       -0.0099023795 0.068705335 0.10263684 0.017918559
0002d0 ec 3a fb bc 11 07 4a bd 61 0b 4e 3d 9f ac 2b 3e
       -0.030667745 -0.049323145 0.05030382 0.16765068
0002e0 b4 3d 11 be 88 4a 70 3d 91 7f c4 bd 41 9f e0 3d
       -0.14183694 0.05866483 -0.09594644 0.10967875
0002f0 e6 33 a0 3c 03 90 4e bd 01 41 c5 3d 00 9c 28 bc
       0.019555997 -0.05043031 0.09631539 -0.0102911
000300 c6 2c d7 3d b6 29 80 bd 24 41 15 3e f9 ed c6 bd
       0.10506587 -0.06257956 0.1457563 -0.097133584
000310 bc a4 0a 3d 6a 70 77 bd d6 eb 9c 3d a9 0e c7 3c
       0.03384851 -0.06040994 0.0766217 0.024298983
000320 a1 39 87 bd 2b a4 d3 3d 4c 3e ef 3b fb e1 e1 bd
       -0.06602789 0.10334047 0.0073011275 -0.110294305
000330 02 22 06 3e 9a e1 b5 bd 08 9b 6e 3d 76 25 8c 3d
       0.1309891 -0.08880921 0.058253318 0.068430826
000340 6e 2b 1f 3e 54 8d dc 3d d2 cb 1d 3d 84 94 a7 3d
       0.15543911 0.10769144 0.038524456 0.08182624
000350 3d 3e 56 be 05 34 7d 3d 9e bc bb 3d 38 11 8b bd
       -0.2092218 0.061817188 0.09166835 -0.067903936
000360 ca de 2c bd 9a 6e a0 3d 2e 07 8e 3d 73 a4 95 3c
       -0.042204656 0.078335956 0.06934963 0.018266892
000370 36 fa 4e 3b df a1 1b 3e 4b b0 1d 3e dc 04 36 be
       0.0031582243 0.15198468 0.15399282 -0.17775291
000380 f6 28 1a bd 4e b4 93 bd c1 b1 f8 bc b8 ff 94 3d
       -0.03763672 -0.07212125 -0.030358197 0.07275337
000390 40 e6 32 3c 71 6f a0 bd 00 bf ad 3d f0 18 03 3e
       0.010919154 -0.07833756 0.08483696 0.12802482
0003a0 08 04 44 bd ff 44 0b bd 62 94 c0 bd 6a 5d 31 3d
       -0.047855407 -0.034001347 -0.09403302 0.043301977
0003b0 4a d6 0f 3b 8e f1 f8 3c af e5 22 3c 17 f0 95 bc
       0.0021947795 0.03038862 0.009942456 -0.01830296
0003c0 f9 c7 ac bb 4b 73 11 be e1 f9 19 3d d5 96 86 bd
       -0.005272862 -0.14204137 0.03759182 -0.06571738
0003d0 19 8b 21 be c1 3b 0c 3e 14 da b1 3d 9d 8e 0d 3d
       -0.15775718 0.1369467 0.08684173 0.034559835
0003e0 2a a1 b1 3c 5e a6 84 3d c1 f4 b2 bb 73 f3 cf 3d
       0.021683294 0.064770445 -0.005461306 0.10153856
0003f0 35 b9 b7 3d db c9 29 3c 9d 71 e7 bd 22 06 9f bc
       0.08970872 0.0103630675 -0.11300967 -0.019412104

network_body._body_endoder.seq_layers.2.bias f4 [128]
000000 00 00 00 00 00 00 00 00 00 00 00 00 00 00 00 00
       0.0 0.0 0.0 0.0
000010 00 00 00 00 00 00 00 00 00 00 00 00 00 00 00 00
       0.0 0.0 0.0 0.0
000020 00 00 00 00 00 00 00 00 00 00 00 00 00 00 00 00
       0.0 0.0 0.0 0.0
000030 00 00 00 00 00 00 00 00 00 00 00 00 00 00 00 00
       0.0 0.0 0.0 0.0
000040 00 00 00 00 00 00 00 00 00 00 00 00 00 00 00 00
       0.0 0.0 0.0 0.0
000050 00 00 00 00 00 00 00 00 00 00 00 00 00 00 00 00
       0.0 0.0 0.0 0.0
000060 00 00 00 00 00 00 00 00 00 00 00 00 00 00 00 00
       0.0 0.0 0.0 0.0
000070 00 00 00 00 00 00 00 00 00 00 00 00 00 00 00 00
       0.0 0.0 0.0 0.0
000080 00 00 00 00 00 00 00 00 00 00 00 00 00 00 00 00
       0.0 0.0 0.0 0.0
000090 00 00 00 00 00 00 00 00 00 00 00 00 00 00 00 00
       0.0 0.0 0.0 0.0
0000a0 00 00 00 00 00 00 00 00 00 00 00 00 00 00 00 00
       0.0 0.0 0.0 0.0
0000b0 00 00 00 00 00 00 00 00 00 00 00 00 00 00 00 00
       0.0 0.0 0.0 0.0
0000c0 00 00 00 00 00 00 00 00 00 00 00 00 00 00 00 00
       0.0 0.0 0.0 0.0
0000d0 00 00 00 00 00 00 00 00 00 00 00 00 00 00 00 00
       0.0 0.0 0.0 0.0
0000e0 00 00 00 00 00 00 00 00 00 00 00 00 00 00 00 00
       0.0 0.0 0.0 0.0
0000f0 00 00 00 00 00 00 00 00 00 00 00 00 00 00 00 00
       0.0 0.0 0.0 0.0
000100 00 00 00 00 00 00 00 00 00 00 00 00 00 00 00 00
       0.0 0.0 0.0 0.0
000110 00 00 00 00 00 00 00 00 00 00 00 00 00 00 00 00
       0.0 0.0 0.0 0.0
000120 00 00 00 00 00 00 00 00 00 00 00 00 00 00 00 00
       0.0 0.0 0.0 0.0
000130 00 00 00 00 00 00 00 00 00 00 00 00 00 00 00 00
       0.0 0.0 0.0 0.0
000140 00 00 00 00 00 00 00 00 00 00 00 00 00 00 00 00
       0.0 0.0 0.0 0.0
000150 00 00 00 00 00 00 00 00 00 00 00 00 00 00 00 00
       0.0 0.0 0.0 0.0
000160 00 00 00 00 00 00 00 00 00 00 00 00 00 00 00 00
       0.0 0.0 0.0 0.0
000170 00 00 00 00 00 00 00 00 00 00 00 00 00 00 00 00
       0.0 0.0 0.0 0.0
000180 00 00 00 00 00 00 00 00 00 00 00 00 00 00 00 00
       0.0 0.0 0.0 0.0
000190 00 00 00 00 00 00 00 00 00 00 00 00 00 00 00 00
       0.0 0.0 0.0 0.0
0001a0 00 00 00 00 00 00 00 00 00 00 00 00 00 00 00 00
       0.0 0.0 0.0 0.0
0001b0 00 00 00 00 00 00 00 00 00 00 00 00 00 00 00 00
       0.0 0.0 0.0 0.0
0001c0 00 00 00 00 00 00 00 00 00 00 00 00 00 00 00 00
       0.0 0.0 0.0 0.0
0001d0 00 00 00 00 00 00 00 00 00 00 00 00 00 00 00 00
       0.0 0.0 0.0 0.0
0001e0 00 00 00 00 00 00 00 00 00 00 00 00 00 00 00 00
       0.0 0.0 0.0 0.0
0001f0 00 00 00 00 00 00 00 00 00 00 00 00 00 00 00 00
       0.0 0.0 0.0 0.0

action_model._discrete_distribution.branches.0.weight f4 [3, 128]
000000 03 7d d7 b8 44 6c 80 bc 0b 3f 92 bb 89 52 94 3c
       -0.00010275284 -0.015676625 -0.0044630817 0.018105762
000010 10 af f5 bb 13 4e 97 3a 97 a9 ea 3b 93 d3 99 3b
       -0.0074976757 0.0011543654 0.00716133 0.004694411
000020 b6 cd b0 3b 73 c5 e1 3b 3b bf d7 3a bb 65 e9 3a
       0.0053956164 0.006889993 0.0016460189 0.0017806807
000030 70 fa 58 bc b0 fa ae ba 80 07 f0 ba ab 09 28 bb
       -0.013243303 -0.0013349857 -0.0018312782 -0.0025640528
000040 95 88 78 3b cb 09 93 3b 31 67 81 bc 45 c9 6c b9
       0.0037923206 0.0044872514 -0.015796276 -0.00022581693
000050 f0 42 ea 3b 85 2c 0d 3c d0 91 50 bc 22 53 d2 bb
       0.007149093 0.008616571 -0.012730077 -0.0064186016
000060 40 3e 12 3a 1a 94 e0 ba 9f 08 c3 bb 9f 8e 2b bc
       0.0005578734 -0.0017133981 -0.0059519554 -0.010471015
000070 31 ba a2 bb 3b 3d 54 bb 43 aa b4 3b 07 20 a3 bc
       -0.0049660434 -0.003238513 0.005513461 -0.019912733
000080 48 5c 90 3b 91 af 9e 3b ac 83 8c 3b ff aa 43 3b
       0.004405532 0.0048427065 0.0042881574 0.002985656
000090 42 5f ef 38 35 0e b3 ba 3f ba 99 3a 67 4f 28 3c
       0.00011414151 -0.001366085 0.0011728479 0.010272837
0000a0 b7 fd 2f bb a7 72 96 bb f8 ea 6a bb 68 76 eb bb
       -0.0026854107 -0.0045913043 -0.0035845619 -0.007185746
0000b0 2b ed a1 3c ce e8 b8 bb 77 cf 13 bb bf d2 18 3c
       0.01976641 -0.005642987 -0.0022554079 0.0093275895
0000c0 27 99 77 3c 13 19 fa 3b d3 ae 1d bb 40 d4 e8 bb
       0.015112198 0.0076323836 -0.0024060502 -0.0071053803
0000d0 07 f9 7f bc e7 c8 54 3c ed 50 95 3c a3 c7 99 3c
       -0.015623338 0.012987352 0.018227065 0.018771952
0000e0 92 aa 31 3b bf 98 b3 3b 7b 70 1e bb 4f ea c0 3b
       0.0027109724 0.0054808552 -0.002417593 0.0058873068
0000f0 29 6a 1b bb af 25 18 38 ee 46 8c 3c 01 72 a3 3b
       -0.00237144 3.627472e-05 0.017123666 0.0049879556
000100 6c 90 25 3c ef 70 b6 3b 2f 4c 92 3a c3 ee 3d bc
       0.010105234 0.005567662 0.001116162 -0.01159257
000110 1b 5b c0 3b b0 fa d8 bc 1f 12 a5 3c 37 ee 28 bb
       0.0058702356 -0.026486725 0.020150242 -0.0025776753
000120 5f 54 6a 3b bf 41 7b 3c 33 9b 51 3b e8 93 fb bb
       0.0035755855 0.015335499 0.0031983375 -0.007677544
000130 4b e5 b3 bb 3b 19 d7 3b fd 98 fe bb 2a 15 51 bc
       -0.0054899803 0.006564287 -0.0077697025 -0.012761394
000140 85 48 7c 3a bb 11 cb 39 2a 6c 64 3b 73 e9 78 3b
       0.00096238434 0.00038732387 0.003485451 0.0037980943
000150 30 97 55 bc 25 9a 0a 3c 84 c0 9a bb 89 0e 1f bc
       -0.013036534 0.0084596025 -0.0047226567 -0.009708055
000160 d4 64 4b bc e5 dd 10 3c 8d 8f 70 3c 89 59 94 3b
       -0.012414176 0.008841966 0.014682663 0.004527275
000170 7d 4c 33 3b 50 16 00 bb 3d 3d 92 bc 8b 3a f9 3a
       0.0027358823 -0.001954455 -0.017851466 0.001901464
000180 73 e9 e1 bb ec 8c 30 bb 85 5f 68 bc 9f d5 99 bb
       -0.0068942844 -0.0026939465 -0.01418293 -0.004694655
000190 34 bb c9 3c 7b 92 44 3c f8 dd 6b 3b e9 f8 a1 3b
       0.024625398 0.011997814 0.0035990458 0.0049430025
0001a0 5c 9d 14 3c 74 c6 49 3c e9 4b 0a 3b ba 54 83 3b
       0.0090707205 0.012315381 0.0021102375 0.004007903
0001b0 f8 79 13 bb 50 66 81 3c f0 2d fb 3a 99 0a bf bb
       -0.002250312 0.015795857 0.0019163471 -0.0058301208
0001c0 2f c2 eb bb 24 dd 34 37 54 20 a3 bb 80 22 9d 3c
       -0.0071947793 1.0780324e-05 -0.004978219 0.01918149
0001d0 66 56 33 bb b4 fe 40 3c 5b db df bb 57 62 2f 3c
       -0.002736473 0.011779476 -0.006831569 0.010704598
0001e0 0d 18 b4 bb f8 55 d9 3c 7b 97 cd 3b 05 3c 12 ba
       -0.005496031 0.02653025 0.0062741614 -0.00055784016
0001f0 24 bd 9a 3a 5b e9 90 ba 7a f2 2f 3c bd 1e 28 bb
       0.0011805636 -0.0011055873 0.010738963 -0.0025653087
000200 47 1a d5 3b c7 d6 15 3b aa 34 6b ba 9b ef 36 3c
       0.0065033766 0.0022863613 -0.0008972386 0.011165525
000210 b7 84 48 bc ba 16 67 ba 07 7b a3 3a b3 55 80 bb
       -0.012238673 -0.0008815337 0.0012472578 -0.003916466
000220 2b 85 05 ba 01 b3 c4 bb cd 92 1e 3c 5b 49 41 bb
       -0.0005093391 -0.0060027842 0.009678555 -0.0029493186
000230 95 de c3 bb 67 32 8c 3b 2b 8d 34 3c 73 dc 32 3c
       -0.0059774616 0.0042784694 0.011019985 0.010916817
000240 5d d2 b5 bb dc 62 93 ba d5 90 22 ba 9f 72 d6 bb
       -0.005548759 -0.0011244672 -0.0006201391 -0.0065444256
000250 2b c7 95 bb 43 5e 6b bc 7f 37 90 bc 14 94 0d bc
       -0.004570862 -0.014365735 -0.017604588 -0.008641262
000260 17 3b ec bb 8f 04 cc 3b 04 f7 27 3c af 59 1c 3c
       -0.0072091925 0.0062261294 0.010251764 0.009542867
000270 43 44 c9 3b 87 4d 08 bc dc eb 0f bc 2c 77 11 3c
       0.0061421706 -0.008319265 -0.008784261 0.00887851
000280 a4 e1 aa bc a8 82 77 3c 23 47 04 bc 2d 74 8a bc
       -0.020859547 0.0151068345 -0.008073601 -0.0169011
000290 0e 64 09 bc d9 2f 42 bb 29 15 1a 3b c3 f6 8e 3b
       -0.008385671 -0.002963057 0.0023511148 0.0043629124
0002a0 2f fe 1e 3b d8 e7 ec 3a aa aa 4e bc 43 af 4f bc
       0.0024260392 0.0018074466 -0.012613932 -0.012676063
0002b0 51 02 4a 3c 8b cb 24 bc 6a 39 08 3c 65 48 e3 39
       0.012329654 -0.010058294 0.00831447 0.00043350752
0002c0 68 a6 52 bc a7 91 9f 3a a1 dd 1a 3c 3f 45 1e 3c
       -0.012857057 0.0012174145 0.0094522545 0.009660064
0002d0 0f 90 06 bc 4b de 0f 3c 23 60 0a bb 7d 20 9e 3c
       -0.008213057 0.008781026 -0.002111443 0.019302601
0002e0 c1 b1 b9 3a 76 87 36 3c 6b f7 d4 b9 3d 05 d7 bb
       0.0014167355 0.011140695 -0.00040620132 -0.0065619037
0002f0 eb 65 f1 bb fb bd f7 b9 2b f9 9e 3b d8 81 14 bb
       -0.007366886 -0.00047253058 0.0048514805 -0.00226604
000300 60 1e ad 3b df de b6 3b 90 35 fb bb e0 6d 91 ba
       0.005283162 0.0055807675 -0.0076662973 -0.0011095367
000310 ec 4a 87 bb 9a 05 3a bc b1 d8 a9 3c a1 4a 17 3c
       -0.0041288044 -0.011353875 0.02073321 0.0092341015
000320 94 f3 33 3c 7b 6d b2 3b fd 76 a4 bb 2b 44 c2 bc
       0.0109833665 0.00544518 -0.0050190673 -0.023714146
000330 b2 45 1e bc d8 59 9f ba bb 5a 84 3c 3b 1c 98 3b
       -0.009660171 -0.0012157513 0.016156545 0.004642037
000340 4b c9 a5 bc 75 87 e6 bb 21 5b 4b bc c0 7c e5 bb
       -0.020237586 -0.0070351907 -0.012411864 -0.0070033967
000350 a5 34 68 ba f3 21 4a bc 50 c1 bc bc 13 ce a2 3b
       -0.00088579423 -0.012337196 -0.023041397 0.0049684136
000360 9f f9 8f 3c 6d ad d6 ba 80 05 61 3a 0f 4d 83 39
       0.017575083 -0.0016378589 0.00085838884 0.0002504368
000370 e6 a6 c7 bb cd 09 2b bb 98 63 d0 bb 52 8f 81 ba
       -0.006092894 -0.002609837 -0.0063595288 -0.0009884632
000380 83 3a c4 3b df 02 67 3b 26 d9 36 3c 3a e9 7c bb
       0.0059884205 0.0035249514 0.011160171 -0.0038591162
000390 f7 08 7f 3b e7 31 c5 bb 52 0d da bb ba 99 ee 3a
       0.0038915256 -0.0060179117 -0.00665442 0.0018203773
0003a0 1a 0b 8a 3b 25 51 ee 3a 6b 3f ae bc 85 88 6d 3c
       0.004212749 0.0018182142 -0.021270474 0.014497881
0003b0 2b 55 03 3c e8 6c 5d bc 35 de 73 3a bb 19 03 bc
       0.008015911 -0.013514735 0.0009302826 -0.00800174
0003c0 44 a0 86 bb bf b8 94 bb e5 7a de 3a 87 2b e6 3a
       -0.0041084606 -0.004538625 0.0016973881 0.001756058
0003d0 4f c0 01 3c 0a 22 ba 3c de a0 b6 ba 42 32 92 bb
       0.007919385 0.02272131 -0.001393344 -0.0044615576
0003e0 7b 26 da 3a ed 76 92 bc 3d 73 54 3b 70 59 36 ba
       0.0016643548 -0.017878974 0.003241732 -0.0006956076
0003f0 08 36 17 bb 8a 4e f6 ba 6f bb 6c bb 03 b5 26 ba
       -0.0023072977 -0.0018791717 -0.0036122461 -0.00063593703

action_model._discrete_distribution.branches.0.bias f4 [3]
000000 00 00 00 00 00 00 00 00 00 00 00 00
       0.0 0.0 0.0

action_model._discrete_distribution.branches.1.weight f4 [3, 128]
000000 ef 3d 10 3c 7e 54 bb bb 10 77 14 bc 0b da 52 3c
       0.008803829 -0.0057168594 -0.00906159 0.012869368
000010 99 1e 82 ba d5 b4 6f 3b cf 92 18 3c 1f d5 44 3c
       -0.0009927332 0.003657629 0.009312346 0.012013703
000020 95 b9 e1 bb df 3f ce 3a 7f 3f c8 3b 13 c7 a9 3c
       -0.006888578 0.0015735588 0.006111085 0.020724809
000030 5d a3 46 3b e3 b5 86 3b 2d ac 5e bc 4b 58 1c bc
       0.0030309774 0.004111038 -0.013590855 -0.009542535
000040 1f 36 0d 3c a7 25 bd ba 5e 26 c4 3b 09 5e 98 bc
       0.0086188605 -0.0014430777 0.005986019 -0.018599527
000050 ad d7 92 bb 93 22 86 3c 47 e9 4e bb c3 28 c8 bb
       -0.004481277 0.016373908 -0.003157215 -0.006108375
000060 95 d5 e6 ba ec d9 c2 b8 23 d1 07 bb dc d5 8a bc
       -0.001761126 -9.291232e-05 -0.002072402 -0.01694768
000070 73 9f 5f bc 25 0b c0 ba 9a 97 4a bc 33 05 90 bb
       -0.0136488555 -0.0014651759 -0.012365246 -0.004395151
000080 c7 5b d6 3b cb 70 a7 bb 3c 00 43 3c 63 50 b1 bb
       0.0065417024 -0.0051098815 0.011901911 -0.005411194
000090 ed bf 79 bc 3d af 01 3c db db c2 3a f0 28 eb bb
       -0.015243513 0.007915315 0.0014866547 -0.007176511
0000a0 b3 69 90 ba 83 1e 6b bb 83 33 f0 bb d5 65 71 3b
       -0.0011017829 -0.003587634 -0.0073303594 0.0036834378
0000b0 1b 6a 89 bb ea 97 dc 3b 1c fe 31 3c cd 43 60 3b
       -0.004193557 0.0067319768 0.010863807 0.00342201
0000c0 d3 06 c1 3a 8f 3f ff bb 99 83 84 bb fe 40 47 bc
       0.0014726765 -0.007789559 -0.004044008 -0.012161491
0000d0 91 45 06 3c d8 80 d3 bb ed 84 93 bb a3 5e 7e bb
       0.008195297 -0.0064545684 -0.00450193 -0.0038813732
0000e0 c4 54 90 ba 77 ea 2b bc d7 3f 7d bb 47 36 0a bc
       -0.001101159 -0.0104929125 -0.0038642788 -0.008435792
0000f0 90 ee 52 bc 85 f4 5a bc eb 7d de ba 5b 87 bb 3a
       -0.012874261 -0.013363962 -0.0016974782 0.0014307307
000100 6f 0c 14 bc 50 fa a3 3c 37 c4 52 b9 63 06 d3 3b
       -0.0090361675 0.02001682 -0.00020100256 0.0064399703
000110 5c 9e 8c ba 55 74 5a b9 fb 57 e3 3b f7 af 02 3c
       -0.0010728347 -0.00020833437 0.0069379783 0.007976524
000120 4f ad 2d 3c 48 3b 57 bb 27 87 51 bc cd 95 1f bc
       0.010600402 -0.003284173 -0.0127885705 -0.009740305
000130 77 1a cc 3b 65 a7 96 bb aa 17 02 bb bf cf 52 38
       0.006228741 -0.0045975917 -0.001985053 5.026138e-05
000140 07 d4 e6 3b 55 67 8b 3b 4c 99 2d bb cf 71 e3 3a
       0.0070443186 0.0042542615 -0.0026489077 0.0017352643
000150 2a ce 75 3b c3 80 31 bb a8 6a b0 3b 95 b9 17 bc
       0.0037506917 -0.0027084805 0.005383808 -0.009260555
000160 e9 39 bb 3a e1 2e a9 3b f3 66 2a 3b b8 20 d1 3b
       0.0014284226 0.005163059 0.0026001304 0.006382074
000170 cf 8f 48 3c f3 03 9b 3b 36 2d 0f 3b 43 be 7c 3b
       0.012241318 0.0047306954 0.0021847016 0.0038565553
000180 06 8d 0e bc 07 2e 05 bc 87 ea 94 3c 89 03 4c 3c
       -0.008700615 -0.00812865 0.018178238 0.012452015
000190 57 ab 65 3b be 8e 0e 3c 0a da bd b9 9f 13 75 3b
       0.0035044753 0.008701025 -0.0003621134 0.0037395728
0001a0 74 c9 8d bb c1 ed 93 3b 8e 18 2b bb 0f 4d 53 ba
       -0.0043269936 0.0045144265 -0.0026107165 -0.0008060494
0001b0 e2 ff 32 3b 88 c0 76 3b 23 65 a3 3b 28 3c e1 bb
       0.0027313163 0.0037651379 0.0049864217 -0.0068736263
0001c0 bb 56 3b 3c 45 07 09 bb af 1f 67 3b 10 76 23 bb
       0.011434252 -0.0020908874 0.0035266688 -0.0024942197
0001d0 7b a0 c9 39 7f 1a 74 bb b3 a7 81 bb eb b7 e9 bc
       0.00038457275 -0.0037247238 -0.003956759 -0.028530082
0001e0 ca 45 23 bb 2c 7d 3d bc f2 d6 1f 3b 1e 2d 3b bb
       -0.0024913424 -0.011565488 0.0024389592 -0.0028560827
0001f0 33 8b b2 3b 63 37 e9 bb 0f c0 29 3c 70 e0 9d 3c
       0.0054487227 -0.0071171983 0.010360732 0.01927206
000200 20 df 14 39 22 26 e6 ba a0 69 5c ba e3 7c 94 bc
       0.000141975 -0.0017558972 -0.00084080733 -0.018125957
000210 ad 66 6d bb e0 87 79 3a df 0b b1 bc 39 a9 2d bc
       -0.003622453 0.0009518843 -0.021612106 -0.010599428
000220 e4 1d 0b 3c 34 d5 c6 39 e7 0e b7 bb b4 74 04 3b
       0.008491013 0.00037924352 -0.0055864933 0.0020211162
000230 97 a7 58 3c 66 0d 41 3c 50 56 1a 3c 37 24 35 3c
       0.01322355 0.01178298 0.009419993 0.011055998
000240 f8 b9 88 bb 1c 28 41 3b 12 b5 f6 bb 2f e0 e2 bb
       -0.00417256 0.002947337 -0.0075289095 -0.0069236974
000250 f8 75 8c 3b 43 8b 81 3b c4 2a 31 bb 57 66 7f 3a
       0.004286524 0.003953369 -0.0027033547 0.0009742728
000260 37 09 25 bc 74 e5 1c bc 31 a3 49 3b 72 fe f9 39
       -0.010072998 -0.00957619 0.0030767436 0.00047682557
000270 a1 2b 02 bc a0 5d 91 bb a7 65 f8 ba cd c3 be 3b
       -0.007944972 -0.00443621 -0.0018951193 0.005821681
000280 47 86 10 bb 5d e6 76 3b d7 0c 5a bb 35 43 40 bc
       -0.0022052692 0.0037673928 -0.0033271813 -0.011734773
000290 68 32 69 bb 7e 85 1c 3c 15 77 8d 3a ce c5 b1 bb
       -0.0035583023 0.009553311 0.0010792935 -0.0054251915
0002a0 13 07 8d bc 95 fc ad bb 39 20 21 3c ff c1 77 bb
       -0.017215287 -0.005309651 0.009834343 -0.003780484
0002b0 e8 bb a4 bb bc 92 b8 bb 83 b5 66 bb 7f b3 ee 3b
       -0.005027283 -0.0056327265 -0.0035203404 0.007284581
0002c0 27 88 52 3a 98 ca ab bc 66 dc c8 bb 1b 91 97 3c
       0.00080311525 -0.020970628 -0.006129789 0.018501809
0002d0 cf 23 8b b8 37 c0 42 b9 eb 46 29 bb 13 f8 8c 3c
       -6.6347064e-05 -0.00018572887 -0.0025829624 0.017208135
0002e0 2b ba 14 bc f3 ae a1 bb 47 f2 63 bc 30 33 7a bc
       -0.009077589 -0.0049341857 -0.013912744 -0.015270993
0002f0 bb f5 7f 3a e0 c6 61 3c 00 f2 7d bc 8b 99 da 3b
       0.0009764095 0.013780326 -0.015499592 0.006671136
000300 7d b3 b6 3a 2e 53 94 bc d8 aa d6 3c e0 f4 bb ba
       0.001393899 -0.01810607 0.026204512 -0.0014339946
000310 97 c6 48 bb 62 01 68 bb ca dc 84 3c c0 99 37 bb
       -0.0030635947 -0.0035401215 0.016218562 -0.0028015226
000320 57 9b 39 3c a3 7f f5 bb 71 c8 9e 3b fe 0c 16 3c
       0.01132854 -0.007492022 0.004845672 0.009158371
000330 42 4c 07 ba 90 30 ae 3b 0f de 72 3b 0d 34 2d bb
       -0.00051612046 0.0053158477 0.0037058627 -0.002642873
000340 54 94 99 3b c7 54 22 ba e3 a4 4e bc 30 6b dd bb
       0.0046868715 -0.00061924424 -0.012612554 -0.0067571625
000350 f5 96 55 bc f1 04 0e ba 8d 5e 7a bc 40 3b 7e bb
       -0.013036479 -0.00054176064 -0.015281332 -0.003879264
000360 d8 92 53 bc 49 14 1f 3b 90 b0 ea 3b 73 2f 09 3c
       -0.012913428 0.0024273566 0.007162161 0.008373129
000370 c8 07 c7 3b e6 ca 1f 3b 6e 7a 99 bb 18 f0 6d bb
       0.0060739256 0.0024382412 -0.004683784 -0.0036306437
000380 bc c3 11 bc a7 85 82 3a bc 74 11 bc 5d 90 81 3c
       -0.008896764 0.0009958044 -0.008877929 0.015815908
000390 47 11 18 bc 93 f0 bb 3b 69 fa 90 bb 6c 07 1e bc
       -0.009281463 0.005735466 -0.0044243825 -0.009645324
0003a0 cf cc 83 3c 83 ef 55 bc 52 14 6e 3c d9 6a 81 bc
       0.016088871 -0.013057592 0.014531212 -0.01579802
0003b0 8b fa 7f 3a c9 19 a2 bb 40 7d a6 ba 4f 9a 82 3c
       0.0009764812 -0.0049469215 -0.0012702122 0.01594272
0003c0 1d 99 7b 3b 21 8a 92 3b 70 21 c5 3a c5 dd 0a 3c
       0.0038390823 0.0044720327 0.0015039872 0.008475726
0003d0 5d cc c8 bb 58 cc 4c b9 c8 5b 31 3c c0 53 e5 3b
       -0.0061278776 -0.0001953108 0.010825105 0.006998509
0003e0 bb 99 40 3b bd 22 9d ba 7e 9d 83 bb c7 6e 74 bb
       0.0029388505 -0.0011988502 -0.0040165773 -0.0037297474
0003f0 66 e0 c8 3b c2 b2 40 bb a6 f2 b0 ba e7 2d 01 ba
       0.006130266 -0.0029403423 -0.0013500049 -0.00049277995

action_model._discrete_distribution.branches.1.bias f4 [3]
000000 00 00 00 00 00 00 00 00 00 00 00 00
       0.0 0.0 0.0

action_model._discrete_distribution.branches.2.weight f4 [1, 128]
000000 10 ee 6d 3b e5 e9 1a 3c df b4 c1 3b 4a fb f7 b9
       0.0036305226 0.009455179 0.005911454 -0.00047298736
000010 97 7f e2 bb d3 d2 c2 b9 b8 81 4e bc d7 9e 5e 3b
       -0.0069121826 -0.0003715964 -0.01260417 0.0033969188
000020 9f e0 21 bc 8c 58 a4 3b af a2 10 bb 16 86 0e bc
       -0.009880214 0.0050154384 -0.0022069623 -0.008698961
000030 37 e5 6d bc 76 40 42 bb b7 37 6b ba ac 89 23 bb
       -0.014519981 -0.0029640472 -0.0008972841 -0.0024953885
000040 47 bd a9 3a 8a a3 cf 39 6d eb ce bb 14 96 89 bc
       0.0012950086 0.00039603963 -0.006314686 -0.016795196
000050 15 1c e7 3a 3f b6 4b 3c 3d 9d 1f bc 0d 6e 79 3b
       0.001763227 0.012433588 -0.009742078 0.003805998
000060 f3 3d 86 3c 8b cc 83 bb ba b7 be 3a d2 ca 0e 3c
       0.016386962 -0.004022186 0.0014550604 0.008715348
000070 9f 03 30 bc 4f a8 eb 3b 6b 82 27 bb 60 2f 6b 3a
       -0.010743051 0.007191695 -0.0025559913 0.0008971598
000080 3d 88 69 bb 4f 1a 85 3b 93 de 80 bb ca 42 92 bc
       -0.0035634183 0.004061974 -0.003932783 -0.017854113
000090 d2 a0 50 3c b1 e8 44 3c 9e 9b bb bb 52 cb 72 bb
       0.012733655 0.012018369 -0.005725338 -0.0037047458
0000a0 b7 45 5b bc 85 92 91 bc 26 71 8a 3b b5 84 fa 3a
       -0.0133833205 -0.017770061 0.004224914 0.0019113036
0000b0 8b 72 fc 3b ef f5 40 bb 05 e9 81 bc 83 b5 5f bc
       0.0077040843 -0.0029443463 -0.015858183 -0.013654116
0000c0 07 12 a3 3a 20 7f 60 3c 0c 18 9a bb c3 02 88 bb
       0.0012441286 0.013702184 -0.0047025736 -0.00415072
0000d0 d7 8e 05 bc f0 1c ce 39 63 28 6a bb 4e 74 93 3a
       -0.008151731 0.00039312942 -0.0035729639 0.0011249871
0000e0 7b 88 44 ba c8 10 a9 3a da 78 5c bc 7a 1a e8 3b
       -0.0007497144 0.0012898678 -0.013456548 0.0070832344
0000f0 df 29 f6 3a a7 24 b0 3b ab e6 fc ba 6f 93 02 bc
       0.0018780789 0.005375463 -0.0019294819 -0.007969721
000100 9f a9 d0 ba c0 82 51 3b db fd 09 bc 03 4f e5 bb
       -0.0015919692 0.0031968802 -0.00842234 -0.0069979443
000110 a5 22 76 3b b1 a8 34 3c 32 2b f9 bb 37 97 c4 3b
       0.003755727 0.011026547 -0.0076040262 0.0059994715
000120 ad 1c 5f bb ea d5 46 3b d5 e6 05 3c f0 93 ff 3a
       -0.0034044192 0.0030339905 0.00817271 0.0019499045
000130 90 3c c6 bc f4 f1 0a 3c af 97 40 bc fe 5b 83 bb
       -0.0241988 0.008480538 -0.011754914 -0.004008769
000140 3a 77 cf bb 79 b2 21 3c f8 8e 62 3c 39 07 8a bc
       -0.0063313516 0.009869211 0.013828032 -0.016849147
000150 9b 38 fc bb 42 a4 4b 3c 9f 61 e7 bb e3 57 1a bc
       -0.0076971776 0.012429299 -0.007061198 -0.009420368
000160 1b d5 6b bc 5f 9e 55 bb 4f 39 35 3c 16 26 4b 3b
       -0.01439407 -0.0032595617 0.011061027 0.0030998043
000170 da 50 d9 bb fb e4 7e bb d1 c3 a3 3b cf a8 a2 bb
       -0.0066319527 -0.0038893807 0.0049977084 -0.004963971
000180 c4 ab 13 bc 30 34 7a bb fe 75 92 bb bb e0 b0 3b
       -0.00901312 -0.0038178079 -0.004469632 0.0053978837
000190 1f 48 7c 3c e3 6f a0 3b 67 f1 ee bb 14 96 a1 bb
       0.015398054 0.0048961504 -0.007291961 -0.004931221
0001a0 e8 e1 d0 bb 1a 24 e8 3b 27 a7 4c 3b fa 72 02 bc
       -0.0063745864 0.0070843818 0.003122756 -0.007961983
0001b0 5b 42 03 bc a3 37 00 bc a9 86 af 3b 07 8b 8b 3c
       -0.008011426 -0.007825765 0.005356629 0.017034067
0001c0 3b 15 34 bb c9 10 a6 bb 57 47 89 bc 3a 10 63 3c
       -0.0027478475 -0.005067919 -0.01675765 0.013858849
0001d0 8a bd 33 3c 6a d9 46 bb ff d8 13 3a b8 8d da 3b
       0.010970483 -0.0030341991 0.000563994 0.006669726
0001e0 f7 1c 63 bc 48 ce e8 38 57 22 33 bc 64 4a a7 3b
       -0.013861886 0.00011101045 -0.01093348 0.0051053036
0001f0 45 44 48 3c 30 00 fa ba 7d 6d ba 3b fb 6c c6 ba
       0.012223308 -0.0019073542 0.0056893216 -0.001513868

network_body._body_endoder.seq_layers.0.weight f4 [128, 16]
000000 b8 d3 95 3d 85 9c 98 be 16 ec 76 be e1 1b 4e 3d
       0.07315773 -0.29806915 -0.24113497 0.050319556
000010 fb 26 77 bd b8 a4 8c 3c 71 47 fa 3e e5 5f f8 3d
       -0.06033991 0.017168388 0.4888263 0.121276654
000020 6a 0a f8 3e 96 b7 02 3e 99 b1 6e 3d be bc 48 be
       0.48445445 0.12765345 0.05827484 -0.1960325
000030 9f 73 25 be 0c 32 51 3e 56 b0 8f 3e 9f 37 ef 3d
       -0.16157387 0.20429248 0.2806422 0.11680531
000040 08 6f 40 3e 5d 45 c2 be fc c8 f7 3e 8b 85 62 bd
       0.18792355 -0.37943545 0.48395526 -0.055303138
000050 4f 68 43 3e 8d c4 28 be 4e 7f 87 bd 7f 76 75 be
       0.1908276 -0.16481228 -0.06616078 -0.23970984
000060 4f 3a d1 3c 44 5e fa bd d4 61 06 3e 09 3e e2 bd
       0.025540499 -0.12225011 0.13123256 -0.110469885
000070 7a 9a f2 be 66 b6 e2 be 49 1d b0 bd a6 14 8b bd
       -0.4738348 -0.44279784 -0.08599336 -0.06791048
000080 00 25 2d 3d 26 d6 bf 3e 2d 09 71 be 50 68 31 3f
       0.042271614 0.3746807 -0.23538657 0.69299793
000090 94 fe 25 3e ac bf 8b be 67 b7 cb 3e c4 66 2c 3f
       0.16210395 -0.27294672 0.39788362 0.6734431
0000a0 90 27 02 3f fb 80 89 3e 12 7c ea bd 0d a7 28 3f
       0.5084162 0.26856217 -0.11449446 0.658799
0000b0 92 a8 81 3e 2c 5b 44 3e f9 ec 12 3f 70 5c 3d be
       0.2532392 0.19175404 0.5739284 -0.18492293
0000c0 89 53 3a 3d 1f 0e 58 be 18 7b e7 bc 96 58 6b 3e
       0.04548982 -0.21099137 -0.028256938 0.22983012
0000d0 b4 79 b9 3c 44 39 d3 bd 23 39 be be ea 26 82 be
       0.02264104 -0.10313657 -0.37152967 -0.25420314
0000e0 da 3c 30 bd 7a e7 26 bd 54 45 75 3e 9c 09 19 be
       -0.043026783 -0.040748097 0.23952228 -0.14945072
0000f0 56 85 4a 3e 6a db 05 bf 7a d6 4c bd 10 a7 ff bd
       0.19777426 -0.52287924 -0.05000923 -0.124830365
000100 6d b3 8c bd 18 f7 bb be bc 91 6c be 64 d2 4e 3e
       -0.0687016 -0.36711955 -0.23102468 0.20197445
000110 39 67 c0 be 02 5a f6 3d 5d 0a c1 be 4f 0a 6b be
       -0.37578753 0.120288864 -0.3770322 -0.22953151
000120 0f 78 de 3e bf 19 aa 3e 97 0d 3d be 46 0a 9c 3e
       0.43450972 0.33222768 -0.18462215 0.30476588
000130 d3 93 fb 3d 85 d2 d0 bd 82 67 60 3e 23 d6 ce 3d
       0.122840546 -0.101964034 0.21914485 0.10099437
000140 0f ac 17 3e c9 1a fb 3d 3d f2 76 bd ba 92 a1 3e
       0.14811729 0.12260968 -0.06028961 0.31557256
000150 c3 92 0a 3f f5 10 91 be 77 e4 04 3e e5 f1 da be
       0.5413019 -0.2833325 0.12977777 -0.42762676
000160 2a 19 ad 3e a8 88 80 3e db cd 36 be 80 a2 59 3e
       0.3380826 0.2510426 -0.17851965 0.21253395
000170 1f 2b 18 3d 7f 68 7a 3e aa f2 9f 3e 90 a4 3f 3e
       0.0371505 0.24453925 0.31239825 0.1871512
000180 82 e7 23 3e 33 be 1d 3f f3 b9 9d 3d 72 df d4 3d
       0.16006282 0.61618346 0.077014826 0.10394181
000190 4e 8a b5 3e 45 6e 8d 3e 2c d0 ef 3e 6c be 3d 3d
       0.3545708 0.2762319 0.4683851 0.04632418
0001a0 71 86 f3 bc 82 c0 62 be 0b 0c e2 3e 57 43 de 3b
       -0.029727193 -0.22143748 0.44149813 0.00678293
0001b0 06 0a a0 3e 0c 1d 99 be 67 62 70 be 20 3f 8e bc
       0.31257647 -0.29904974 -0.23475038 -0.017364085
0001c0 29 05 71 be ed 2d c9 3d c7 47 28 be 35 1b 8a 3e
       -0.23537125 0.09823213 -0.16433631 0.26973882
0001d0 5a 7d b5 3c 59 cb 65 3e cd 2b 2c 3e d4 1f 72 be
       0.022154499 0.22440852 0.16813584 -0.23644954
0001e0 3a 49 75 be c0 3b bb 3c 42 91 68 3e 4a 12 5e 3d
       -0.23953715 0.02285564 0.22711661 0.05421666
0001f0 66 bf 1b 3e 09 f1 ba bd 43 72 84 3e 36 6d ef bd
       0.15209731 -0.09128005 0.25868425 -0.11690752
000200 6a 86 55 be 5b f2 07 bf 59 46 53 be 8f c4 e5 bd
       -0.20852056 -0.5310418 -0.20632304 -0.11219131
000210 55 fc 49 3e d2 e3 68 3e 23 94 6b bd 2b e2 29 3e
       0.19725163 0.22743157 -0.05751432 0.16590182
000220 21 8b 94 be ae 57 fd 3e a3 9c e4 3c c0 9b b1 be
       -0.29012397 0.49480957 0.027906721 -0.3468914
000230 b5 46 21 3e 25 a9 78 3e 82 1e b8 bd ba 07 03 3f
       0.15749629 0.24283274 -0.08990194 0.51183665
000240 93 54 66 be 25 c4 1d be d2 e8 e1 3d 3a 1f 31 3d
       -0.224932 -0.15406854 0.11030735 0.04324267
000250 08 b5 53 be f9 a6 cf 3d 68 e9 c0 be 8a ec 1d be
       -0.20674527 0.101392694 -0.37678075 -0.15422264
000260 08 b8 e9 3e 84 a6 f7 3c 14 27 f5 bd 14 33 6e 3d
       0.45648217 0.030230768 -0.11970344 0.05815418
000270 5b 0f db 3e a6 e9 1d be 11 8f cb 3e e7 63 4e be
       0.42785153 -0.15421161 0.39757589 -0.20155297
000280 ca 74 13 be 73 33 1a 3d 53 c7 26 be 8f d9 79 be
       -0.1440002 0.037646722 -0.16286974 -0.24399398
000290 b9 d7 89 bd f4 25 69 be af f1 7f bd 5d 89 35 be
       -0.06730599 -0.22768384 -0.062486347 -0.17728181
0002a0 74 5f 02 3e 57 e8 30 3e 22 7c b1 3d f3 7f a7 3e
       0.12731725 0.1727613 0.086662546 0.32714805
0002b0 19 26 ae be 5f 0b 8f bd 27 2c 1d 3c cf b5 5e 3e
       -0.3401344 -0.06984591 0.009593046 0.21749042
0002c0 8a 58 b0 3d 79 c5 81 3e 8c 52 10 be 28 67 87 be
       0.086106375 0.25345972 -0.14093989 -0.2644589
0002d0 de f1 95 3e 41 52 56 bd 78 d7 8e be fc 1c 4a 3d
       0.29286093 -0.052324537 -0.27898765 0.049344048
0002e0 8f 0c d7 3e 22 95 ab be 77 46 42 3e 2a 66 c5 be
       0.4200177 -0.33512217 0.18972193 -0.38554507
0002f0 12 a4 b2 be 3a d9 a5 be 1f 07 70 3e d3 32 77 be
       -0.348908 -0.32392293 0.23440216 -0.24140482
000300 b7 bf 72 be 2c b7 9a ba f7 48 8e bd a3 87 6f bc
       -0.23705946 -0.0011803857 -0.06947511 -0.014619741
000310 58 19 28 3e 15 cb 85 be 6b 31 76 be 4f 9a 5a bd
       0.16415918 -0.26131502 -0.24042289 -0.053369816
000320 94 57 47 3e 3a bc 92 bd a4 d2 2c 3d e0 fc ce 3d
       0.19467002 -0.071648076 0.04219307 0.10106826
000330 3e b7 78 be d2 89 d7 bc 2f 99 8d be 8f 42 91 bc
       -0.24288651 -0.026310835 -0.27655932 -0.017731933
000340 8f fd 7a be 87 87 90 3e 31 17 8f be b3 20 d3 3d
       -0.24510787 0.282284 -0.2794738 0.10308971
000350 5b 3e 0a 3f e8 90 5a 3d ec 76 ed 3e 73 1b 9d 3e
       0.54001397 0.05336085 0.46379793 0.30685005
000360 af 10 81 3e 54 ef ce 3d e3 cd 82 3d 0a 8b e1 3d
       0.2520804 0.10104242 0.06386926 0.11012848
000370 35 6c 65 be 29 61 8d 3e 2a 85 a1 be b0 9a 53 be
       -0.22404559 0.2761319 -0.3154691 -0.20664477
000380 ba e1 7a bc 18 f9 bd 3e a6 56 1e 3e eb 62 04 bd
       -0.0153126065 0.37104106 0.15462741 -0.032320898
000390 95 75 8e be d9 82 84 bd 3a d2 34 3e ea e0 66 3e
       -0.27824083 -0.0647027 0.1765832 0.22546735
0003a0 a7 96 18 bd 7b 57 68 3e d7 dd 03 3e 1e e5 ae 3e
       -0.03725305 0.22689621 0.12877594 0.34159178
0003b0 cf d1 99 3e 87 2b 9b be c8 95 76 be 36 9d 4a 3e
       0.30042884 -0.30306646 -0.24080575 0.19786534
0003c0 6d df 96 3e 93 c8 cc be 5a 0e 0d 3e 41 34 c6 3c
       0.29467335 -0.39996776 0.13775006 0.024194838
0003d0 dc 8e 3a 3e 3d 5f 30 be 75 45 5d 3e 0d fa 8a be
       0.18218559 -0.1722383 0.21608527 -0.271439
0003e0 4c c8 21 3e 7c 22 bd be 5e f9 10 3f 67 e7 9c bd
       0.15799063 -0.36940372 0.56630504 -0.07661324
0003f0 53 43 dc bd 20 05 d6 be ec d5 9e 3e f4 79 9d 3e
       -0.107550286 -0.41800785 0.31022584 0.30757105

network_body._body_endoder.seq_layers.0.bias f4 [128]
000000 00 00 00 00 00 00 00 00 00 00 00 00 00 00 00 00
       0.0 0.0 0.0 0.0
000010 00 00 00 00 00 00 00 00 00 00 00 00 00 00 00 00
       0.0 0.0 0.0 0.0
000020 00 00 00 00 00 00 00 00 00 00 00 00 00 00 00 00
       0.0 0.0 0.0 0.0
000030 00 00 00 00 00 00 00 00 00 00 00 00 00 00 00 00
       0.0 0.0 0.0 0.0
000040 00 00 00 00 00 00 00 00 00 00 00 00 00 00 00 00
       0.0 0.0 0.0 0.0
000050 00 00 00 00 00 00 00 00 00 00 00 00 00 00 00 00
       0.0 0.0 0.0 0.0
000060 00 00 00 00 00 00 00 00 00 00 00 00 00 00 00 00
       0.0 0.0 0.0 0.0
000070 00 00 00 00 00 00 00 00 00 00 00 00 00 00 00 00
       0.0 0.0 0.0 0.0
000080 00 00 00 00 00 00 00 00 00 00 00 00 00 00 00 00
       0.0 0.0 0.0 0.0
000090 00 00 00 00 00 00 00 00 00 00 00 00 00 00 00 00
       0.0 0.0 0.0 0.0
0000a0 00 00 00 00 00 00 00 00 00 00 00 00 00 00 00 00
       0.0 0.0 0.0 0.0
0000b0 00 00 00 00 00 00 00 00 00 00 00 00 00 00 00 00
       0.0 0.0 0.0 0.0
0000c0 00 00 00 00 00 00 00 00 00 00 00 00 00 00 00 00
       0.0 0.0 0.0 0.0
0000d0 00 00 00 00 00 00 00 00 00 00 00 00 00 00 00 00
       0.0 0.0 0.0 0.0
0000e0 00 00 00 00 00 00 00 00 00 00 00 00 00 00 00 00
       0.0 0.0 0.0 0.0
0000f0 00 00 00 00 00 00 00 00 00 00 00 00 00 00 00 00
       0.0 0.0 0.0 0.0
000100 00 00 00 00 00 00 00 00 00 00 00 00 00 00 00 00
       0.0 0.0 0.0 0.0
000110 00 00 00 00 00 00 00 00 00 00 00 00 00 00 00 00
       0.0 0.0 0.0 0.0
000120 00 00 00 00 00 00 00 00 00 00 00 00 00 00 00 00
       0.0 0.0 0.0 0.0
000130 00 00 00 00 00 00 00 00 00 00 00 00 00 00 00 00
       0.0 0.0 0.0 0.0
000140 00 00 00 00 00 00 00 00 00 00 00 00 00 00 00 00
       0.0 0.0 0.0 0.0
000150 00 00 00 00 00 00 00 00 00 00 00 00 00 00 00 00
       0.0 0.0 0.0 0.0
000160 00 00 00 00 00 00 00 00 00 00 00 00 00 00 00 00
       0.0 0.0 0.0 0.0
000170 00 00 00 00 00 00 00 00 00 00 00 00 00 00 00 00
       0.0 0.0 0.0 0.0
000180 00 00 00 00 00 00 00 00 00 00 00 00 00 00 00 00
       0.0 0.0 0.0 0.0
000190 00 00 00 00 00 00 00 00 00 00 00 00 00 00 00 00
       0.0 0.0 0.0 0.0
0001a0 00 00 00 00 00 00 00 00 00 00 00 00 00 00 00 00
       0.0 0.0 0.0 0.0
0001b0 00 00 00 00 00 00 00 00 00 00 00 00 00 00 00 00
       0.0 0.0 0.0 0.0
0001c0 00 00 00 00 00 00 00 00 00 00 00 00 00 00 00 00
       0.0 0.0 0.0 0.0
0001d0 00 00 00 00 00 00 00 00 00 00 00 00 00 00 00 00
       0.0 0.0 0.0 0.0
0001e0 00 00 00 00 00 00 00 00 00 00 00 00 00 00 00 00
       0.0 0.0 0.0 0.0
0001f0 00 00 00 00 00 00 00 00 00 00 00 00 00 00 00 00
       0.0 0.0 0.0 0.0
