results/ppo/ControlCar/ControlCar-7762.onnx (onnx, 82320 bytes, 8 tensors)

discrete_act_size_vector f4 [1, 3]
3.0 3.0 1.0
00000000: 0000 4040 0000 4040 0000 803f

network_body._body_endoder.seq_layers.0.weight f4 [128, 6]
0.012192759 -0.009304224 -0.046734717 0.2076018 -0.57462853 -0.43680292 -0.6590751 -0.04203687
-0.3382654 -0.029986313 0.25447416 -0.38086116 -0.043441094 -1.2145616 0.06425308 -0.3749546
-0.058146488 0.33005217 -0.65596026 -0.46977502 0.1240476 -0.107741416 0.6924879 -0.2767166
1.2149205 -0.6738469 0.6585694 0.12968946 0.14070025 0.80215216 -0.20600428 -0.01076858
0.23866147 0.1743376 -0.36369583 0.27015045 0.2506718 0.44403836 0.17826097 -0.032053754
0.4701769 -0.88670254 -0.010901587 0.111044556 0.29323068 -0.1850298 0.11528147 0.64502484
-0.8762961 -0.4972834 0.2599682 0.25139928 0.04975444 0.88619524 0.111816704 0.057070307
-0.22906245 0.13397476 0.7270389 -0.031131206 -0.03798867 0.07293474 0.6392493 -0.26540124
0.57440615 0.51037985 0.10009097 0.3688242 0.53092813 0.123151086 0.46327364 0.45850232
-0.19333754 -0.12784247 0.1631892 0.25687385 0.36798015 0.6848724 -0.06578751 0.22897668
-0.28476524 -0.17612202 0.07735342 -0.1813713 0.28837416 -0.02090185 0.4583881 -0.5962337
0.6243835 0.24960114 0.3899044 -0.19776021 -0.17357379 -0.5114285 0.77372867 0.03286174
-0.027800584 0.024829881 0.1790645 0.49088296 -0.24137384 -0.31839252 -0.38514826 0.92199963
0.07180717 -0.53675246 0.5298891 -0.3758201 0.47339982 -0.15885314 0.19058281 0.257235
-0.3835303 0.43430865 -0.14879614 -0.14365855 -0.44339892 0.46771455 0.62266725 0.26877764
-0.5881872 0.031602867 0.4662856 0.3657193 0.041208394 -0.15797922 -0.28836614 -0.23910029
0.017568586 -0.1704989 -0.25363436 -0.52226764 -1.0995389 -0.74871165 -0.5425586 0.094110556
-0.7340523 0.4195756 0.8457254 0.0984482 -0.18347193 -0.09665744 0.11227891 0.30130324
-0.27661753 -0.22615293 -0.51362145 0.0048214477 -0.510073 -0.9072075 -0.15258563 0.30008265
0.5647914 -0.31291416 0.55143756 0.19266014 -0.0007664369 -0.31545737 -0.46950954 -0.37300336
0.6474974 0.24892002 -0.61030513 0.51855266 -0.09108948 0.75967336 -0.3906483 0.4191007
0.46917158 -0.20574114 0.3795204 0.1968383 0.21922988 -0.80920994 0.10813821 -0.008138347
-0.30559307 0.9490502 -0.9093909 -0.044445693 -0.6091659 0.28423136 0.019775212 0.73949003
0.31987482 0.04545353 -0.50837207 -0.36629853 -0.86370474 -0.17409371 -0.1831021 -0.008296575
0.30212158 0.3085156 0.43443406 0.4659566 -0.11081077 0.07085075 0.31588447 -0.19865665
0.08716035 -0.57303023 0.21516053 0.26400197 0.4676881 -0.65744054 -0.17842756 0.0721717
-0.019110309 -0.09002081 0.081523076 0.009816123 0.09099606 0.09401369 0.3568542 -0.0686538
-0.07976298 -0.052278988 -0.034835625 0.958279 0.060506996 0.06040802 -0.1907013 -0.6744728
0.49368575 0.7392786 0.39418986 0.11845793 -0.107136205 0.2278259 -0.90236026 0.43495724
0.47556102 0.17961164 0.39019534 -0.18531917 0.5242392 -0.108806275 0.2637604 -0.34481406
0.5196176 -0.17239395 0.14512332 -0.008940541 -0.49646306 0.048863612 0.28595948 0.71844876
0.14246726 -0.3714633 -0.7650528 0.21881463 -0.39908764 -0.8795812 0.46919218 0.7298316
00000000: 23c4 473c be70 18bc e76c 3fbd 9195 543e
00000010: db1a 13bf a2a4 dfbe 25b9 28bf da2e 2cbd
00000020: 1f31 adbe dba5 f5bc 704a 823e 3c00 c3be
00000030: 4aef 31bd c176 9bbf 1e97 833d 0dfa bfbe
00000040: 032b 6ebd 99fc a83e 03ed 27bf 5a86 f0be
00000050: ab0c fe3d 88a7 dcbd e346 313f ccad 8dbe
00000060: 8482 9b3f 3b81 2cbf 0198 283f 50cd 043e
00000070: ba13 103e d859 4d3f c9f2 52be b36e 30bc
00000080: ac63 743e 8e85 323e 5736 babe 2951 8a3e
00000090: 0e58 803e ff58 e33e 0b8a 363e cc4a 03bd
000000a0: 07bb f03e f0fe 62bf 929c 32bc 546b e33d
000000b0: 5522 963e 7478 3dbe b118 ec3d 5920 253f
000000c0: f154 60bf ee9b febe 8d1a 853e 68b7 803e
000000d0: 50cb 4b3d b1dd 623f 2800 e53d 8ec2 693d
000000e0: 598f 6abe ae30 093e 391f 3a3f df06 ffbc
000000f0: 029a 1bbd cf5e 953d d8a5 233f ace2 87be
00000100: 480c 133f 41a8 023f 7ffc cc3d 87d6 bc3e
00000110: e8ea 073f a336 fc3d 3432 ed3e d1c0 ea3e
00000120: 47fa 45be 23e9 02be 121b 273e f884 833e
00000130: e567 bc3e cc53 2f3f 9abb 86bd dd78 6a3e
00000140: c0cc 91be 5559 34be 786b 9e3d 66b9 39be
00000150: c7a5 933e 5b3a abbc d8b1 ea3e c6a2 18bf
00000160: 99d7 1f3f 7197 7f3e 8da1 c73e a781 4abe
00000170: 54bd 31be faec 02bf 1513 463f 089a 063d
00000180: 0dbe e3bc 0968 cb3c af5c 373e 0355 fb3e
00000190: b42a 77be 5804 a3be 2732 c5be 2b08 6c3f
000001a0: a30f 933d 9c68 09bf d0a6 073f 7e6b c0be
000001b0: 7661 f23e 66aa 22be 2428 433e 4eb4 833e
000001c0: 155e c4be b45d de3e 045e 18be 3a1b 13be
000001d0: 2f05 e3be 4878 ef3e 1f67 1f3f 399d 893e
000001e0: 7093 16bf 0272 013d fcbc ee3e 8f3f bb3e
000001f0: 22ca 283d 4ec5 21be baa4 93be b5d6 74be
00000200: ffeb 8f3c 4397 2ebe 5ddc 81be 55b3 05bf
00000210: b1bd 8cbf 91ab 3fbf 1fe5 0abf 09bd c03d
00000220: daea 3bbf 9dd2 d63e 7681 583f 369f c93d
00000230: 11e0 3bbe 56f4 c5bd 7cf2 e53d 6b44 9a3e
00000240: d0a0 8dbe a294 67be b27c 03bf 3cfd 9d3b
00000250: 2594 02bf c03e 68bf 683f 1cbe 6fa4 993e
00000260: 2b96 103f 4936 a0be 032b 0d3f b348 453e
00000270: b6ea 48ba a183 a1be 8e63 f0be 4cfa bebe
00000280: 64c2 253f e4e4 7e3e f53c 1cbf debf 043f
00000290: 1f8d babd f479 423f 0e03 c8be 5e94 d63e
000002a0: 4237 f03e cead 52be 7f50 c23e fb8f 493e
000002b0: cc7d 603e 6228 4fbf 9177 dd3d b456 05bc
000002c0: b276 9cbe f4f4 723f d8cd 68bf b00c 36bd
000002d0: 4cf2 1bbf c686 913e a0ff a13c 384f 3d3f
000002e0: a2c6 a33e 7b2d 3a3d ac24 02bf 7b8b bbbe
000002f0: c11b 5dbf 9f45 32be 1e7f 3bbe 5cee 07bc
00000300: aeaf 9a3e c2f5 9d3e 246e de3e dd91 ee3e
00000310: c2f0 e2bd 331a 913d 9cbb a13e a66c 4bbe
00000320: 2081 b23d 1cb2 12bf 0b53 5c3e 442b 873e
00000330: d174 ef3e 064e 28bf b7b5 36be c2ce 933d
00000340: 398d 9cbc d55c b8bd 92f5 a63d ced3 203c
00000350: 245c ba3d 408a c03d 98b5 b63e 5d9a 8cbd
00000360: c65a a3bd 7e22 56bd cdaf 0ebd c651 753f
00000370: 2fd6 773d 666e 773d 3447 43be 40aa 2cbf
00000380: 61c4 fc3e 5d41 3d3f 41d3 c93e 129a f23d
00000390: 3a6a dbbd 314b 693e 1501 67bf b7b2 de3e
000003a0: bc7c f33e 1dec 373e afc7 c73e 4fc4 3dbe
000003b0: 8a34 063f d3d5 debd 9a0b 873e 788b b0be
000003c0: a905 053f 0a88 30be 359b 143e 597b 12bc
000003d0: 6830 febe 3625 483d 4869 923e 42ec 373f
000003e0: f0e2 113e 7030 bebe 80da 43bf f110 603e
000003f0: 3755 ccbe 3c2c 61bf f539 f03e 3ed6 3a3f

network_body._body_endoder.seq_layers.0.bias f4 [128]
0.0 0.0 0.0 0.0 0.0 0.0 0.0 0.0
0.0 0.0 0.0 0.0 0.0 0.0 0.0 0.0
0.0 0.0 0.0 0.0 0.0 0.0 0.0 0.0
0.0 0.0 0.0 0.0 0.0 0.0 0.0 0.0
0.0 0.0 0.0 0.0 0.0 0.0 0.0 0.0
0.0 0.0 0.0 0.0 0.0 0.0 0.0 0.0
0.0 0.0 0.0 0.0 0.0 0.0 0.0 0.0
0.0 0.0 0.0 0.0 0.0 0.0 0.0 0.0
0.0 0.0 0.0 0.0 0.0 0.0 0.0 0.0
0.0 0.0 0.0 0.0 0.0 0.0 0.0 0.0
0.0 0.0 0.0 0.0 0.0 0.0 0.0 0.0
0.0 0.0 0.0 0.0 0.0 0.0 0.0 0.0
0.0 0.0 0.0 0.0 0.0 0.0 0.0 0.0
0.0 0.0 0.0 0.0 0.0 0.0 0.0 0.0
0.0 0.0 0.0 0.0 0.0 0.0 0.0 0.0
0.0 0.0 0.0 0.0 0.0 0.0 0.0 0.0
00000000: 0000 0000 0000 0000 0000 0000 0000 0000
00000010: 0000 0000 0000 0000 0000 0000 0000 0000
00000020: 0000 0000 0000 0000 0000 0000 0000 0000
00000030: 0000 0000 0000 0000 0000 0000 0000 0000
00000040: 0000 0000 0000 0000 0000 0000 0000 0000
00000050: 0000 0000 0000 0000 0000 0000 0000 0000
00000060: 0000 0000 0000 0000 0000 0000 0000 0000
00000070: 0000 0000 0000 0000 0000 0000 0000 0000
00000080: 0000 0000 0000 0000 0000 0000 0000 0000
00000090: 0000 0000 0000 0000 0000 0000 0000 0000
000000a0: 0000 0000 0000 0000 0000 0000 0000 0000
000000b0: 0000 0000 0000 0000 0000 0000 0000 0000
000000c0: 0000 0000 0000 0000 0000 0000 0000 0000
000000d0: 0000 0000 0000 0000 0000 0000 0000 0000
000000e0: 0000 0000 0000 0000 0000 0000 0000 0000
000000f0: 0000 0000 0000 0000 0000 0000 0000 0000
00000100: 0000 0000 0000 0000 0000 0000 0000 0000
00000110: 0000 0000 0000 0000 0000 0000 0000 0000
00000120: 0000 0000 0000 0000 0000 0000 0000 0000
00000130: 0000 0000 0000 0000 0000 0000 0000 0000
00000140: 0000 0000 0000 0000 0000 0000 0000 0000
00000150: 0000 0000 0000 0000 0000 0000 0000 0000
00000160: 0000 0000 0000 0000 0000 0000 0000 0000
00000170: 0000 0000 0000 0000 0000 0000 0000 0000
00000180: 0000 0000 0000 0000 0000 0000 0000 0000
00000190: 0000 0000 0000 0000 0000 0000 0000 0000
000001a0: 0000 0000 0000 0000 0000 0000 0000 0000
000001b0: 0000 0000 0000 0000 0000 0000 0000 0000
000001c0: 0000 0000 0000 0000 0000 0000 0000 0000
000001d0: 0000 0000 0000 0000 0000 0000 0000 0000
000001e0: 0000 0000 0000 0000 0000 0000 0000 0000
000001f0: 0000 0000 0000 0000 0000 0000 0000 0000

network_body._body_endoder.seq_layers.2.weight f4 [128, 128]
0.1467724 -0.12547807 0.16216451 -0.044271506 -0.05159148 -0.06405337 -0.1036144 -0.15985571
0.050439734 -0.07836519 0.12285084 -0.016670309 -0.0344779 0.13042231 0.1159138 0.13163325
-0.060836203 -0.09558541 0.0785798 -0.17424893 -0.08136069 0.109771974 -0.071242236 0.07336477
0.029896142 0.0403805 0.13283443 0.11057822 0.076187104 -0.03800501 -0.032056034 -0.1174773
0.08704798 0.046415243 0.0034876317 0.024997095 0.013577593 -0.107397646 -0.0015497506 0.017553302
-0.0032605275 -0.011195196 -0.018310353 0.10104199 -0.018834596 -0.16934216 0.02156066 0.093912505
-0.062759124 -0.03521641 -0.006090603 -0.20999272 0.014288842 -0.012381689 -0.027587852 -0.017916286
0.07949292 -0.08907412 0.11755248 0.035870746 -0.10127114 0.035584442 -0.07973206 0.15462184
-0.041278843 0.03868812 0.11484544 0.04779303 0.025186053 -0.01834082 0.017992672 0.041841224
-0.07339636 -0.087752104 0.10154649 -0.09113419 -0.060677025 0.06929446 0.11955695 -0.08263144
-0.018353306 0.030977482 0.00042052244 0.11793358 0.028847028 -0.08489187 0.013677681 -0.016092317
-0.07280395 0.16549005 -0.08697143 0.31877837 -0.008453585 0.10021034 -0.04418373 0.11717824
0.12365424 -0.08972929 0.0626176 0.028446356 -0.014045338 0.103161804 0.13170265 0.0010247751
-0.07287749 -0.048496936 0.04199766 0.05784816 -0.045999497 0.07305706 0.07559088 0.1406837
0.02883956 0.00040595818 0.08779636 -0.015908774 -0.074288875 0.02847239 -0.20293237 0.10043932
-0.020520065 0.059584852 0.055442747 0.07771129 0.067280725 -0.15898113 0.10977217 -0.13762991
-0.050916348 0.14596193 -0.04780447 0.065620884 0.08290763 -0.06008449 -0.037763145 -0.052094538
-0.04653927 -0.0069007357 0.13182113 0.2496682 0.026132105 -0.05453749 0.054808173 0.12313371
-0.028355537 -0.010286117 -0.12653853 -0.1424435 0.078677446 0.12763819 -0.069580704 0.11930114
-0.092319235 0.150177 0.09420762 0.00820418 -0.036019772 -0.12414095 0.024172524 -0.013821431
-0.04943053 0.029827992 0.13427529 0.0034624797 -0.0365436 -0.00042572277 -0.0053363703 0.12662135
0.0299427 0.2691715 -0.0058332765 -0.1857856 0.085410304 -0.044556536 0.030197702 -0.02149245
0.10147049 -0.06771951 -0.0149479145 -0.00831767 -0.09006448 0.053902738 -0.014966974 -0.06939986
-0.039488506 -0.033160016 -0.04398265 -0.073491864 -0.036070783 0.063626856 -0.06550733 -0.11405966
0.09055924 -0.006461831 -0.10420824 -0.058857024 -0.08406932 0.0022953742 -0.06591849 -0.057374556
0.11848007 0.031871833 0.064477034 -0.07980857 0.069337875 -0.027532239 0.1174771 -0.203657
0.0826196 -0.07838696 -0.019326426 0.101507396 -0.034088857 -0.039581694 0.01624665 0.19200206
0.0131507395 0.07821686 0.09308402 -0.116004646 0.011433227 0.20997754 -0.012172451 -0.116286054
0.023014206 0.015609916 0.062008675 0.055922296 0.1242851 0.08685147 0.005942643 0.01225955
-0.18040134 0.031598028 0.10851491 0.048096195 0.059550457 0.04707272 0.13141972 -0.12073985
0.11934943 0.04077357 -0.0894463 -0.04636708 0.16052093 -0.025540318 0.15182604 -0.08735619
0.073066466 0.18189062 0.07149103 -0.039483935 0.09293707 -0.15439527 0.021024853 0.07374013
00000000: 814b 163e 537d 00be 740e 263e 0a56 35bd
00000010: 9651 53bd 6a2e 83bd c933 d4bd 37b1 23be
00000020: e599 4e3d ee7d a0bd 3999 fb3d 2c90 88bc
00000030: b338 0dbd 6d8d 053e 3764 ed3d deca 063e
00000040: 622f 79bd 49c2 c3bd 72ee a03d 506e 32be
00000050: 6fa0 a6bd 21d0 e03d 73e7 91bd 4540 963d
00000060: c1e8 f43c 0666 253d c005 083e d576 e23d
00000070: fc07 9c3d 24ab 1bbd 304d 03bd f097 f0bd
00000080: 3646 b23d e91d 3e3d c090 643b b5c6 cc3c
00000090: 8d74 5e3c 4cf3 dbbd 0021 cbba f1cb 8f3c
000000a0: 93ae 55bb 0e6c 37bc 98ff 95bc 1aef ce3d
000000b0: 034b 9abc 0868 2dbe fb9f b03c 3355 c03d
000000c0: db87 80bd 153f 10bd ae93 c7bb 5508 57be
000000d0: bf1b 6a3c 91dc 4abc ebff e1bc 2dc5 92bc
000000e0: 2fcd a23d 7e6c b6bd 5bbf f03d 34ed 123d
000000f0: 3e67 cfbd fec0 113d 904a a3bd 3055 1e3e
00000100: 0114 29bd 6f77 1e3d 1634 eb3d a0c2 433d
00000110: fb52 ce3c 7d3f 96bc 5e65 933c b461 2b3d
00000120: d550 96bd 60b7 b3bd 9bf7 cf3d 90a4 babd
00000130: 7988 78bd 41ea 8d3d 46da f43d ac3a a9bd
00000140: ac59 96bc 7dc4 fd3c 9179 dc39 2987 f13d
00000150: 9a50 ec3c cadb adbd 5a18 603c 09d4 83bc
00000160: 3d1a 95bd 3976 293e 141e b2bd eb36 a33e
00000170: e880 0abc 143b cd3d 00fa 34bd 25fb ef3d
00000180: 6f3e fd3d fdc3 b7bd a83d 803d 5508 e93c
00000190: 6b1e 66bc 7f46 d33d 0fdd 063e bf51 863a
000001a0: cb40 95bd b9a4 46bd bd05 2c3d 31f2 6c3d
000001b0: f869 3cbd f19e 953d 64cf 9a3d 630f 103e
000001c0: f140 ec3c c9d6 d439 94ce b33d 1e53 82bc
000001d0: c424 98bd ee3e e93c 81cd 4fbe 21b3 cd3d
000001e0: b219 a8bc 3f0f 743d ef17 633d 1927 9f3d
000001f0: 7aca 893d f3cb 22be 3bd0 e03d dbee 0cbe
00000200: a98d 50bd 0b77 153e 9fce 43bd 3e64 863d
00000210: 7acb a93d 271b 76bd 87ad 1abd 1561 55bd
00000220: f69f 3ebd 911f e2bb 1efc 063e 05a9 7f3e
00000230: ff12 d63c b462 5fbd 897e 603d 872d fc3d
00000240: df49 e8bc 1a87 28bc 5193 01be b5dc 11be
00000250: a421 a13d 96b3 023e 5480 8ebd 2854 f43d
00000260: de11 bdbd 00c8 193e edef c03d d36a 063c
00000270: 7889 13bd 9c3d febd 7505 c63c 4973 62bc
00000280: ab77 4abd d559 f43c 767f 093e c5ea 623b
00000290: beae 15bd 8b33 dfb9 b8dc aebb 07a9 013e
000002a0: 654a f53c d9d0 893e 1225 bfbb 953e 3ebe
000002b0: 99eb ae3d ea80 36bd 2c61 f73c ef10 b0bc
000002c0: c3cf cf3d 87b0 8abd 19e8 74bc d646 08bc
000002d0: ba73 b8bd 1ec9 5c3d 0a38 75bc 8421 8ebd
000002e0: b3be 21bd ccd2 07bd 2727 34bd e782 96bd
000002f0: f5be 13bd cc4e 823d b528 86bd 1c98 e9bd
00000300: 1f77 b93d c4bd d3bb 216b d5bd 1014 71bd
00000310: 892c acbd fd6d 163b 4600 87bd 9501 6bbd
00000320: aea5 f23d 0a8c 023d 890c 843d ad72 a3bd
00000330: 0401 8e3d 4a8b e1bc d597 f03d 768b 50be
00000340: 7734 a93d 5889 a0bd 7452 9ebc 1ce3 cf3d
00000350: c2a0 0bbd 6a20 22bd b217 853c 309c 443e
00000360: 3376 573c 2930 a03d d6a2 be3d d893 edbd
00000370: 6e52 3b3c 5a04 573e f66e 47bc 6227 eebd
00000380: 4a88 bc3c bcc0 7f3c cffc 7d3d c70e 653d
00000390: 3089 fe3d 2fdf b13d 81ba c23b 48dc 483c
000003a0: 21bb 38be ef6c 013d 113d de3d 8400 453d
000003b0: 2eeb 733d 53cf 403d e492 063e 7446 f7bd
000003c0: 796d f43d 3002 273d 9f2f b7bd 68eb 3dbd
000003d0: 995f 243e ee39 d1bc 4978 1b3e cde7 b2bd
000003e0: dfa3 953d 8941 3a3e e469 923d e8b9 21bd
000003f0: ca55 be3d cb19 1ebe 503c ac3c 1105 973d

action_model._discrete_distribution.branches.0.weight f4 [3, 128]
0.004190258 0.002808038 -0.01590577 -0.00018004097 0.013248809 0.0069188154 -0.017782167 -0.009104211
-0.004733484 0.00086439046 -0.007342489 0.006451649 -0.01710247 0.008775843 0.010433543 -0.005935468
-0.0031374511 0.006241793 0.0010300487 0.025218055 -0.014894063 0.0014372183 -0.008946106 0.012128631
-0.009807388 0.0070870155 -0.0060587903 0.0052543725 0.016425801 0.009637488 0.0074371593 -0.007528066
-0.012007545 0.006416687 0.019954365 -0.0022434997 0.009628664 9.634428e-05 0.0025249503 0.0016722303
-0.022848262 -0.0053433827 -0.0018925188 0.018166512 -0.01883299 0.0019147064 0.01425905 -0.0027382092
0.007991112 0.018416446 0.00049593265 0.0045437496 6.4867905e-05 -0.012654498 0.0017312196 0.00017374408
-0.011243782 0.0009772399 -0.0036672063 -0.00223303 -0.0028368775 0.0014579218 -0.0016997567 0.011469976
0.0048976326 0.0030013488 -0.005823691 -0.0014429835 0.01208876 0.0052708397 0.0018545532 -0.0011671896
-0.008586431 -0.0008335814 0.008235573 0.00672434 0.009728718 -0.0009364457 -0.007217875 -0.0099797845
0.003840369 0.00048799926 -0.0059157573 -0.0059015173 0.007834769 -0.005612442 -0.010899927 -0.0044940505
0.017940769 -0.0020703888 0.02109652 -0.010539788 -0.008275203 -0.0052225087 0.004213196 0.011227652
0.01935139 0.005726915 -0.007012099 0.008240203 0.00035286148 0.0046476983 0.014742519 -0.0018237274
-0.0015439419 0.007754846 -0.008351204 -0.0055872775 0.010080687 -0.007021382 0.0017400899 0.0052896803
-0.0070206127 -0.0007386568 0.005667047 0.002971902 -0.0047527025 0.0014464719 -0.0006109203 -0.0030777361
-0.017167954 0.0056478544 -0.004893218 -0.0038694 0.0041310247 0.001951808 -0.015085925 0.0051579257
-0.003046523 -0.0063107484 -0.020516066 -0.0009889808 0.01015431 -0.008106436 -0.0028238355 0.009033724
-0.00042272705 0.0047262996 0.0034836703 -0.0020602013 -0.007327477 0.008616086 -0.0009983963 0.0032186012
-0.005956515 0.00079520344 -0.0118244495 0.0019021748 -0.0017231498 0.0051666405 -0.0018132651 -0.010446369
-0.004843605 0.012901315 -0.027247611 -0.01148833 0.016121035 -0.00044864797 0.009284586 -0.01118421
0.0076235086 0.0015801501 0.0012492925 0.005065274 -0.0031789036 -0.0019400358 -0.017301736 0.02081833
0.00011470204 0.00060444 -0.0043677827 0.008870328 0.011798718 -0.0036235813 0.012963289 0.0072297244
0.006460202 -0.009128769 -0.0061571873 0.00158803 -0.011338055 0.0032297482 -0.0019632461 0.0062982924
-0.007972515 -0.011546406 -0.0132452175 -0.0024316919 -0.011277597 -0.010459366 0.00090077444 0.0006195847
0.001694506 -0.0074787694 0.005843793 0.0043178597 0.0036246292 -0.005748072 -0.011305863 0.006816003
0.008210511 -0.0106631 0.005481509 0.007122387 0.0036805735 -0.01485074 0.014079249 -0.019665822
0.00994436 -0.0075569204 0.0041632247 0.004536018 -0.0058346004 0.0027499385 -0.004489489 -0.010967781
-0.005723535 -0.012083286 -0.00076808804 0.0020074353 -0.009642742 0.006485031 0.0027980574 -0.008890322
-0.00068233843 0.00837895 0.0047192 -0.0020827686 -0.00827286 -0.0065600113 -0.0024377536 -0.012941904
0.011248547 0.010207192 0.0046102335 -0.009675751 -0.0030672436 0.006510302 0.0042051794 0.005200146
-0.005816786 -0.006407684 -0.00091088115 -0.0061930898 0.0062736743 0.0152158355 -0.0002629192 -0.0011137435
-0.0020794813 -0.006386522 0.00017517844 0.00049589947 0.0043943166 0.010035302 -0.0018530538 -0.020868521
00000000: 6f4e 893b 0f07 383b d14c 82bc 61c9 3cb9
00000010: 8811 593c 3bb7 e23b e8ab 91bc d429 15bc
00000020: 571b 9bbb 4398 623a 4399 f0bb 5b68 d33b
00000030: 7b1a 8cbc 8ec8 0f3c 73f1 2a3c 507e c2bb
00000040: b29d 4dbb f487 cc3b b302 873a 1896 ce3c
00000050: 3a06 74bc 0b61 bc3a b092 12bc 2ab7 463c
00000060: 2baf 20bc 323a e83b d188 c6bb df2c ac3b
00000070: 678f 863c 8ee6 1d3c 6ab3 f33b ffad f6bb
00000080: 4bbb 44bc 1243 d23b 5677 a33c ae07 13bb
00000090: 8bc1 1d3c 710c ca38 a379 253b bd2e db3a
000000a0: 472c bbbc 8b17 afbb 650e f8ba f0d1 943c
000000b0: a547 9abc e3f6 fa3a ca9e 693c 8773 33bb
000000c0: 27ed 023c 16de 963c 7a01 023a bce3 943b
000000d0: b109 8838 d054 4fbc 17ea e23a 122f 3639
000000e0: d737 38bc bb16 803a 8355 70bb 0758 12bb
000000f0: e8ea 39bb bd17 bf3a 5fca deba 91ec 3b3c
00000100: 527c a03b 47b2 443b a9d4 bebb 7e22 bdba
00000110: ef0f 463c 02b7 ac3b 7b14 f33a 62fc 98ba
00000120: 1aae 0cbc b384 5aba 7fee 063c da57 dc3b
00000130: 3365 1f3c cf7b 75ba ed83 ecbb 4082 23bc
00000140: b3ae 7b3b 27da ff39 f8d8 c1bb 8461 c1bb
00000150: 675d 003c 93e8 b7bb 9b95 32bc d442 93bb
00000160: 85f8 923c 5caf 07bb 9cd2 ac3c 13af 2cbc
00000170: b894 07bc 9421 abbb da0e 8a3b 30f4 373c
00000180: ce86 9e3c d8a8 bb3b c0c5 e5bb eb01 073c
00000190: 4400 b939 b84b 983b 9b8a 713c 230a efba
000001a0: 185e caba 5d1c fe3b 7dd3 08bc 7b15 b7bb
000001b0: 7729 253c 9f13 e6bb ba13 e43a 0e55 ad3b
000001c0: 2b0d e6bb 6ba2 41ba a3b2 b93b 3ec4 423b
000001d0: 8fbc 9bbb 8b97 bd3a 2b26 20ba d8b3 49bb
000001e0: cfa3 8cbc a311 b93b 4a57 a0bb c295 7dbb
000001f0: 8c5d 873b cfd3 ff3a f52a 77bc d103 a93b
00000200: 2da8 47bb 65ca cebb 4f11 a8bc b0a0 81ba
00000210: 435e 263c dbd0 04bc 1910 39bb 2f02 143c
00000220: 77a1 ddb9 13df 9a3b 4a4e 643b 7104 07bb
00000230: 551b f0bb 7c2a 0d3c 9fdc 82ba 2bef 523b
00000240: df2e c3bb 3375 503a 56bb 41bc 6552 f93a
00000250: 50db e1ba ec4c a93b 15ab edba 3f27 2bbc
00000260: 1bb7 9ebb 0a60 533c 6236 dfbc 8c39 3cbc
00000270: 4310 843c 8338 ebb9 601e 183c fa3d 37bc
00000280: a0ce f93b 0a1d cf3a 4dbf a33a 99fa a53b
00000290: 2755 50bb cd48 feba 5fbc 8dbc 348b aa3c
000002a0: 308c f038 4873 1e3a 9e1f 8fbb da54 113c
000002b0: 694f 413c 9b79 6dbb fa63 543c 53e7 ec3b
000002c0: 1ab0 d33b d590 15bc 3bc2 c9bb 7225 d03a
000002d0: 40c3 39bc 2faa 533b cea9 00bb e861 ce3b
000002e0: 279f 02bc 232d 3dbc 7802 59bc 055d 1fbb
000002f0: acc5 38bc c35d 2bbc f321 6c3a a06b 223a
00000300: 301a de3a 7710 f5bb 4a7d bf3b d57c 8d3b
00000310: 308b 6d3b 535a bcbb 3a3c 39bc c758 df3b
00000320: 6185 063c 48b4 2ebc 3b9e b33b ea62 e93b
00000330: c735 713b 8550 73bc a7ac 663c 381a a1bc
00000340: abed 223c 0ba0 f7bb a96b 883b e0a2 943b
00000350: 2d30 bfbb 5038 343b 901c 93bb 35b2 33bc
00000360: 7e8c bbbb faf8 45bc 8459 49ba 2d8f 033b
00000370: 97fc 1dbc 6280 d43b 9d5f 373b b7a8 11bc
00000380: f5de 32ba dd47 093c 85a3 9a3b 0f7f 08bb
00000390: e48a 07bc 5df5 d6bb b8c2 1fbb 480a 54bc
000003a0: d34b 383c 113c 273c 7111 973b 0b87 1ebc
000003b0: cf03 49bb 5f54 d53b 9acb 893b fd65 aa3b
000003c0: bd9a bebb 8df7 d1bb 33c8 6eba 67ef cabb
000003d0: 6593 cd3b d74b 793c 6bd8 89b9 08fb 91ba
000003e0: e847 08bb 0846 d1bb 1bb0 3739 40ff 013a
000003f0: 33fe 8f3b 1b6b 243c 2be2 f2ba 76f4 aabc

action_model._discrete_distribution.branches.0.bias f4 [3]
0.0 0.0 0.0
00000000: 0000 0000 0000 0000 0000 0000

action_model._discrete_distribution.branches.1.weight f4 [3, 128]
-0.004535595 0.010284747 -0.014247149 -0.013067538 -0.0075244578 -0.005949562 -0.0039403145 0.0019640124
0.007994695 0.006715597 -0.0004762141 0.004310527 0.001958107 -0.0076929443 0.006384281 0.010241225
0.008404651 -0.0077414433 -0.011057007 -0.008450123 -0.0140601145 0.0070266947 0.0012227931 -0.019138975
0.0063667186 -0.005987469 0.010998386 0.004783803 0.010702008 0.022375008 0.0019569907 -0.006339993
0.0027701803 -0.021187225 0.006877237 0.011032055 -0.009522031 0.010417453 -0.0019784735 0.006138004
-0.012184071 -0.015989 0.0017012556 0.00082609936 -0.0023517308 -0.014137319 -0.006119181 -0.0016276905
0.013110961 -0.0047805905 -0.0024275328 0.006793613 -0.0014227108 -0.009004461 -0.0022346217 -0.004750613
0.0038928443 -0.0011309799 -0.0047434294 -0.011561061 0.0053335237 -0.015888698 0.0061182785 0.0069021382
0.014752681 -0.00019398029 0.0015361162 -0.013061694 -0.010216838 0.007232473 -0.005671472 -0.0038919263
-0.002990943 -0.0010423883 -0.00980624 -0.002823701 0.004177173 0.00050157815 0.0024577405 0.008682537
-0.0052351947 -0.0052637286 -0.020252978 0.0049374695 7.069209e-05 0.00051616295 0.006836089 -0.007050924
-0.018678283 -0.011539073 0.0063758167 0.0028361452 -0.0015245427 0.0009439314 -0.0001883072 0.0066616037
0.014290008 0.004102145 -0.0017222041 -0.009468772 -0.012218039 0.007692246 0.0027223434 0.007696522
-0.00087238586 -0.00914852 -0.010349808 -0.011919807 -0.0042188964 -0.010323977 -0.010459993 0.0019927688
0.008487326 -0.0041381237 -0.0003973418 0.008089588 -0.0008823015 -0.01487753 -0.011044255 -0.0036689935
0.010539074 -0.007177057 -0.019425297 -0.001315585 0.020518221 -0.012164026 -0.0057212655 0.0029142248
-0.0033967556 -0.015148065 0.00090242684 -0.00018238049 0.017622968 -0.0032918826 -0.010965324 -0.016816385
0.0034642336 0.011923528 -0.007300558 -0.0025899508 0.009269006 -0.010684164 0.0017470878 0.0019466628
0.013575015 0.010078701 -0.0037539762 -0.013754641 0.016631836 -0.00705816 -0.0037238696 0.009787174
-0.0053100856 -0.0071675414 -0.0010540703 0.016218143 -0.025665108 -0.00071655883 -0.00022904306 -0.0034779233
0.005291886 0.00636483 -0.00981398 -0.005672788 -0.0155962575 -0.0051336796 0.0045062816 0.0034292468
0.0016147516 0.020898912 -0.0064875796 -0.013390725 0.005833122 -0.005733074 -0.006494096 -0.0069429623
-6.537845e-05 0.0028368135 -0.0028941191 -0.0031047473 -0.0050628227 0.0068193832 0.0013468527 0.0048968606
9.386846e-05 -0.0036396577 -0.004558463 -0.0011947987 0.008644621 -0.0034998076 0.0008895506 -0.0020056607
0.005552958 0.001261619 -0.0082084155 0.0007273801 -0.014367682 -0.002817182 -0.0029288672 -0.015348089
0.004403714 0.0033616521 0.008193187 0.024550464 -0.007935618 0.0011537955 -0.00044124998 0.009475573
-0.00148928 -0.0037435645 -0.0012625938 0.012865542 -0.010313453 -0.0010486894 0.013543186 -0.00061251776
-0.0055239606 0.011235052 -0.010344347 -0.0016556749 0.003809545 -0.0009209515 0.0054613426 -0.0028117413
0.005916093 -0.0033461712 0.01688782 0.004488261 0.0025904719 0.015102706 -0.0007900728 -0.0006275584
-0.0069877147 0.012112697 -0.0030817655 0.0023730937 -0.004959285 0.008532201 0.003033157 0.009318388
0.01121457 -0.006668663 0.0013358499 -0.002425156 -0.00332854 -0.00044102172 0.005849024 -0.010903082
-0.0039443146 -0.0021207768 -0.0038881276 0.019249627 2.732348e-05 0.013424799 0.010115223 0.0013843097
00000000: 549f 94bb 5b81 283c e06c 69bc 3a19 56bc
00000010: ba8f f6bb 8bf4 c2bb c11d 81bb a9b6 003b
00000020: 2efc 023c 830e dc3b 60ac f9b9 523f 8d3b
00000030: 9653 003b 1815 fcbb 3b33 d13b d0ca 273c
00000040: a9b3 093c efab fdbb 7328 35bc 6272 0abc
00000050: 655c 66bc 3040 e63b 2146 a03a 57c9 9cbc
00000060: e89f d03b 8832 c4bb 9332 343c 73c1 9c3b
00000070: 7a57 2f3c cb4b b73c db40 003b b7bf cfbb
00000080: ea8b 353b d590 adbc 725a e13b cbbf 343c
00000090: 4b02 1cbc f7ad 2a3c 47a9 01bb 4f21 c93b
000000a0: b39f 47bc 5dfb 82bc aafc de3a 978e 583a
000000b0: 7f1f 1abb 37a0 67bc 6983 c8bb 3b58 d5ba
000000c0: 5bcf 563c 80a6 9cbb 3e17 1fbb f59c de3b
000000d0: 417a baba 7287 13bc bb72 12bb 08ab 9bbb
000000e0: 171f 7f3b 633d 94ba c56e 9bbb 9b6a 3dbc
000000f0: d7c4 ae3b 0429 82bc d77b c83b 552b e23b
00000100: 3bb5 713c 3067 4bb9 8257 c93a b700 56bc
00000110: 8664 27bc 62fe ec3b c1d7 b9bb b00f 7fbb
00000120: b203 44bb bfa0 88ba 5aaa 20bc d70d 39bb
00000130: abe0 883b 577c 033a 0b12 213b 3341 0e3c
00000140: ff8b abbb 5b7b acbb 93e9 a5bc 7fca a13b
00000150: 8740 9438 1c4f 073a 4501 e03b 700b e7bb
00000160: 3303 99bc 610e 3dbc 3aec d03b 9fde 393b
00000170: 2ad3 c7ba 2a72 773a 5474 45b9 9549 da3b
00000180: a320 6a3c 496b 863b 95bb e1ba e922 1bbc
00000190: 2b2e 48bc 3d0f fc3b 5869 323b 1b33 fc3b
000001a0: d3b0 64ba ade3 15bc 3e92 29bc 4b4b 43bc
000001b0: ab3e 8abb e625 29bc 6460 2bbc 1d99 023b
000001c0: 6d0e 0b3c 1999 87bb 5052 d0b9 318a 043c
000001d0: 404a 67ba e2c0 73bc f7f2 34bc 7f73 70bb
000001e0: 15ac 2c3c 852d ebbb cd21 9fbc b56f acba
000001f0: d415 a83c 9f4b 47bc 7479 bbbb 94fc 3e3b
00000200: 1a9c 5ebb 972f 78bc d790 6c3a 643d 3fb9
00000210: 0b5e 903c a0bc 57bb e7a7 33bc 84c2 89bc
00000220: 3208 633b e75a 433c 8539 efbb 2abc 29bb
00000230: 07dd 173c a20c 2fbc 8afe e43a 2a27 ff3a
00000240: bd69 5e3c 2321 253c 4505 76bb 255b 61bc
00000250: 7d3f 883c 2348 e7bb 2a0c 74bb 625a 203c
00000260: 3a00 aebb b2dd eabb bb28 8aba e9db 843c
00000270: a23f d2bc 73d7 3bba 472b 70b9 dfed 63bb
00000280: 8f67 ad3b 1090 d03b d1ca 20bc cbe2 b9bb
00000290: 7287 7fbc 6d38 a8bb 6ea9 933b 37bd 603b
000002a0: 13a6 d33a 3234 ab3c c395 d4bb c564 5bbc
000002b0: c623 bf3b 83dc bbbb 6dcc d4bb ca81 e3bb
000002c0: ca1b 89b8 d5e9 393b 43ab 3dbb 0479 4bbb
000002d0: 09e6 a5bb 2275 df3b e188 b03a d875 a03b
000002e0: 3fdb c438 5387 6ebb 295f 95bb cb9a 9cba
000002f0: 2ba2 0d3c 075d 65bb bb30 693a 6771 03bb
00000300: 97f5 b53b e95c a53a 977c 06bc a7ad 3e3a
00000310: 6d66 6bbc 79a0 38bb 3df2 3fbb 8d76 7bbc
00000320: 084d 903b 2a4f 5c3b b83c 063c 0e1e c93c
00000330: 6504 02bc f43a 973a 9257 e7b9 6f3f 1b3c
00000340: f233 c3ba 9756 75bb 9e7d a5ba ffc9 523c
00000350: c2f9 28bc 2d74 89ba 3de4 5d3c 5f91 20ba
00000360: 5702 b5bb 3913 383c 567b 29bc 3b03 d9ba
00000370: 8fa9 793b 026c 71ba 10f5 b23b 3145 38bb
00000380: c9db c13b 704b 5bbb 5358 8a3c 4312 933b
00000390: e8c4 293b 5771 773c e31c 4fba bb82 24ba
000003a0: 33f9 e4bb 5574 463c 72f7 49bb e885 1b3b
000003b0: 7f81 a2bb a5ca 0b3c eec7 463b 27ac 183c
000003c0: 51bd 373c cd84 dabb af17 af3a 5eef 1ebb
000003d0: a223 5abb ef38 e7b9 2ba9 bf3b d7a2 32bc
000003e0: 4f3f 81bb bbfc 0abb f5cf 7ebb 65b1 9d3c
000003f0: ba34 e537 b0f3 5b3c 52ba 253c ba71 b53a

action_model._discrete_distribution.branches.2.weight f4 [1, 128]
0.0063303784 0.0066050584 -0.009631606 -0.0049000434 -0.014776133 0.008168909 0.008941357 -0.0067622312
-0.009823508 0.0049323468 -0.011517833 0.00722642 0.0025565892 -0.022877125 0.0015441091 -0.0014151796
-0.009883205 0.011620466 -0.009847804 -0.009350439 -0.005125028 0.0016986367 0.004304982 0.012520102
-0.004196818 -0.003103544 -0.0017261737 0.0014249649 -0.0024730905 0.015467604 0.0025295538 -0.012512489
0.00091475836 -0.007123166 0.010532023 -0.0028205242 -0.0037178125 0.0062580067 -0.0018376437 -0.0017516831
0.014389201 -0.0010288463 -0.00021654472 -0.011118338 0.012153308 -0.0018831164 0.006691642 0.004996072
-0.007601525 -0.007064249 0.005030429 -0.0048686923 -0.011053632 0.004004255 -0.0027159816 -0.0043240804
0.0021059976 0.014421417 -0.01351884 0.015125911 -0.0015073699 -0.006768428 0.00042258404 -0.010266558
0.01160468 0.001892343 -0.0070986734 -0.0035673392 0.003104543 0.0035589614 -0.0030606957 -0.01342796
-0.0051203235 0.006895512 -0.0018779951 0.003648797 -0.003947286 -0.0008554952 -0.011570053 0.007073345
-0.012041337 -0.011410497 -0.016462464 0.0043491847 0.0058494858 -0.0032496732 -0.010726444 0.0124010295
0.009676056 -0.008346754 -0.011691757 -0.0035988006 0.00057511765 -0.00017090104 0.0022743223 -0.01102857
0.0073746177 -0.0065590437 -0.0064685545 -0.0035032015 -0.0017947768 -0.00693395 0.003323638 -0.0006965046
0.018053396 -0.01609225 -0.0054148487 -0.018440751 -0.009000427 -0.0025343983 0.0017787245 -0.002571186
0.014117827 -0.00019634304 -0.002548821 -0.01174108 0.006406641 0.0090926895 -0.004378067 0.0037657444
0.0062040915 0.00038753595 0.016695984 -0.010858637 -0.0013285191 0.00035790898 0.005423416 -0.003982718
00000000: 106f cf3b 3f6f d83b e2cd 1dbc 8b90 a0bb
00000010: 9817 72bc e3d6 053c c57e 123c b595 ddbb
00000020: c7f2 20bc 869f a13b 4bb5 3cbc 9bcb ec3b
00000030: 738c 273b cf68 bbbc b463 ca3a 8c7d b9ba
00000040: 2bed 21bc c463 3e3c af58 21bc 9532 19bc
00000050: daef a7bb caa4 de3a ce10 8d3b 1d21 4d3c
00000060: 7685 89bb d464 4bbb c740 e2ba e3c5 ba3a
00000070: 9313 22bb d56b 7d3c dfc6 253b 2f01 4dbc
00000080: 65cc 6f3a 7369 e9bb 828e 2c3c 8bd8 38bb
00000090: 8ba6 73bb f70f cd3b 17dd f0ba bb98 e5ba
000000a0: afc0 6b3c 5ada 86ba 4810 63b9 b129 36bc
000000b0: ab1e 473c e7d2 f6ba 9045 db3b 17b6 a33b
000000c0: 3716 f9bb 377b e7bb 4cd6 a43b 8d89 9fbb
000000d0: 4b1a 35bc 2036 833b 9cfe 31bb 04b1 8dbb
000000e0: c704 0a3b cf47 6c3c 207e 5dbc abd2 773c
000000f0: f192 c5ba b0c9 ddbb 458e dd39 1135 28bc
00000100: 8e21 3e3c 7f08 f83a fd9b e8bb 05ca 69bb
00000110: 9775 4b3b 773d 693b f495 48bb f200 5cbc
00000120: 63c8 a7bb bff3 e13b 0f27 f6ba a820 6f3b
00000130: 3c58 81bb 5043 60ba 5290 3dbc 85c7 e73b
00000140: 0749 45bc 18f3 3abc 4adc 86bc 9b83 8e3b
00000150: 0bad bf3b 78f8 54bb f8bd 2fbc b02d 4b3c
00000160: 5288 1e3c d3c0 08bc c88e 3fbc dbd9 6bbb
00000170: 7ec3 163a e633 33b9 cc0c 153b 2db1 34bc
00000180: c7a6 f13b 3fed d6bb 2bf6 d3bb f895 65bb
00000190: b73e ebba 3036 e3bb 65d1 593b a295 36ba
000001a0: b7e4 933c e5d3 83bc 0b6f b1bb 0f11 97bc
000001b0: 8776 13bc 2618 26bb 1724 e93a 5881 28bb
000001c0: 754e 673c 6fe1 4db9 1f0a 27bb a95d 40bc
000001d0: cdee d13b 81f9 143c e375 8fbb b5ca 763b
000001e0: b14b cb3b 322e cb39 04c6 883c 6de8 31bc
000001f0: b421 aeba bba5 bb39 e9b6 b13b 7681 82bb
