results/ppo/ControlCar/ControlCar-1911.onnx (onnx, 82320 bytes, 8 tensors)

discrete_act_size_vector f4 [1, 3]
0	0x40400000	3.0
1	0x40400000	3.0
2	0x3f800000	1.0

network_body._body_endoder.seq_layers.0.weight f4 [128, 6]
0	0x3d81fae8	0.06346685
1	0xbc0f5eea	-0.008750657
2	0xbe6e6a86	-0.23282823
3	0xbe2a4b7b	-0.16630356
4	0x3e561c94	0.20909339
5	0xbdf002ea	-0.11719306
6	0xbeed1bec	-0.46310365
7	0x3dddd473	0.10831537
8	0x3f408ca1	0.7521458
9	0x3e85ee46	0.2615835
10	0xbe8d025d	-0.27540866
11	0x3aeec72a	0.0018217315
12	0x3d18752c	0.03722112
13	0xbe643779	-0.22286786
14	0x3eb2a953	0.3489481
15	0xbde71fb2	-0.11285342
16	0x3ef35096	0.4752242
17	0x3ef81e2b	0.48460516
18	0xbe179832	-0.14804152
19	0xbe6e17a7	-0.2325121
20	0x3e21b8e6	0.1579319
21	0x3ee68e7b	0.4503058
22	0xbe8883b2	-0.26662976
23	0x3eea0ede	0.45714468
24	0xbe021e8e	-0.12706968
25	0x3eac2f72	0.33629948
26	0x3ed6cbd0	0.41952372
27	0x3bcb4625	0.0062034302
28	0xbe9b852f	-0.3037505
29	0xbe207696	-0.15670237
30	0xbf039493	-0.5139858
31	0x3d083bb6	0.03326007
32	0x3eaca9de	0.33723348
33	0xbefbdbf6	-0.49191254
34	0xbe9cb676	-0.30607957
35	0x3db119f3	0.086475275
36	0xbf0bb4c5	-0.5457271
37	0xbe582896	-0.21109232
38	0xbf36c628	-0.7139611
39	0x3d712897	0.0588766
40	0xbea36c03	-0.31918344
41	0x3e6ce45c	0.23133987
42	0x3f346ee4	0.70481706
43	0xbd028179	-0.031861756
44	0x3eaa4335	0.332544
45	0x3c829159	0.015938448
46	0x3ebf16bc	0.37322032
47	0xbf1709ae	-0.58999145
48	0xbe3ad032	-0.18243483
49	0x3e08dea0	0.13366175
50	0x3f519859	0.8187309
51	0x3e2d70c0	0.16937542
52	0xbf184855	-0.5948537
53	0x3f321d23	0.6957571
54	0x3ed090a8	0.40735364
55	0x3d6fc20c	0.058534667
56	0xbf410668	-0.754004
57	0xbe192824	-0.14956719
58	0xbd75a200	-0.05996895
59	0x3e3920aa	0.18078867
60	0xbe0b70f1	-0.13617302
61	0x3e53c9b9	0.2068242
62	0x3e24e0b8	0.16101348
63	0xbebbadc0	-0.36655998
64	0xbece1edd	-0.40257922
65	0xbea68d62	-0.32529742
66	0xbeb1fa6f	-0.34761378
67	0x3eb29f08	0.34886956
68	0x3f12dffe	0.57373035
69	0x3b9c3718	0.00476731
70	0xbf31ec30	-0.6950102
71	0x3e285946	0.16440305
72	0x3d27b415	0.040943224
73	0x3eafe81d	0.34356776
74	0x3c4aef85	0.0123862075
75	0xbf0a40b8	-0.54005
76	0xbdab8703	-0.08375361
77	0xbe8b99e2	-0.2726584
78	0xbd59ba05	-0.053155918
79	0x3f117421	0.56817824
80	0xbdccd762	-0.100020185
81	0xbdf0e11a	-0.11761685
82	0xbeea32f8	-0.4574201
83	0xbf034c2d	-0.5128811
84	0xbf3f0d01	-0.7462922
85	0xbdfc8cad	-0.12331519
86	0xbe8396c8	-0.25700974
87	0x3e9d8efa	0.30773145
88	0xbec55430	-0.38540792
89	0xbf509bd7	-0.8148779
90	0x3ea83fcf	0.32861182
91	0xbf085f7d	-0.53270704
92	0x3e5226e9	0.20522656
93	0xbf6ad3b4	-0.91729283
94	0x3f458d56	0.77168787
95	0x3f42c4ee	0.7608174
96	0xbe99bb5a	-0.3002575
97	0x3e5bb2d7	0.2145494
98	0xbec8315b	-0.39100155
99	0xbe5e1f3e	-0.21691605
100	0x3eb3daf1	0.35127977
101	0xbe86032c	-0.26174295
102	0x3e6a739a	0.22895661
103	0x3f332089	0.6997152
104	0xbd9a447f	-0.07532596
105	0xbf603dce	-0.87594306
106	0x3f24d3b3	0.6438553
107	0x3df109a6	0.117694184
108	0xbd3f3294	-0.046679094
109	0xbc5a2432	-0.013314294
110	0xbe84bdf3	-0.2592617
111	0xbed41897	-0.4142501
112	0x3ede65a5	0.43436924
113	0x3dd1fa3a	0.10252805
114	0x3f402ab1	0.7506514
115	0xbe397e08	-0.18114483
116	0xbf075d3e	-0.5287665
117	0x3e27d0ae	0.16388199
118	0xbe8ce608	-0.2751925
119	0xbe3ad904	-0.18246847
120	0x3f021c9b	0.508249
121	0x3ebfe892	0.37482125
122	0xbe1043a6	-0.14088306
123	0x3d98c088	0.074585974
124	0xbf3db222	-0.74099934
125	0x3d4ff76b	0.050773066
126	0xbee21b5c	-0.441615
127	0xbf6d1e0a	-0.9262396
128	0xbe86e1d4	-0.26344168
129	0x3e7a7d3c	0.24461836
130	0xbe16b37f	-0.1471691
131	0x3e8c45e7	0.2739708
132	0xbf860f89	-1.0473491
133	0xbe517080	-0.20453072
134	0xbf26e7c5	-0.651974
135	0x3de9a44d	0.11408291
136	0x3e8df562	0.27726275
137	0x3f5a1782	0.8519212
138	0x3d92b78a	0.071639135
139	0x3ebac24d	0.36476365
140	0x3f580f59	0.8439842
141	0xbc666469	-0.014062026
142	0x3d951d86	0.07281022
143	0xbe0d3753	-0.13790636
144	0xbec0b56a	-0.37638408
145	0x3eb88892	0.36041695
146	0x3e6dccf1	0.2322271
147	0x3d94194f	0.0723139
148	0x3e110e39	0.14165582
149	0x3de1676b	0.110060535
150	0x3a00e0d9	0.00049163174
151	0x3eee906f	0.4659457
152	0xbddfe9e5	-0.10933284
153	0x3f4648e9	0.77455
154	0xbe77ad52	-0.2418721
155	0xbe9adc69	-0.30246285
156	0x3eb08928	0.34479642
157	0xbef7e771	-0.48418763
158	0xbeb0f68b	-0.34563097
159	0xbebfeec5	-0.37486854
160	0x3da3a071	0.07989586
161	0x3db59cfb	0.08867832
162	0x3e03e959	0.12881984
163	0x3e8a864e	0.2705559
164	0x3ee86e89	0.45396832
165	0xbeeccabd	-0.46248427
166	0xbe623bd9	-0.22093143
167	0xbe0a405f	-0.13501118
168	0xbea31b03	-0.31856546
169	0xbee778cf	-0.45209357
170	0x3dc11e75	0.09429637
171	0xbdf15647	-0.11784034
172	0x3e0c2398	0.13685453
173	0x3f10f86c	0.5662906
174	0x3ec20492	0.37894112
175	0xbe280b5f	-0.16410588
176	0xbeb44946	-0.35212153
177	0x3f35f380	0.71074677
178	0x3e019b76	0.1265696
179	0x3d6369a3	0.055520665
180	0x3f35353b	0.7078435
181	0x3eb4438b	0.3520778
182	0xbc6a959f	-0.014317899
183	0x3e12bda7	0.14330159
184	0x3f282b8b	0.6569144
185	0xbeab6d62	-0.3348189
186	0x3f1a1b3a	0.60197794
187	0xbf802d77	-1.0013875
188	0xbebe0a00	-0.37117004
189	0x3e85f692	0.2616468
190	0x3e55b0f9	0.20868291
191	0x3df6e2f6	0.12055008
192	0x3d85a541	0.0652566
193	0x3eabbee9	0.3354409
194	0xbf138a38	-0.5763278
195	0xbe89130e	-0.2677235
196	0xbe87aa65	-0.26497188
197	0xbef1c47f	-0.47220227
198	0x3ee27041	0.44226268
199	0xbf5715cf	-0.8401765
200	0xbf4dd7e2	-0.80407536
201	0xbda87f75	-0.082274355
202	0xbcda726d	-0.02666589
203	0xbe871966	-0.26386565
204	0xbee3b96e	-0.4447741
205	0x3edf751e	0.4364404
206	0xbe8add3c	-0.27121913
207	0x3b5a19d5	0.0033279557
208	0xbf14f239	-0.581821
209	0xbe41fb43	-0.18943505
210	0x3e27135b	0.16315977
211	0xbf6078f6	-0.8768457
212	0x3c6dc54e	0.014512373
213	0xbdec0309	-0.115240164
214	0x3e43f07d	0.19134708
215	0xbdcd4e66	-0.10024719
216	0xbf0c328e	-0.5476464
217	0xbe82fe5e	-0.25584692
218	0x3ec27417	0.37979195
219	0x3ed04cf8	0.40683722
220	0x3eb820f0	0.3596263
221	0x3dcf4513	0.10120597
222	0xbe97f684	-0.29680264
223	0xbe05c7a5	-0.1306444
224	0xbe9d278e	-0.3069424
225	0xbf33ef4a	-0.70287
226	0xbddf49fc	-0.10902783
227	0x3dece802	0.115676895
228	0xbd128dc1	-0.03577972
229	0x3e4563ad	0.19276305
230	0xbc270df2	-0.010196196
231	0xbe9c9cb3	-0.30588302
232	0x3f02d91b	0.51112527
233	0x3eb113bb	0.34585366
234	0xbcf43f51	-0.029815348
235	0xbf497ee9	-0.78709275
236	0x3f1d81b7	0.61526054
237	0xbf73eed1	-0.9528628
238	0x3f23bbb8	0.6395831
239	0xbe873a3d	-0.2641162
240	0xbf3b2818	-0.73108053
241	0x3b9ae491	0.0047269543
242	0x3dd7373d	0.10508583
243	0x3e0fc88a	0.14041343
244	0xbd054c36	-0.032543384
245	0xbea17d29	-0.31540802
246	0x3eac3654	0.336352
247	0xbe54b2ac	-0.20771283
248	0xbe8db02a	-0.27673465
249	0xbebe2d46	-0.37143916
250	0xbcbba6a8	-0.022906616
251	0xbee570de	-0.44812673
252	0xbe21e41f	-0.15809678
253	0xbe3d47d0	-0.18484426
254	0x3e8c83a6	0.2744419
255	0xba8c6c8a	-0.00107135

network_body._body_endoder.seq_layers.0.bias f4 [128]
0	0x00000000	0.0
1	0x00000000	0.0
2	0x00000000	0.0
3	0x00000000	0.0
4	0x00000000	0.0
5	0x00000000	0.0
6	0x00000000	0.0
7	0x00000000	0.0
8	0x00000000	0.0
9	0x00000000	0.0
10	0x00000000	0.0
11	0x00000000	0.0
12	0x00000000	0.0
13	0x00000000	0.0
14	0x00000000	0.0
15	0x00000000	0.0
16	0x00000000	0.0
17	0x00000000	0.0
18	0x00000000	0.0
19	0x00000000	0.0
20	0x00000000	0.0
21	0x00000000	0.0
22	0x00000000	0.0
23	0x00000000	0.0
24	0x00000000	0.0
25	0x00000000	0.0
26	0x00000000	0.0
27	0x00000000	0.0
28	0x00000000	0.0
29	0x00000000	0.0
30	0x00000000	0.0
31	0x00000000	0.0
32	0x00000000	0.0
33	0x00000000	0.0
34	0x00000000	0.0
35	0x00000000	0.0
36	0x00000000	0.0
37	0x00000000	0.0
38	0x00000000	0.0
39	0x00000000	0.0
40	0x00000000	0.0
41	0x00000000	0.0
42	0x00000000	0.0
43	0x00000000	0.0
44	0x00000000	0.0
45	0x00000000	0.0
46	0x00000000	0.0
47	0x00000000	0.0
48	0x00000000	0.0
49	0x00000000	0.0
50	0x00000000	0.0
51	0x00000000	0.0
52	0x00000000	0.0
53	0x00000000	0.0
54	0x00000000	0.0
55	0x00000000	0.0
56	0x00000000	0.0
57	0x00000000	0.0
58	0x00000000	0.0
59	0x00000000	0.0
60	0x00000000	0.0
61	0x00000000	0.0
62	0x00000000	0.0
63	0x00000000	0.0
64	0x00000000	0.0
65	0x00000000	0.0
66	0x00000000	0.0
67	0x00000000	0.0
68	0x00000000	0.0
69	0x00000000	0.0
70	0x00000000	0.0
71	0x00000000	0.0
72	0x00000000	0.0
73	0x00000000	0.0
74	0x00000000	0.0
75	0x00000000	0.0
76	0x00000000	0.0
77	0x00000000	0.0
78	0x00000000	0.0
79	0x00000000	0.0
80	0x00000000	0.0
81	0x00000000	0.0
82	0x00000000	0.0
83	0x00000000	0.0
84	0x00000000	0.0
85	0x00000000	0.0
86	0x00000000	0.0
87	0x00000000	0.0
88	0x00000000	0.0
89	0x00000000	0.0
90	0x00000000	0.0
91	0x00000000	0.0
92	0x00000000	0.0
93	0x00000000	0.0
94	0x00000000	0.0
95	0x00000000	0.0
96	0x00000000	0.0
97	0x00000000	0.0
98	0x00000000	0.0
99	0x00000000	0.0
100	0x00000000	0.0
101	0x00000000	0.0
102	0x00000000	0.0
103	0x00000000	0.0
104	0x00000000	0.0
105	0x00000000	0.0
106	0x00000000	0.0
107	0x00000000	0.0
108	0x00000000	0.0
109	0x00000000	0.0
110	0x00000000	0.0
111	0x00000000	0.0
112	0x00000000	0.0
113	0x00000000	0.0
114	0x00000000	0.0
115	0x00000000	0.0
116	0x00000000	0.0
117	0x00000000	0.0
118	0x00000000	0.0
119	0x00000000	0.0
120	0x00000000	0.0
121	0x00000000	0.0
122	0x00000000	0.0
123	0x00000000	0.0
124	0x00000000	0.0
125	0x00000000	0.0
126	0x00000000	0.0
127	0x00000000	0.0

network_body._body_endoder.seq_layers.2.weight f4 [128, 128]
0	0xbd2abbcc	-0.041683003
1	0xbd377fbb	-0.044799548
2	0x3dfa89fb	0.12233349
3	0x3dd078ed	0.10179315
4	0x3d927159	0.071505256
5	0xbdf5a37e	-0.11994074
6	0xbd20eb42	-0.03928686
7	0xbd172f46	-0.036910318
8	0xbd9c01ff	-0.07617568
9	0x3dc08c13	0.09401717
10	0xbe071f5b	-0.13195555
11	0xbe69bda7	-0.22826253
12	0x3d50b42b	0.05095307
13	0x3e173f95	0.14770348
14	0x3c194cb2	0.0093566645
15	0xbb8ce663	-0.004299925
16	0x3cba8d0a	0.02277233
17	0xbd6ae632	-0.057348438
18	0xbd3cced6	-0.04609569
19	0xbd1b4750	-0.037909806
20	0xbe26f621	-0.16304828
21	0x3d176831	0.0369646
22	0x3d9d4e97	0.076810054
23	0xbd6f7a79	-0.05846641
24	0xbd55782d	-0.05211656
25	0x3d84520a	0.0646096
26	0xbd964ae8	-0.07338506
27	0xbb032506	-0.0020011081
28	0xbd62968f	-0.055319365
29	0xbd8ffa1e	-0.07030128
30	0x3cf0bdc5	0.029387364
31	0xbd83d04b	-0.06436213
32	0xbd1ec7a7	-0.038764622
33	0x3e12f10a	0.14349762
34	0xbc89ef48	-0.016837731
35	0x3e23030f	0.15919136
36	0x3d334756	0.043769203
37	0xbd73a403	-0.059482586
38	0xbd12c241	-0.035829786
39	0x3c9f3301	0.0194335
40	0xbe4a301b	-0.19744913
41	0x3de48e98	0.1116001
42	0x3dee4c10	0.116356015
43	0xbd3256da	-0.04353986
44	0x3e06619e	0.13123176
45	0x3ccd4823	0.025058812
46	0x3cdc62da	0.026902605
47	0xbd27183c	-0.040794596
48	0x3e3abc2e	0.18235847
49	0x3d62f1f4	0.055406526
50	0x3d460342	0.04834295
51	0x3e264e15	0.16240723
52	0x3dd00148	0.101564944
53	0xbd3532f7	-0.044238057
54	0x3da353c5	0.07974962
55	0xbdd4a9e4	-0.103839666
56	0xbbd0606b	-0.00635915
57	0x3c1c6dab	0.009547631
58	0xbdfd0d89	-0.12356097
59	0x3c96ded1	0.018416794
60	0x3c6bf6b8	0.014402084
61	0xbc5a926e	-0.013340576
62	0xbc52afdd	-0.012859312
63	0xbd7315a9	-0.05934683
64	0x3d3204ac	0.043461487
65	0x3de531d3	0.11191144
66	0xbda84c93	-0.082177304
67	0xbd7acc98	-0.061230272
68	0x3e1c9024	0.1528936
69	0xbe2da737	-0.16958319
70	0x3d9a8bb3	0.07546177
71	0xbc660685	-0.01403964
72	0x3cb60282	0.022217993
73	0xbcd686c7	-0.026187314
74	0x3d830c89	0.06398875
75	0xbd6f7336	-0.058459483
76	0xbca1b353	-0.019738829
77	0xbd3bf688	-0.045889407
78	0xbd39f0ff	-0.045395847
79	0x3cba7e22	0.022765223
80	0x3db001ef	0.08594119
81	0xbd8c5505	-0.06852154
82	0xbdf905b1	-0.12159289
83	0x3d245516	0.040120207
84	0xbdd133da	-0.10214968
85	0xba669b79	-0.0008796971
86	0x3cd3c412	0.02585033
87	0x3e1c7e72	0.1528261
88	0x3dd9a854	0.10627809
89	0x3d7d9135	0.06190606
90	0xbd361f42	-0.044463404
91	0x3dd29b6f	0.10283553
92	0xbb72641f	-0.0036985946
93	0x3e624b54	0.22099048
94	0xbdd01075	-0.10159389
95	0xbda16368	-0.07880288
96	0x3b81b8e9	0.0039588106
97	0x3bd6d340	0.0065559447
98	0x3cb7817f	0.022400616
99	0xbd82bd11	-0.06383718
100	0xbb8f3e66	-0.004371452
101	0x3cc80cbe	0.024420138
102	0x3d7c26ad	0.06156032
103	0xbd08d68b	-0.03340773
104	0xbda35243	-0.079746746
105	0xbd55b95c	-0.052178726
106	0xbd3b24f1	-0.045689527
107	0xbd095e4c	-0.033537194
108	0xbc57e5b5	-0.013177325
109	0xbcce1a6c	-0.025159083
110	0x3d1717d6	0.036887966
111	0xbcfc742c	-0.030817114
112	0x3d5d0ced	0.053967405
113	0xbddc0d8d	-0.10744772
114	0xbe46c40d	-0.19410725
115	0xbe11b476	-0.14228997
116	0x3dbed441	0.09317828
117	0x3c73426a	0.014847377
118	0x3de9b13d	0.11410759
119	0xbd0c43c8	-0.03424433
120	0x3c81f2d6	0.015862864
121	0x3e37ca97	0.17948376
122	0xbd828a9f	-0.06374096
123	0xbce4a4fa	-0.027910698
124	0x3d8d0684	0.068860084
125	0x3d477f2f	0.048705276
126	0xbdc751c5	-0.09732393
127	0xbdb53c61	-0.08849407
128	0xbd85d052	-0.065338746
129	0xbe0372db	-0.12836783
130	0xbc8217a5	-0.015880415
131	0xbd0d9a64	-0.034571066
132	0xbcdc32d7	-0.026879711
133	0xbd9f8f40	-0.07790995
134	0xbd9bd664	-0.07609251
135	0xbd541548	-0.051778108
136	0x3ce9a085	0.028518924
137	0xbde4fdee	-0.11181246
138	0xbd7e8953	-0.06214268
139	0x3e09c036	0.13452229
140	0x3d9db9f4	0.07701483
141	0x3debd424	0.11515072
142	0x3c8e7c61	0.017393293
143	0x3d092c58	0.033489555
144	0xbb0a8e64	-0.0021142
145	0x3ae5f987	0.0017545678
146	0xbde998ed	-0.114061214
147	0xbd6d41d2	-0.0579241
148	0x3c58fcca	0.013243863
149	0xbd8a4221	-0.06750894
150	0x3e3aafed	0.18231173
151	0xbdde79c4	-0.10863069
152	0xbdb56394	-0.08856884
153	0xbd0685ea	-0.032842554
154	0xbd86045f	-0.065438025
155	0xbdfc3432	-0.12314643
156	0x3e0b4831	0.13601758
157	0xbd0d69fd	-0.034524906
158	0xbd7af61d	-0.06126987
159	0xbdb62311	-0.08893407
160	0xbd9ee80c	-0.07759103
161	0xbd17aa53	-0.03702767
162	0x3cf74dab	0.030188402
163	0xbcd81f5f	-0.026382146
164	0xbd909cc4	-0.07061151
165	0xbda8df86	-0.08245759
166	0x3d426919	0.04746351
167	0x3db277a1	0.08714224
168	0xbd4b9b92	-0.04970891
169	0x3d03f63d	0.032217253
170	0x393fa343	0.00018275999
171	0x3e64e580	0.22353172
172	0xbd9cf17a	-0.076632455
173	0xbc2ceeac	-0.010554951
174	0x3df53ab9	0.11974091
175	0x3d7499ec	0.059717104
176	0xbd2a4720	-0.041571736
177	0x3dbfe0c6	0.09369044
178	0xbd25b000	-0.04045105
179	0xbd8fb0fc	-0.07016179
180	0x3e30feb4	0.17284662
181	0x3dcf6430	0.10126531
182	0xbcf5fd3c	-0.030027978
183	0x3d4f8961	0.050668124
184	0xbd4cb573	-0.04997773
185	0x3c3a2242	0.011360707
186	0xbcdbcf12	-0.026832137
187	0x3d9d8399	0.07691116
188	0x3e049065	0.12945707
189	0x3d305c19	0.04305658
190	0xbe3c2d8a	-0.18376747
191	0xbd665cc4	-0.056240812
192	0xbbb2de47	-0.0054586264
193	0xbbe98cf1	-0.007127397
194	0x3de7d7eb	0.1132048
195	0xbd892793	-0.06697001
196	0xbdfdd3f5	-0.12393943
197	0xbdb9b9ad	-0.09068618
198	0xbe3fcb47	-0.18729888
199	0xbd71dd4f	-0.059048947
200	0x3bb86da8	0.0056283064
201	0xbdbd4286	-0.09241204
202	0xbdc553af	-0.09635102
203	0xbc18dd7f	-0.0093301525
204	0xbd1de76d	-0.038550783
205	0x3deb1582	0.11478712
206	0x3a068eff	0.00051330024
207	0xbda6c64b	-0.0814329
208	0xbc13bd51	-0.0090173045
209	0xbcafb3c5	-0.021448025
210	0x3cc69023	0.024238652
211	0x3e0aa59d	0.13539739
212	0x3d2a6ea0	0.041609406
213	0x3d852f89	0.06503207
214	0xbd893d64	-0.067011625
215	0x3cc1fa89	0.023679035
216	0xbdff4526	-0.12464361
217	0x3d333e2d	0.043760467
218	0xbc4b8db5	-0.012423922
219	0xbd4e1290	-0.05031067
220	0x3dfc493e	0.12318657
221	0xbc5f7487	-0.013638622
222	0xbca50132	-0.020142172
223	0x3dc8d85b	0.098068915
224	0x3e43631c	0.19080776
225	0x3dd70e24	0.10500744
226	0xbdb70e04	-0.0893822
227	0x3d807eef	0.06274211
228	0xbde857e8	-0.11344892
229	0x3d8a593b	0.067553006
230	0x3c98ee0d	0.018668199
231	0x3d955778	0.07292074
232	0xbd863a51	-0.06554092
233	0xbe358a11	-0.1772845
234	0xbd42a184	-0.047517315
235	0xbd244b8e	-0.040111117
236	0xbda96d4b	-0.08272799
237	0xbc5043e8	-0.012711503
238	0x3e0f5678	0.13997829
239	0xbd0c8288	-0.03430417
240	0xbc4e38ae	-0.012586756
241	0x3d7e6b62	0.062114127
242	0xbd6d0ce9	-0.05787364
243	0x3e1c8270	0.15284133
244	0x3d594339	0.053042624
245	0x3ceda47c	0.029009096
246	0x3e27792d	0.16354819
247	0x3c84a850	0.016193539
248	0xbd1e5274	-0.038652852
249	0xbdd89bfd	-0.105766274
250	0xbd6af2de	-0.057360522
251	0xbdc401c8	-0.09570652
252	0x3dc2b860	0.09507823
253	0xbb09a365	-0.0021001932
254	0xbd99d79a	-0.07511826
255	0xbe5bba60	-0.21457815

action_model._discrete_distribution.branches.0.weight f4 [3, 128]
0	0xbc548aa7	-0.01297251
1	0x3b6dfdda	0.0036314637
2	0x3ba53c61	0.005042598
3	0x3a66e183	0.00088074076
4	0x38c02e4f	9.163899e-05
5	0xbbc616e4	-0.0060452092
6	0xbb99b033	-0.004690194
7	0x3c12e4c7	0.008965678
8	0xbc0e110b	-0.008671056
9	0xbabbd3ce	-0.001433009
10	0x3ae3fc63	0.0017393943
11	0xbc136850	-0.008997038
12	0x3b9c8f38	0.004777815
13	0x3c2d94c9	0.010594555
14	0xbc727e12	-0.014800565
15	0xbaf864b5	-0.0018950911
16	0xbbce6367	-0.006298471
17	0x3c1b84b9	0.009492093
18	0x3bd12103	0.006382109
19	0x3c032d35	0.008006384
20	0x3ca237b7	0.019801958
21	0xbb9d2ccf	-0.0047966014
22	0x3bbae5e3	0.005703674
23	0xbb1ef0b8	-0.0024252366
24	0xbb0e19ab	-0.002168278
25	0x3ae416a8	0.0017401772
26	0x3bfa5028	0.00763895
27	0x3b8469d9	0.0040409383
28	0x3ad84593	0.0016500227
29	0x3ca64d6b	0.020300588
30	0xbbab2c63	-0.005223797
31	0xbbd7c5a8	-0.0065848418
32	0xbbbeaef3	-0.0058191954
33	0x3b8b7d41	0.004256875
34	0x3c8b3953	0.016995108
35	0x3c571ef7	0.013129941
36	0xbc2100d4	-0.009826858
37	0xbbd6076a	-0.0065316455
38	0x3bd2570a	0.0064190673
39	0x3bcb8f71	0.006212168
40	0x3c21525d	0.009846297
41	0xbc873f23	-0.016509598
42	0xbb572bb7	-0.0032832453
43	0xbb931e03	-0.0044896617
44	0x3c66cfc7	0.014087624
45	0x3bfceadb	0.0077184266
46	0x3a9f94d4	0.0012175092
47	0x3b904453	0.004402676
48	0xb992a049	-0.00027966712
49	0xbc656dea	-0.014003256
50	0x3c61a3e2	0.013771983
51	0x3c391f19	0.011298918
52	0xbb1a625a	-0.0023557157
53	0xbb9169bf	-0.0044376547
54	0xbc4dfd7d	-0.012572643
55	0x3c971259	0.018441366
56	0x3b882f42	0.004156024
57	0xbbd768b2	-0.00657376
58	0xbb47abd3	-0.0030467405
59	0xbb497883	-0.0030741997
60	0x3cb681b0	0.022278637
61	0xbc5ea2a7	-0.013588584
62	0xbbd2a4cd	-0.006428337
63	0x3b918214	0.0044405553
64	0xba53b1c2	-0.0008075499
65	0xb9f1b94b	-0.00046105156
66	0x3adaf937	0.0016706352
67	0x3a9983b3	0.0011712223
68	0x3b03e8cd	0.0020127774
69	0x3c4e9490	0.012608662
70	0x3bf9136b	0.0076011918
71	0x3b61fde7	0.0034483613
72	0x3bc594e3	0.0060297116
73	0x3b04b22e	0.0020247805
74	0x3adf02f0	0.0017014425
75	0x3b1e7beb	0.0024182748
76	0xbb46c613	-0.0030330464
77	0x3c9c4f73	0.019080853
78	0xbb933016	-0.0044918163
79	0x3b6bf487	0.0036003904
80	0x3c4e5020	0.0125923455
81	0x3b8064a1	0.003918246
82	0xbc92c892	-0.017917905
83	0x3ab6a4c3	0.0013934601
84	0x3c04363f	0.008069574
85	0xbc1e9e14	-0.009681243
86	0xbb52244a	-0.0032065087
87	0x3c506e62	0.01272163
88	0xbc82ae65	-0.015952298
89	0x3bf87163	0.007581876
90	0xbc29c895	-0.010362764
91	0xba36c1eb	-0.0006971645
92	0x3a9c4af2	0.0011924191
93	0xb9f85f9a	-0.00047373475
94	0x3bbdcdc7	0.005792353
95	0x3c875f1b	0.016524842
96	0x3c1b8f85	0.009494667
97	0xbbe04920	-0.0068446547
98	0x3c3ecb67	0.011645175
99	0xbbc85004	-0.006113054
100	0xbbb50641	-0.005524427
101	0x3c41728f	0.011807098
102	0xbc5a6bb8	-0.013331346
103	0x3af6b473	0.0018822089
104	0xbc3ed0d7	-0.011646471
105	0x3c5972f0	0.013272032
106	0xbb4298c9	-0.0029693118
107	0x3c30fa33	0.01080184
108	0xbb4a586b	-0.0030875455
109	0x3c0d19e2	0.008612128
110	0xbba9ad8b	-0.0051781586
111	0xbb3da7e9	-0.0028939194
112	0xbb4a7997	-0.0030895227
113	0x39fec9fb	0.00048597142
114	0xbb2cadf9	-0.0026348813
115	0x3a1a627f	0.0005889311
116	0x3ba2e6a7	0.0049713436
117	0xbbada233	-0.0052988767
118	0x3c361e69	0.011115649
119	0x3ba63368	0.005072046
120	0xbbd1f5ab	-0.0064074597
121	0x3a81e6af	0.0009910668
122	0xbb5c1d4d	-0.00335868
123	0x3b917d14	0.0044399593
124	0x3bdc2ae7	0.0067189815
125	0x3bdae240	0.006679803
126	0xba496d8b	-0.00076838647
127	0x3c568167	0.013092375
128	0xbb0ae5e4	-0.0021194154
129	0x3c1172a0	0.008877426
130	0xbbeb1a50	-0.0071747676
131	0x3b7a09a2	0.0038152714
132	0x3ab493ff	0.0013777016
133	0x3bea7c08	0.007155899
134	0x3c34468c	0.011003148
135	0xbc25b420	-0.010113746
136	0x3b1d544c	0.0024006544
137	0x3c9841cc	0.018586062
138	0xbbb5c977	-0.005547698
139	0xbb921f45	-0.004459294
140	0x3c3427c9	0.010995814
141	0x3c1034a5	0.008801614
142	0x3b88ed4f	0.00417868
143	0x3ae96472	0.0017806424
144	0xbbc157ab	-0.0059003434
145	0x3c5e9ddb	0.01358744
146	0x3a597213	0.00082948914
147	0x3b3f6040	0.0029201657
148	0x3bb3ce73	0.005487257
149	0x3aa21a52	0.0012367463
150	0xbc052085	-0.008125429
151	0xba3cc972	-0.00072016486
152	0x3c6a62b7	0.014305762
153	0xb8ae5d64	-8.314362e-05
154	0xbc158ff2	-0.0091285575
155	0x3b0f8883	0.0021901436
156	0x3c154443	0.009110513
157	0xbc7c974d	-0.015416932
158	0x3c6cd05f	0.014453976
159	0x3ca3e0f1	0.020004721
160	0xbb924409	-0.004463677
161	0x3ae7d2c3	0.0017686713
162	0x3b148b83	0.0022666163
163	0xbc102d33	-0.008799839
164	0x3aedd495	0.001814502
165	0xbca04324	-0.019563265
166	0xbbdfee6d	-0.0068338425
167	0xba140812	-0.00056469545
168	0x3cab8489	0.020937221
169	0x3b320fed	0.0027170137
170	0xbc67b678	-0.014142625
171	0x3b303be9	0.0026891178
172	0x3a33d9e0	0.0006860774
173	0xbc44c123	-0.012008938
174	0xbbeaafd7	-0.007162075
175	0xbb90ac4f	-0.004415072
176	0x3bf67ce8	0.007522214
177	0x3ca4bf0a	0.020110626
178	0xbae609e7	-0.0017550559
179	0x3c2a641d	0.010399845
180	0xbb01ecdb	-0.0019825015
181	0x3c224507	0.009904153
182	0x3c042d30	0.008067414
183	0xbc22beec	-0.009933215
184	0xbc1806ab	-0.0092789335
185	0xbc0e92c5	-0.008701985
186	0x3b36dee8	0.0027903859
187	0x3c22955f	0.009923308
188	0x3c1d6a1d	0.009607819
189	0x3be1632d	0.0068782778
190	0xbc73050d	-0.014832747
191	0xbbf12ce0	-0.007360086
192	0xbc8e32e3	-0.017358249
193	0x3a024f37	0.00049709104
194	0xbc0b1535	-0.008488943
195	0xbc7d629a	-0.015465403
196	0xbb8c197c	-0.004275499
197	0xbc9fdd57	-0.019514723
198	0x3b58880b	0.0033040072
199	0x3b368353	0.0027849271
200	0x3c34b0f7	0.01102852
201	0xbb5d078d	-0.0033726424
202	0xbb039d29	-0.0020082688
203	0x3be1daca	0.0068925368
204	0x3c7cf10b	0.0154383285
205	0x3b75edc5	0.0037525755
206	0xbbac3b92	-0.005256125
207	0xbb3c167a	-0.002869992
208	0xbc159138	-0.009128861
209	0x3ba8372b	0.0051335297
210	0x3a463053	0.00075603015
211	0xbbb82ec0	-0.0056208074
212	0x3b3301c5	0.0027314287
213	0x3bdb5a9f	0.0066941525
214	0xbba402e9	-0.0050052297
215	0xb84c1f36	-4.8666458e-05
216	0xbb7add17	-0.0038278752
217	0x3bb188fa	0.00541794
218	0xb9e3e1e0	-0.00043465104
219	0x3b92eef8	0.0044840537
220	0xbbabd36b	-0.005243709
221	0x3b9b7401	0.0047440534
222	0x3c18a3af	0.009316369
223	0x3ae561b3	0.001750043
224	0xbb50be18	-0.0031851586
225	0x3a840d76	0.0010074812
226	0xbc0f26ea	-0.008737305
227	0xbc2e6560	-0.010644287
228	0x3c2151df	0.00984618
229	0x3b73a738	0.0037178528
230	0x3bc72b7e	0.0060781827
231	0x3c049186	0.008091336
232	0x3c263fd4	0.010147054
233	0xbc19e5a7	-0.009393132
234	0xbc0c3870	-0.008558378
235	0xbb6683da	-0.0035173804
236	0x3c39d752	0.01134284
237	0xbb907d93	-0.004409501
238	0x39abfd17	0.00032804228
239	0x3c926c35	0.017873863
240	0xb9997669	-0.00029270657
241	0xbbe5c79a	-0.0070123198
242	0xbbbc5b2c	-0.005748173
243	0xbb3fc83f	-0.0029263643
244	0x3b18c296	0.0023309342
245	0x3b96667b	0.0045898533
246	0x3b27666c	0.0025543226
247	0x3c355280	0.011067033
248	0x3b319819	0.0027098714
249	0xbc150637	-0.00909572
250	0x3bc41d03	0.005984904
251	0x3c69a9aa	0.0142616425
252	0x3c2f15a6	0.010686314
253	0x3c267313	0.010159272
254	0xbc05ddbe	-0.008170543
255	0x3bb9197b	0.0056487895

action_model._discrete_distribution.branches.0.bias f4 [3]
0	0x00000000	0.0
1	0x00000000	0.0
2	0x00000000	0.0

action_model._discrete_distribution.branches.1.weight f4 [3, 128]
0	0x3b6d0447	0.003616588
1	0x3ba86346	0.0051387874
2	0xbba9c70f	-0.0051812003
3	0x3c4643e2	0.012101145
4	0x3b372896	0.0027947775
5	0xbc2bcc37	-0.0104857
6	0xbbbeb65c	-0.005820079
7	0xbae9679d	-0.0017807368
8	0x3c3eed6a	0.011653284
9	0xbc02e002	-0.007987978
10	0x3b6c8432	0.0036089537
11	0xbc0da85f	-0.0086461
12	0x3c09e1f7	0.008415691
13	0xbbc27dca	-0.0059354054
14	0xb93402d2	-0.00017167188
15	0x3b608933	0.0034261465
16	0x3b4103ab	0.002945165
17	0xbc31d036	-0.010852864
18	0xbc2291e7	-0.009922481
19	0x3be5705b	0.007001919
20	0xbc5f3f90	-0.013625994
21	0xbbc4e8d7	-0.006009202
22	0x39dc844a	0.00042060233
23	0x3bf01c9a	0.0073276283
24	0x3910a3e6	0.00013793967
25	0x3b9d5d2c	0.0048023667
26	0x3bc3ab6d	0.0059713633
27	0xbba17027	-0.0049266997
28	0xbac50055	-0.0015030006
29	0x3a941021	0.0011296311
30	0xbc8e22c0	-0.017350554
31	0x3b407370	0.002936568
32	0xbaf06240	-0.0018339828
33	0x3b54881b	0.0032429758
34	0x3bc24dbf	0.005929678
35	0x3bfaa2ed	0.007648817
36	0x3b98d9e9	0.004664649
37	0xbc050037	-0.008117727
38	0x3bcd039d	0.0062565343
39	0x3bb7dc3e	0.0056109717
40	0x3c39deaa	0.011344591
41	0xbc02ae7c	-0.007976171
42	0xbc49a10d	-0.012306464
43	0x3ca8dfe6	0.020614576
44	0x3877ce10	5.90813e-05
45	0x3b19cd5d	0.0023468353
46	0x3c6df360	0.014523357
47	0xbb202057	-0.0024433339
48	0x3c3d8d4b	0.011569331
49	0xbbd5f408	-0.006529335
50	0x3afa07ef	0.0019075851
51	0xbbd497b2	-0.00648781
52	0x3c56fc0a	0.013121614
53	0xbbf10a22	-0.0073559443
54	0xbb65456a	-0.0034984
55	0xbb300977	-0.002686111
56	0x3c7065d0	0.0146727115
57	0x3c20d3fc	0.009816166
58	0x3c5d83cb	0.013520191
59	0xb98ea7b3	-0.00027209296
60	0x3b70f938	0.003676964
61	0xbbc84a84	-0.0061123986
62	0x3beb235a	0.007175845
63	0x3b8ddf1a	0.0043295743
64	0xbbb2a4d6	-0.005451779
65	0x3cd320dd	0.025772506
66	0x3b58ee92	0.0033101183
67	0x3b8f667f	0.004376232
68	0xbc029e42	-0.007972302
69	0xbc7d66dd	-0.015466419
70	0x3bff110d	0.007784015
71	0xbbf153ad	-0.0073647113
72	0x3c448776	0.011995187
73	0x3a318a46	0.00067726185
74	0xbb0a05d4	-0.0021060603
75	0x3be74970	0.007058315
76	0xbb6a894d	-0.0035787404
77	0xbb161bb6	-0.00229047
78	0x3bae8caf	0.0053268294
79	0x3b6ff338	0.0036613476
80	0xbba11295	-0.004915545
81	0xbbc98e0a	-0.0061509656
82	0xbb7447b8	-0.0037274193
83	0xbbd1e2cd	-0.0064052106
84	0xbc4c71ed	-0.012478334
85	0xbcfebaef	-0.031094996
86	0xbbdd6f6d	-0.0067576678
87	0xbc45d189	-0.012073883
88	0x3b184c9a	0.0023239017
89	0xbb13d659	-0.002255818
90	0x3aedb7ef	0.0018136482
91	0x3c0cf737	0.0086038625
92	0x3bfb94dd	0.007677658
93	0x3a586f33	0.0008256316
94	0xbc4f953a	-0.012669856
95	0x3abf2cc0	0.001458548
96	0xbb5327fb	-0.0032219875
97	0xbc83085c	-0.015995197
98	0xba5389df	-0.00080695556
99	0x3c418fb9	0.011814051
100	0x3c3d4ee3	0.011554453
101	0xba5a79b3	-0.00083341746
102	0x3bf2ca10	0.0074093416
103	0x3c192be8	0.009348847
104	0x3bd27100	0.006422162
105	0x3c081533	0.008305836
106	0x3c4828fb	0.012216802
107	0xbc0c7693	-0.008573192
108	0xbc2a6941	-0.010401071
109	0x3c2db304	0.010601763
110	0xba6e9138	-0.0009100619
111	0xbbc3abcb	-0.005971407
112	0x3bc2af92	0.00594134
113	0x3b584a75	0.0033003364
114	0x3b956700	0.0045593977
115	0xbb9a98c7	-0.0047179195
116	0x3c4d7163	0.0125392405
117	0xbc077d3c	-0.008269604
118	0xbb93dd7f	-0.0045124884
119	0xbbb44833	-0.005501771
120	0xbb3edc21	-0.0029122906
121	0x3c070a02	0.008242132
122	0xb9914e5a	-0.00027714932
123	0x3c2dff77	0.01061999
124	0x3c88a6ca	0.016681094
125	0xbb5064b5	-0.0031798307
126	0x3bc98b52	0.0061506415
127	0xbc8cbcd4	-0.017179884
128	0x3c063fb8	0.008193903
129	0x38e32f38	0.00010832999
130	0xba490e3b	-0.0007669662
131	0xbb6d1dbd	-0.0036181055
132	0x3c8d3411	0.017236741
133	0x3c8b06c3	0.016970998
134	0xbbe131bd	-0.0068723843
135	0xbb87b9c9	-0.0041420204
136	0xbb5b26a2	-0.0033439775
137	0xbba48171	-0.0050203134
138	0x3b96e12b	0.004604479
139	0x3c1159f6	0.008871546
140	0x3c1e9ae3	0.009680483
141	0x3c2c3779	0.010511273
142	0xbbd5fde0	-0.0065305084
143	0x3bfba4cd	0.007679558
144	0xbbc2e2f7	-0.0059474665
145	0x3bb22ec3	0.0054377033
146	0x3cc1f737	0.023677452
147	0xbb0b2e27	-0.0021237226
148	0x3c0bad7a	0.008525247
149	0x39c70c65	0.00037965472
150	0x3c4ab3e6	0.012371993
151	0x3bf0fa2f	0.007354043
152	0xbbeb983b	-0.007189778
153	0x3b7fa120	0.003900595
154	0x3c063051	0.0081902305
155	0xbc914cb4	-0.01773677
156	0xbbd05072	-0.006357246
157	0xbb88561e	-0.0041606566
158	0xbc688cda	-0.014193738
159	0x3ab2aec5	0.0013632408
160	0x3a8aa862	0.0010578746
161	0xbb13bb9c	-0.0022542244
162	0xbae3a17a	-0.0017366849
163	0x3c472aa4	0.012156162
164	0x398966e9	0.0002620735
165	0xbc5c0482	-0.013428809
166	0xba202733	-0.0006109357
167	0xbbc3deb6	-0.005977477
168	0xbaba28f1	-0.0014202875
169	0x3c60f9a0	0.01373139
170	0x3b83f9f1	0.004027598
171	0x3be9aeb8	0.007131424
172	0x3b0875cb	0.0020822163
173	0xbc3fd031	-0.011707352
174	0x3aeb48a8	0.001795073
175	0xbb094e1d	-0.00209511
176	0x3bbd40d1	0.005775549
177	0xba5fd0e5	-0.00085379026
178	0x3bf08d22	0.007341043
179	0x3c5481cd	0.0129704
180	0xbb9d4192	-0.0047990764
181	0xbc3fb6f8	-0.011701338
182	0xbbe97efb	-0.007125733
183	0xbc322374	-0.0108727105
184	0x3b9e9641	0.004839689
185	0xbc5e32e2	-0.013561936
186	0x3bc8de95	0.0061300495
187	0x3ca0b88b	0.019619247
188	0x3badf413	0.005308637
189	0xbb058475	-0.002037314
190	0xbc4c34db	-0.012463774
191	0xbb732e2f	-0.0037106385
192	0xbbfc915a	-0.007707757
193	0x3c2f3e65	0.010696028
194	0x3bdfe8c0	0.006833166
195	0x3b702890	0.003664527
196	0xbbdf68b5	-0.006817902
197	0x3a9b9dd8	0.0011872603
198	0xbb4b5aff	-0.003102958
199	0x3bceadc5	0.006307336
200	0x3b3e55c0	0.002904281
201	0xbc693d40	-0.014235795
202	0x3c88955a	0.016672779
203	0x3c3a9ac6	0.01138944
204	0x3c11ab53	0.0088909445
205	0x3b136497	0.0022490376
206	0xbc195a77	-0.009359947
207	0xbc02daa3	-0.007986697
208	0xba0bc004	-0.0005331042
209	0xbc7af29f	-0.015316634
210	0xbb04bd2b	-0.0020254354
211	0xbb8c11fc	-0.004274605
212	0x3c3ab58b	0.011395822
213	0x3b1eb328	0.0024215672
214	0x3beb13aa	0.007173975
215	0xbc6cffbf	-0.0144652715
216	0xbc1645c8	-0.009171911
217	0x3bc6df5a	0.006069106
218	0xbc329d2b	-0.01090173
219	0xbc5e86c8	-0.013581939
220	0xbac117c6	-0.0014731816
221	0x3bd9d913	0.0066481917
222	0x3c3b1246	0.011417931
223	0x3a75d4dd	0.00093777274
224	0xbb3941f8	-0.002826808
225	0x3bd6e278	0.006557759
226	0xbad1f91a	-0.0016019673
227	0x3bc004d3	0.00585995
228	0xbc7375fb	-0.014859672
229	0xbc2c60e6	-0.010521149
230	0x3baf5334	0.0053504948
231	0x3c51b2b3	0.012798953
232	0x3b58c9f7	0.0033079365
233	0x3c83a779	0.016071068
234	0xbb3fbb1a	-0.0029255808
235	0xbaee3962	-0.001817506
236	0xbbdc809f	-0.0067292
237	0x3c3fe02b	0.011711161
238	0xbc88f2bc	-0.016717307
239	0x3b3bb70f	0.0028643047
240	0x3ba6e098	0.0050926916
241	0x3b717e00	0.0036848783
242	0x3a540cfa	0.0008089092
243	0xbb052e0b	-0.0020321633
244	0x3ac6e6ab	0.0015174946
245	0xbb562fca	-0.0032682293
246	0xbc16f318	-0.0092132315
247	0x39b19d56	0.00033877295
248	0xbb83426f	-0.0040057222
249	0xbad5cb08	-0.0016311118
250	0xbba37994	-0.0049888585
251	0x3c06e672	0.008233653
252	0x3b240844	0.002502934
253	0x3c2cb111	0.010540263
254	0x3c017d27	0.007903374
255	0x3b5d7a8a	0.0033794963

action_model._discrete_distribution.branches.2.weight f4 [1, 128]
0	0xbc0698bd	-0.008215127
1	0x3b94aaf7	0.004536982
2	0xbb476959	-0.0030427782
3	0xbc218bab	-0.00985996
4	0xbc647f57	-0.013946376
5	0xbc218663	-0.0098587
6	0xbbc9521f	-0.006143823
7	0xbb7e1022	-0.003876694
8	0xbae6c4ca	-0.0017606255
9	0x3bdf7dd0	0.006820418
10	0xba0ae0f4	-0.0005297803
11	0xbc00f347	-0.007870502
12	0xbabca245	-0.0014391622
13	0x3c84effa	0.016227711
14	0xbb374ca6	-0.002796927
15	0xbc39cbcb	-0.011340092
16	0xbc61dd4f	-0.013785674
17	0xbbe682e7	-0.0070346477
18	0x3b62529d	0.0034534105
19	0x3c750e55	0.01495703
20	0x3c1cc613	0.009568709
21	0x3b411152	0.0029459787
22	0x3b7a9fb2	0.0038242158
23	0xbc7ab3e3	-0.015301677
24	0x3a2e39db	0.00066461944
25	0xbc3dce9b	-0.011584903
26	0x39f5fdcd	0.00046919138
27	0x3c463bec	0.012099247
28	0x3b82bd68	0.003989864
29	0xba28265a	-0.0006414406
30	0xbc9530ee	-0.018211808
31	0x3abfbe07	0.0014628776
32	0x3a923f0e	0.0011157708
33	0xbbc35310	-0.0059608296
34	0xbb05d88b	-0.002042326
35	0x3bcf9e0f	0.0063359807
36	0x3c31d7bb	0.010854657
37	0xbba6d306	-0.005091074
38	0x3ac9038b	0.0015336139
39	0x3c1c92d1	0.009556488
40	0xb9c50cb3	-0.0003758423
41	0x3b96dd1f	0.0046039964
42	0xbc331347	-0.010929889
43	0xbc1ad513	-0.009450215
44	0xbc4144fb	-0.011796231
45	0x3c6a8480	0.014313817
46	0xbbb9f47e	-0.0056748977
47	0x3a8ed931	0.0010898468
48	0xbb2b5f43	-0.002614931
49	0x3c2c9c7e	0.0105353575
50	0xbc0e3865	-0.008680438
51	0xbc2b81a0	-0.010467917
52	0xbc00fe60	-0.007873148
53	0xbc1da8bb	-0.009622748
54	0x3c081b0d	0.008307231
55	0xbb3afbbf	-0.00285314
56	0xbb046841	-0.0020203742
57	0x3afa5953	0.0019100107
58	0x3b9aa892	0.004719802
59	0x3c0a32b7	0.008434943
60	0x3bb7a300	0.005604148
61	0xbb86dba3	-0.004115538
62	0xbb980358	-0.0046390705
63	0x3c220c3e	0.009890614
64	0x3bab3d7f	0.0052258368
65	0x3c660ac5	0.014040654
66	0xbc23add9	-0.009990179
67	0x3c8a81de	0.016907629
68	0xbbec8ab5	-0.0072186836
69	0x3b0a926f	0.002114441
70	0xbbc7e8c8	-0.0061007477
71	0x3b423fb1	0.0029640014
72	0x3c35eedf	0.011104315
73	0xbb286aa4	-0.0025698328
74	0x3b1da5ed	0.0024055198
75	0xbbfb7288	-0.0076735653
76	0xba1e190e	-0.0006030955
77	0xbc1da2da	-0.009621346
78	0xba7ad7b0	-0.0009568883
79	0xbc5ac38b	-0.013352285
80	0x3b23b36d	0.0024978772
81	0x3c9a0bee	0.018804517
82	0xbb85f887	-0.0040884647
83	0xb8e667ad	-0.00010986566
84	0xb954ac78	-0.00020282145
85	0x3a34b169	0.0006892891
86	0xbcac87ae	-0.02106079
87	0xbbb265ff	-0.005444288
88	0xbb12eac4	-0.0022417763
89	0xbb7bbef0	-0.0038413368
90	0xbc17fb79	-0.009276264
91	0x3bc0244c	0.005863702
92	0xbbb0626d	-0.005382827
93	0xbbb5c99f	-0.0055477167
94	0x3bd6707d	0.0065441714
95	0xbc057a62	-0.008146854
96	0x3c8350bf	0.016029714
97	0xbac5053b	-0.0015031466
98	0xbc61a1bd	-0.013771472
99	0xbb28a3c1	-0.002573237
100	0x3c254491	0.010087148
101	0xbab1bd21	-0.0013560393
102	0x3ca825e3	0.020525878
103	0x3b09af43	0.0021009005
104	0xbbe669ea	-0.007031669
105	0xba374a42	-0.0006991961
106	0xbbef25f3	-0.007298225
107	0x3ca85e73	0.02055285
108	0x38cd1827	9.7796605e-05
109	0x3be8bde0	0.007102713
110	0xbc416eed	-0.011806232
111	0xbc163b5c	-0.009169426
112	0x3b8954e5	0.0041910284
113	0x3c25737e	0.010098336
114	0xbc10f24b	-0.00884683
115	0x3b8b1b03	0.0042451634
116	0xbc187059	-0.0093041295
117	0x3c298b94	0.010348219
118	0xbc586775	-0.01320826
119	0x3a2273b7	0.00061970524
120	0x3c1dac16	0.009623548
121	0xbc09f12f	-0.008419319
122	0x3bfb0e58	0.007661622
123	0x3c473827	0.012159384
124	0xbb6ea76f	-0.0036415716
125	0x3c06832e	0.008209987
126	0x3bd9d6e3	0.006647931
127	0xb99186a7	-0.0002775688
