results/ppo/ControlCar/ControlCar-1280.pt (torch, 155157 bytes, 11 tensors)

network_body._body_endoder.seq_layers.0.weight f4 [128, 11]
00000000: 28cd 423e 7d51 4bbe ca6a 0f3e a1b3 233e
00000010: 52bc a33e 74c6 9a3d 70b9 c53e 0684 9c3e
00000020: 7bf8 b93e 7dad b6be 64d3 5abf ff2e 6b3e
00000030: 9590 043e 6553 093e 2122 1abe 4b13 633e
00000040: b833 06bf 3bf5 9a3e df4b b5bd 2022 403d
00000050: 6530 87be f55f 8fbd f5b4 16be 9c5f 97be
00000060: e00e 0bbf d519 38be 4d8a 5ebe 31b6 bcbd
00000070: b3b2 59bc bed2 1ebc 8a5c 9dbe 6700 6f3e
00000080: 9465 3e3f f138 d0bd 9dfd 9e3e 5375 23be
00000090: 2ee2 f5be e980 1b3f 96af acbe 2d51 e23e
000000a0: a424 933d d1d2 ecbd d005 2fbd 4492 cdbd
000000b0: 857f 60be 2455 55be c788 9b3e 4292 29bf
000000c0: 9fa0 c1be 4b91 bb3e f825 343e 6c9c 9dbd
000000d0: 2fba 013f 5079 73bd b8ea 743b 3ca4 d73e
000000e0: 5d84 e5be 2210 363d cc17 8cbe 5cd5 133f
000000f0: 7dff a9be 7b58 9cbd 185b 863d 1d0d a4be
00000100: 58ff 08be 0569 a23e 65d4 e33d ed71 933e
00000110: a28f 903e 99ff 483e 9a81 a23e 7346 8b3e
00000120: 3cf7 05bd 3d22 293f e7cc 883e e660 d6bd
00000130: 98f5 cebd 5381 a2be fa33 8fbe da53 743d
00000140: d06f 21be dc83 b9be a0b5 1a3e 0fd6 e93e
00000150: 8e0e 7d3e 5ed2 2fbe 85f1 813d f1c9 b03e
00000160: edbb 963d 4a83 183f 2076 093e 3be5 87bf
00000170: a3d9 3f3e 51a3 bb3e bb48 983e 510d b43e
00000180: f87c 4c3d cf7b ae3d 8386 e7bd d7b3 e8bd
00000190: 50e6 3d3e a22b 293f 7862 39bd 8115 063e
000001a0: dcb1 883e b3a4 063f ffed b93e 1214 90bd
000001b0: 8d57 febe 2cb8 523e 68e8 93bd 3191 193e
000001c0: fc1b 813e dc75 cd3e ed98 67be 2992 2bbf
000001d0: 41e2 2dbd a704 383e aeb1 e2be 3508 e9bb
000001e0: 5b6b 093d e871 d3bd e3c6 bbbe 92e9 80bd
000001f0: 191b 86bd 883e 2c3e fd25 f9be 3cfe cc3e
00000200: c8b7 dbbd 894f 94be dd4e 82be f4db 89be
00000210: aec9 9d3e fea6 e83e 906e 1a3e f36c 833e
00000220: 41e2 f03e 6c5c 10be 0ca4 9e3e 0ea5 ab3d
00000230: edd2 15be feaa a1be 45ad c3bd 5fef ec3d
00000240: a950 cbbe 8f5f 41be 6209 3e3f fa4b 713e
00000250: 933d c43c 4ce7 c4be 9428 b13c af0d f8b8
00000260: deaf 06be eb7b 9ebd 7e0d a53e d389 ed3e
00000270: 71b8 5bbd 0a88 0a3e a960 83bc b2a4 b3be
00000280: 62db a5bd 414f d0be 5414 1abe 8fdc 4c3e
00000290: de68 563e 7b3e 9bbe b4c6 5c3e 8a75 a53d
000002a0: 99d3 b23e cc33 9ebe d056 ecbc 241d e43e
000002b0: bdad 26be f1f6 8a3d a1af e2be 3aa0 8e3e
000002c0: 060c d0bd ca3f b0bc 74e2 1d3e fa9a 67be
000002d0: ba9b 5abe ad88 f63d 423f 483f c082 87be
000002e0: dab1 8abd 7aac ee3d a0ad 8ebd 4e06 0bbe
000002f0: 126d 113e 3048 ffbe 9a73 80be 5d45 533e
00000300: fba9 7c3e 1d8f dd3e dedc 1e3d 8974 4ebe
00000310: 3cd4 95be b697 4e3d a52e 9dbd 868c 92be
00000320: 00bc 7a3d 6191 d4be 04f7 93bd ac15 d0bd
00000330: 9b73 e93e 2b0a e8b9 eb91 1d3f e720 2cbd
00000340: bcd4 14bf 1f5d 23be 1bf8 30be 0a2c 28be
00000350: 4290 19bf f0a2 803d 1ad4 efbd e661 bb3c
00000360: 0327 b63e cbde d63e 0f75 0ebd 866e 123c
00000370: 0ab5 ae3d 0e3a d33d 67b0 093e 0a7d 15be
00000380: f522 763e b2a8 03bd 4929 c4be e13e cc3d
00000390: e0aa fcbd 8b5a a4bd bbea 3abf c84c ba3d
000003a0: 2d48 c7be bee6 a1bd 4018 26bd 17ea 0cbe
000003b0: 7e48 0f3e 1c5c e3be d23e ed3e d4f4 79be
000003c0: 251c d43e 9bed 873d 49f4 e2bc cb02 8c3e
000003d0: c6d5 83be 7e5d 00be 207b 163e 72ca 79be
000003e0: 2ace 47be 0e1d dbbd 9221 dd3d 4558 313e
000003f0: 4b04 103c 9309 25bc bc43 313e 898c c33e
0.19023573 -0.19855304 0.1400558 0.15986492 0.31979614 0.07557383 0.3861804 0.30569476
0.36322388 -0.35679236 -0.85478806 0.22967146 0.12945779 0.13410719 -0.15052082 0.22175328
-0.52422667 0.3026522 -0.08852362 0.046907544 -0.2640411 -0.07000724 -0.14717467 -0.29565132
-0.5431957 -0.17978604 -0.21732445 -0.09214438 -0.013287234 -0.0096938 -0.30734664 0.23339997
0.74373746 -0.10167111 0.31052867 -0.15962724 -0.48024124 0.60743576 -0.3372771 0.44202557
0.07184723 -0.115636475 -0.042730153 -0.100376636 -0.21923645 -0.2083326 0.3037779 -0.66238797
-0.37817857 0.36634287 0.17592609 -0.07695851 0.5067472 -0.059441864 0.0037371349 0.42117488
-0.44827548 0.04444898 -0.27361906 0.57747436 -0.33202735 -0.07634064 0.065603435 -0.32041255
-0.13378656 0.3172075 0.111244954 0.28797856 0.28234583 0.19628753 0.31739503 0.27202186
-0.032706484 0.6606787 0.26718828 -0.10467701 -0.10105437 -0.31739292 -0.27969342 0.05965028
-0.1576531 -0.36233413 0.15108347 0.45671126 0.24712583 -0.17170092 0.06344894 0.3452907
0.07360063 0.5957533 0.13423967 -1.061683 0.18735366 0.36648038 0.2974299 0.3516641
0.049923867 0.08519708 -0.11304953 -0.11362427 0.18544888 0.66082203 -0.045259923 0.1309414
0.26698196 0.5259506 0.3631439 -0.07035078 -0.4967617 0.20578068 -0.07222062 0.14996792
0.25216663 0.40128982 -0.2261693 -0.670199 -0.0424521 0.17970525 -0.44276184 -0.007111574
0.033549648 -0.1032446 -0.36675176 -0.0629455 -0.06548137 0.16820729 -0.48661795 0.40037715
-0.10728413 -0.2896693 -0.25450793 -0.26925623 0.30817932 0.45439905 0.15081239 0.2566906
0.47047618 -0.14097756 0.30984533 0.08381091 -0.14631243 -0.3157577 -0.09554533 0.11569094
-0.39709976 -0.18884109 0.7423307 0.23564139 0.023955142 -0.38457716 0.021625794 -0.0001182811
-0.13153026 -0.07738479 0.32236856 0.46394214 -0.053642694 0.13528457 -0.016037302 -0.3508659
-0.080984846 -0.40685466 -0.15046817 0.20006011 0.20938441 -0.30321106 0.21560174 0.080790594
0.3492706 -0.30898893 -0.02884999 0.44553483 -0.16277213 0.067853816 -0.4427462 0.27856618
-0.10158543 -0.021514792 0.15418416 -0.22617713 -0.21348467 0.120377876 0.78221524 -0.26466942
-0.06772204 0.11653991 -0.0696671 -0.13576624 0.14201763 -0.49859762 -0.25088197 0.20631929
0.24674217 0.4327325 0.038784854 -0.20161642 -0.29263484 0.05043765 -0.07674912 -0.28622836
0.061214447 -0.41517165 -0.07224849 -0.101603836 0.45596012 -0.00044258064 0.6155078 -0.042023566
-0.58137107 -0.15953492 -0.17282145 -0.1642305 -0.59985745 0.06281078 -0.11710377 0.02287383
0.3557664 0.41966853 -0.034779605 0.008937484 0.08530624 0.103138074 0.13446198 -0.1459848
0.24036773 -0.032143302 -0.38312748 0.09972931 -0.12337279 -0.08025082 -0.7301442 0.09096676
-0.38922253 -0.07905339 -0.04055047 -0.13761173 0.13992497 -0.4440621 0.4633699 -0.24409801
0.41427723 0.066371165 -0.027704375 0.2734588 -0.25749034 -0.12535664 0.14695406 -0.24393633
-0.19512239 -0.10698901 0.10797419 0.17318828 0.008790086 -0.010073083 0.17310995 0.38193157

network_body._body_endoder.seq_layers.0.bias f4 [128]
00000000: 0000 0000 0000 0000 0000 0000 0000 0000
00000010: 0000 0000 0000 0000 0000 0000 0000 0000
00000020: 0000 0000 0000 0000 0000 0000 0000 0000
00000030: 0000 0000 0000 0000 0000 0000 0000 0000
00000040: 0000 0000 0000 0000 0000 0000 0000 0000
00000050: 0000 0000 0000 0000 0000 0000 0000 0000
00000060: 0000 0000 0000 0000 0000 0000 0000 0000
00000070: 0000 0000 0000 0000 0000 0000 0000 0000
00000080: 0000 0000 0000 0000 0000 0000 0000 0000
00000090: 0000 0000 0000 0000 0000 0000 0000 0000
000000a0: 0000 0000 0000 0000 0000 0000 0000 0000
000000b0: 0000 0000 0000 0000 0000 0000 0000 0000
000000c0: 0000 0000 0000 0000 0000 0000 0000 0000
000000d0: 0000 0000 0000 0000 0000 0000 0000 0000
000000e0: 0000 0000 0000 0000 0000 0000 0000 0000
000000f0: 0000 0000 0000 0000 0000 0000 0000 0000
00000100: 0000 0000 0000 0000 0000 0000 0000 0000
00000110: 0000 0000 0000 0000 0000 0000 0000 0000
00000120: 0000 0000 0000 0000 0000 0000 0000 0000
00000130: 0000 0000 0000 0000 0000 0000 0000 0000
00000140: 0000 0000 0000 0000 0000 0000 0000 0000
00000150: 0000 0000 0000 0000 0000 0000 0000 0000
00000160: 0000 0000 0000 0000 0000 0000 0000 0000
00000170: 0000 0000 0000 0000 0000 0000 0000 0000
00000180: 0000 0000 0000 0000 0000 0000 0000 0000
00000190: 0000 0000 0000 0000 0000 0000 0000 0000
000001a0: 0000 0000 0000 0000 0000 0000 0000 0000
000001b0: 0000 0000 0000 0000 0000 0000 0000 0000
000001c0: 0000 0000 0000 0000 0000 0000 0000 0000
000001d0: 0000 0000 0000 0000 0000 0000 0000 0000
000001e0: 0000 0000 0000 0000 0000 0000 0000 0000
000001f0: 0000 0000 0000 0000 0000 0000 0000 0000
0.0 0.0 0.0 0.0 0.0 0.0 0.0 0.0
0.0 0.0 0.0 0.0 0.0 0.0 0.0 0.0
0.0 0.0 0.0 0.0 0.0 0.0 0.0 0.0
0.0 0.0 0.0 0.0 0.0 0.0 0.0 0.0
0.0 0.0 0.0 0.0 0.0 0.0 0.0 0.0
0.0 0.0 0.0 0.0 0.0 0.0 0.0 0.0
0.0 0.0 0.0 0.0 0.0 0.0 0.0 0.0
0.0 0.0 0.0 0.0 0.0 0.0 0.0 0.0
0.0 0.0 0.0 0.0 0.0 0.0 0.0 0.0
0.0 0.0 0.0 0.0 0.0 0.0 0.0 0.0
0.0 0.0 0.0 0.0 0.0 0.0 0.0 0.0
0.0 0.0 0.0 0.0 0.0 0.0 0.0 0.0
0.0 0.0 0.0 0.0 0.0 0.0 0.0 0.0
0.0 0.0 0.0 0.0 0.0 0.0 0.0 0.0
0.0 0.0 0.0 0.0 0.0 0.0 0.0 0.0
0.0 0.0 0.0 0.0 0.0 0.0 0.0 0.0

network_body._body_endoder.seq_layers.2.weight f4 [128, 128]
00000000: ce90 80bd 0141 903d a6e5 293e ec86 ffbd
00000010: 278e fd3c 55f4 b83b bc60 b3bc 09a8 42bd
00000020: 0236 3d3e 3887 9dbb 7203 97bc 6b4e 3abd
00000030: 79ae 90bd ce2d 1e3d c052 523e 9bfe 64bc
00000040: 137a 913d 9bff 433c 78b1 d43d 4d51 5c3d
00000050: 552a c43d d915 a6bd 6b7a cbbd 8a16 b23c
00000060: 24b1 583d a2a6 18be 7e44 e33c 5760 52bd
00000070: 24f0 783c 13f9 363d 4bce 64bd 98b3 43bd
00000080: 8f85 e73a 20a1 573b 0e61 173e ac69 57bd
00000090: 83d3 9cbd 12a5 cbbc f06f 483d 3c93 e0bd
000000a0: d041 ad3b 8da6 90bc 71ed cf3d 4fb7 d1ba
000000b0: 8a37 0f3d a458 9ebd 25b0 ec3b d07a e8bd
000000c0: 4849 bcbd d8d3 93bd a47e 59bd 4a1e 043c
000000d0: acf1 98bd bfdb 7b3c 51e1 a03d 59d7 ac3d
000000e0: 181c d13d e37b 96bc aa50 ecbd e9d9 a63d
000000f0: 1e9b d33c 5a29 87bd 9bfc 0f3c a4e1 bd3d
00000100: 5239 8cbc 5b41 293c 51a1 263d 737a 123d
00000110: 36bc a1bd 3444 533b 7834 16bd 1131 29be
00000120: 16b3 92bb da52 473d 26db 8bbe b5f5 80bd
00000130: eddd f7bd bc8a 283c 78d3 63bd 06d5 0b3d
00000140: 7505 f23d bf5f 743e b241 26be 87a7 173e
00000150: 8ae6 3d3e 3960 26bd 9419 3dbe 1f82 773d
00000160: 822b 29bd 3a6d 1ebb 9b8b a43d 1391 0cbe
00000170: 0fab cb3d 1211 cfbd d6f6 15bd a859 5b3e
00000180: 933c 8c3e 4fba e9bb f091 be3d c10f 833e
00000190: 4774 e63d 00ed 6cbe da97 83bc 1f6d 4d3d
000001a0: 509e 31bd 54aa 713d c8dc 3f3e d251 cb3d
000001b0: d9b0 63bd b37d a8bd 3612 2cbe 5d63 593e
000001c0: cc63 19bd ec2f 573e f1c9 a13d c362 4cbd
000001d0: 1faa 72bb 1768 a0bd 95b9 30bc a0e0 08be
000001e0: c2fd 5c3d bf3a 1cbd 64fc 6abc 1d02 58bd
000001f0: ddd1 fd3d 4a34 11bd 17b1 7f3d 1215 f4bd
00000200: 7ceb b43c fdf4 31bd 197c c9bc 1cd5 26bd
00000210: a78c cbbd 0a52 33bd 344b 283d d749 c63d
00000220: de4e f03d 2ec9 6b3d bee8 1c3e 1e52 b53d
00000230: 052b 9cbc 0a12 8ebc e7b3 913d 6ba8 6f3d
00000240: 4389 c63d 8d30 5cbc c350 0a3c 8c32 83bd
00000250: 7a07 c5bd dc23 c3bd c25c a73d 2bd2 2c3e
00000260: 8309 c13d e9df a7bb 02c6 ff3d b9ea 6d3e
00000270: f254 c9bc 6ee6 ca3c 7e01 293d 70ec 35be
00000280: 02ba 303e 7275 463d 4f61 fd3c 0299 bc3d
00000290: 2a26 58bd c375 813e ed27 2ebe 2d96 99bd
000002a0: fc91 273d 1aa4 5a3c f82c b4bd b056 1cbe
000002b0: a978 6b3d d912 56bd 1d75 6a3d 5063 1dbd
000002c0: 021e 1cbd eb35 8e3d 7797 a73c 4eaa fa3d
000002d0: dc50 89bd 0d0b 22be 5b4a 963e fefa 8bbd
000002e0: d406 8b3b 521d b1bd 2f44 fdbc 8f1c 9fbd
000002f0: b7ff 8f3d d6ee f3bd ee55 a03b 6b89 573d
00000300: 23ad 64bd d3d5 02be a56a 2cbd 0e44 843c
00000310: cb25 ab3d 0d6f 83bc 0857 543d e7d7 0bbc
00000320: fa7e 7ebb 5c8c 003d 85b0 87bd df17 4d3d
00000330: f04a e83d 80b6 b3bc 0790 94ba 3917 1c3e
00000340: 135e d6bb d615 213d 9114 1d3d 4618 0f3e
00000350: 7a89 8d3c 7e71 013e 443b 54bc 2305 213e
00000360: 1198 28bc 808f f83d 09f5 e2bd 3309 63bd
00000370: b47f 473e ebec 68bd 844f b5bc a0ff 1c3d
00000380: 4447 303e 1a3a 543b 5eaf ddbc 863b 963d
00000390: 47aa cf3d c13c 923b 3cee f13c 66c2 5d3e
000003a0: 46c1 a3bc bdd9 a5bd 3696 953d 4c33 8dbc
000003b0: 7d31 a03d fa25 133d 552a 783d 733a 31be
000003c0: 728c 503e e2a2 263d 0102 493d dea2 69bc
000003d0: 5962 f6bd 8b38 a53d b272 4abc 1f77 783c
000003e0: 9f1b 013c 4cf3 ef3c ddea f53c da31 343d
000003f0: 376f 013d 7466 82bd 3412 523d 582c 84bc
-0.06277619 0.070436485 0.1659151 -0.12476906 0.030951573 0.005644361 -0.021896712 -0.047523532
0.18477634 -0.004807379 -0.01843426 -0.04548494 -0.07064528 0.0386179 0.20539379 -0.013976718
0.07103362 0.011962797 0.10385412 0.053788472 0.09578387 -0.08109636 -0.09935459 0.021739263
0.05290331 -0.14907315 0.02774262 -0.051361408 0.015193973 0.04467113 -0.0558608 -0.047778696
0.0017663705 0.0032902434 0.14783117 -0.05259101 -0.0765753 -0.024858985 0.048934877 -0.10965583
0.0052873865 -0.017657543 0.1015271 -0.0016000065 0.034965076 -0.077317506 0.0072231465 -0.113515496
-0.09193665 -0.0721814 -0.05309929 0.008063862 -0.0746797 0.015372216 0.07855476 0.08439512
0.102104366 -0.01836962 -0.11538823 0.08147032 0.025830802 -0.06599684 0.008788253 0.09271553
-0.017117176 0.010330523 0.040681187 0.035761308 -0.078972265 0.0032236697 -0.03667113 -0.16522624
-0.004476915 0.048662998 -0.27315634 -0.06296865 -0.12102876 0.010286983 -0.055621594 0.0341387
0.11817447 0.23864649 -0.16235998 0.1481 0.18544975 -0.04061911 -0.18466789 0.060426828
-0.041301258 -0.002417399 0.0803444 -0.13727216 0.09944736 -0.10110678 -0.036612354 0.2142092
0.27389964 -0.0071328054 0.09305179 0.25597957 0.11252647 -0.23137283 -0.01606362 0.050152894
-0.04336387 0.05900033 0.18736565 0.09927715 -0.055588577 -0.082271 -0.16803822 0.2122931
-0.03744869 0.21014374 0.078998454 -0.049898874 -0.003702767 -0.078323536 -0.010786434 -0.13366938
0.05395294 -0.038141962 -0.014342401 -0.05273639 0.12393544 -0.035450257 0.062424745 -0.11918081
0.022084944 -0.04344653 -0.024595307 -0.04073058 -0.09938937 -0.04377941 0.041087344 0.096820526
0.11733793 0.057564907 0.15323159 0.08853553 -0.019063482 -0.017342586 0.07114392 0.058510225
0.09694149 -0.01343931 0.008442107 -0.064061254 -0.09620567 -0.09528324 0.08171989 0.16877048
0.09425642 -0.0051231277 0.12488939 0.23234071 -0.024576638 0.02476808 0.04126119 -0.17765975
0.17258456 0.04845185 0.03093019 0.092088714 -0.05277077 0.25285158 -0.17007418 -0.07499347
0.040910706 0.013344789 -0.087976396 -0.15267444 0.057488117 -0.05226407 0.057240594 -0.03842479
-0.038114555 0.06943878 0.020457966 0.12239514 -0.06704876 -0.15824528 0.29353604 -0.06834982
0.0042427573 -0.086481705 -0.030916302 -0.07769119 0.070311956 -0.11910789 0.004893056 0.052621286
-0.05582918 -0.1277688 -0.04209389 0.016145732 0.08356818 -0.016044164 0.051840812 -0.008535362
-0.0038833008 0.031383857 -0.06625465 0.050071593 0.11342418 -0.021937609 -0.0011334427 0.15243234
-0.0065419762 0.039327465 0.03834969 0.13974103 0.017277468 0.1264095 -0.012953583 0.15724616
-0.010290162 0.121367455 -0.11081893 -0.055428695 0.19482309 -0.056866568 -0.022132643 0.03832972
0.17214686 0.0032383264 -0.02706116 0.07335572 0.101399 0.004462809 0.029532544 0.21656188
-0.01998962 -0.08098171 0.07304041 -0.017236374 0.07821939 0.03592489 0.060587246 -0.17307453
0.20366076 0.04068268 0.049074177 -0.014260022 -0.12030477 0.08067425 -0.012356447 0.015165119
0.007880121 0.029290818 0.030019218 0.043992855 0.031600203 -0.06367198 0.05128689 -0.016134426

network_body._body_endoder.seq_layers.2.bias f4 [128]
00000000: 0000 0000 0000 0000 0000 0000 0000 0000
00000010: 0000 0000 0000 0000 0000 0000 0000 0000
00000020: 0000 0000 0000 0000 0000 0000 0000 0000
00000030: 0000 0000 0000 0000 0000 0000 0000 0000
00000040: 0000 0000 0000 0000 0000 0000 0000 0000
00000050: 0000 0000 0000 0000 0000 0000 0000 0000
00000060: 0000 0000 0000 0000 0000 0000 0000 0000
00000070: 0000 0000 0000 0000 0000 0000 0000 0000
00000080: 0000 0000 0000 0000 0000 0000 0000 0000
00000090: 0000 0000 0000 0000 0000 0000 0000 0000
000000a0: 0000 0000 0000 0000 0000 0000 0000 0000
000000b0: 0000 0000 0000 0000 0000 0000 0000 0000
000000c0: 0000 0000 0000 0000 0000 0000 0000 0000
000000d0: 0000 0000 0000 0000 0000 0000 0000 0000
000000e0: 0000 0000 0000 0000 0000 0000 0000 0000
000000f0: 0000 0000 0000 0000 0000 0000 0000 0000
00000100: 0000 0000 0000 0000 0000 0000 0000 0000
00000110: 0000 0000 0000 0000 0000 0000 0000 0000
00000120: 0000 0000 0000 0000 0000 0000 0000 0000
00000130: 0000 0000 0000 0000 0000 0000 0000 0000
00000140: 0000 0000 0000 0000 0000 0000 0000 0000
00000150: 0000 0000 0000 0000 0000 0000 0000 0000
00000160: 0000 0000 0000 0000 0000 0000 0000 0000
00000170: 0000 0000 0000 0000 0000 0000 0000 0000
00000180: 0000 0000 0000 0000 0000 0000 0000 0000
00000190: 0000 0000 0000 0000 0000 0000 0000 0000
000001a0: 0000 0000 0000 0000 0000 0000 0000 0000
000001b0: 0000 0000 0000 0000 0000 0000 0000 0000
000001c0: 0000 0000 0000 0000 0000 0000 0000 0000
000001d0: 0000 0000 0000 0000 0000 0000 0000 0000
000001e0: 0000 0000 0000 0000 0000 0000 0000 0000
000001f0: 0000 0000 0000 0000 0000 0000 0000 0000
0.0 0.0 0.0 0.0 0.0 0.0 0.0 0.0
0.0 0.0 0.0 0.0 0.0 0.0 0.0 0.0
0.0 0.0 0.0 0.0 0.0 0.0 0.0 0.0
0.0 0.0 0.0 0.0 0.0 0.0 0.0 0.0
0.0 0.0 0.0 0.0 0.0 0.0 0.0 0.0
0.0 0.0 0.0 0.0 0.0 0.0 0.0 0.0
0.0 0.0 0.0 0.0 0.0 0.0 0.0 0.0
0.0 0.0 0.0 0.0 0.0 0.0 0.0 0.0
0.0 0.0 0.0 0.0 0.0 0.0 0.0 0.0
0.0 0.0 0.0 0.0 0.0 0.0 0.0 0.0
0.0 0.0 0.0 0.0 0.0 0.0 0.0 0.0
0.0 0.0 0.0 0.0 0.0 0.0 0.0 0.0
0.0 0.0 0.0 0.0 0.0 0.0 0.0 0.0
0.0 0.0 0.0 0.0 0.0 0.0 0.0 0.0
0.0 0.0 0.0 0.0 0.0 0.0 0.0 0.0
0.0 0.0 0.0 0.0 0.0 0.0 0.0 0.0

action_model._discrete_distribution.branches.0.weight f4 [3, 128]
00000000: 48f6 fbba 313a 96bb 7200 b3ba 1cf2 99bb
00000010: 70d7 8a3b 8357 203b 239b d13b 40ce 62b9
00000020: 8de9 83bb 707a debb 8c80 c73b d923 1fba
00000030: b7cb d3bb d269 fb39 6504 81bc aa70 e03c
00000040: 9898 13bc 8641 8cbb 30b1 e4bb e327 20bb
00000050: b7b1 c03a 2f41 9c3c b3ac 6a3c 53fa 60bb
00000060: c452 073c 1ed1 b23b 0bb1 f43a 22f2 fcbb
00000070: 484f e93b 234c f6ba ba5a ee39 2a59 7abc
00000080: bbbb 483c 3dcf 4ebb 77c7 1ebc b9e8 203c
00000090: dcf4 853b 2fc6 a03b fff7 c2bb 8df0 f03b
000000a0: e866 8d3c 1b0b fd3b bd34 90bc b933 0b3d
000000b0: 4024 d039 7fe8 b33b 9f54 943c 5b07 993b
000000c0: b3d4 693a 1b6f e9bb 6a7a ac3b fec0 8e3a
000000d0: a49b 0f3c 2d88 10bc 95d5 913b 35a4 07bb
000000e0: c34b 01bc 0e49 bebb 2a57 633c 44a7 453c
000000f0: 6bc7 dabb e75a 893c ad40 1abc 8f1c d4bb
00000100: 6789 db3b f83d 03b9 a767 d93a 495f 183b
00000110: 719e bdbb bf5a 943a 7313 8a3b d34d fb3b
00000120: 43e8 f63b e6c7 b7bb ef98 953b 95f8 d73b
00000130: 1bc5 0cbc 53dd 893b de56 2c3c e415 0fbb
00000140: 02c7 a1ba ebf4 363c 7f6f b93b 00ee 12bc
00000150: 6310 bb39 6a80 e93b b29e d93c 3593 d1bb
00000160: dd3e dbbb e45d 30bb ba38 64bb 06f7 31b9
00000170: 7be0 f939 3767 823b a8d0 4dbc 3a1c 97bc
00000180: 4042 7d3c 2017 77bc 7a68 e13c 8f58 3c3c
00000190: 40fc 283a ed70 353c df86 cbbb 2c40 8fbb
000001a0: bbc1 113c bbaf c03a 2fda 1cba 7ad0 183c
000001b0: 87f5 10bc 0806 f53b 5f51 893c 25d5 03bc
000001c0: 0f90 573b df25 edbb 18e5 30bc 3271 6fbc
000001d0: 8760 4b39 7c82 813b eadb dbbb 8ddc bb3b
000001e0: df8a db3a a222 44bc 2d02 18bc ab8d b73b
000001f0: cde6 d53a 83ed a73a ef93 823b 16bc a03c
00000200: 0cc6 a5bc 3b86 403c ee99 0fbc a155 bd3c
00000210: 3b10 32bc 60d0 fd3b 17b2 efba 92b1 e5bb
00000220: 1b96 103c 93c5 773b a11b b0bb ad91 db3a
00000230: 0ba4 0d38 e749 a2bc c448 8ebb 1b1a 0bbb
00000240: e833 d7bb ae53 29bc 9fed e73b 5069 51bb
00000250: 0dac 173b 928d fbbb 189d bdbb 737b 7ebb
00000260: 1160 393c ffdd 6ebc 749f 39bb 4b9d c1bb
00000270: 7386 10bc b7d0 afbb 9d20 b93a 8e87 053c
00000280: 5355 25bb 884a 13bc c81d 57bc dd3b 3f3c
00000290: e3e7 d8ba 93b9 70bc 186b b6bb 03ad 52bb
000002a0: 785e 0fbc f0dc d9ba b7df b13b a6e2 1cbc
000002b0: a05f cf3b 9fe5 02bc 75ef 45bb ddf9 bc3b
000002c0: d377 3dbc 6323 543b 80fa ac3b be55 813b
000002d0: a83d ec3c a54e 16bc 8c48 12ba 7c63 96bb
000002e0: 6bb2 6abc a5eb d5bb d3d3 653b aeff 8dbc
000002f0: 3f55 0abc 6588 f4ba 17ab b7bb cd90 093c
00000300: b94c 103c e05e 53bc e658 193b 0b44 42bc
00000310: 722e 40bb 353a 13bc 614e 0cbc 8afe 613b
00000320: d5b8 fd3a 320f d13b bca2 bdb9 4639 08bc
00000330: bf11 46bb 8157 3a3c fd73 d8bb 8759 5cbb
00000340: 6304 593c f30b 473c 8e44 263c bd32 86bc
00000350: 7e7d a43b ac8a c63a d58d 6e3b d359 223b
00000360: 0283 093b f340 fa3b d8d5 173c a404 9d39
00000370: 6e4e c9ba 75d6 7fbb 9e41 9d3b 2f54 8dbb
00000380: d820 2bbc e374 e93b 9a2f 9dbb dd89 a2bb
00000390: 3479 2e3c cf76 e0bb 5070 df3b 0ed7 81bc
000003a0: c7a4 2e3c d0b3 9f3b b358 da3b a517 33bc
000003b0: b745 81bb 9f15 f83b cfcc d7b9 4200 fd3b
000003c0: 0e92 1ebb 9f1b f53b cf0b 5a3a 7018 213c
000003d0: a2b5 973a cd60 69bc 7916 ab38 5d79 0c3c
000003e0: 30d7 a43c 21ac c037 ff0e 633c 8dc9 783b
000003f0: bc3b 443c dde6 76bb 8352 363c dbb6 b03a
-0.0019223178 -0.0045845737 -0.0013656749 -0.004698051 0.004237108 0.0024466224 0.0063966676 -0.00021629874
-0.004025644 -0.006789498 0.006088322 -0.00060707104 -0.0064634937 0.00047953293 -0.015749166 0.027397472
-0.009008549 -0.004280272 -0.00697913 -0.0024437837 0.0014701401 0.01907405 0.014323401 -0.0034328892
0.008259479 0.0054570576 0.0018668486 -0.007719294 0.0071200468 -0.0018791001 0.00045462494 -0.015280047
0.01225179 -0.003155663 -0.009691111 0.00982111 0.0040880274 0.004906438 -0.0059499736 0.0073528946
0.017260984 0.007722271 -0.017603273 0.033984873 0.0003969986 0.005490362 0.018106757 0.0046700663
0.0008919939 -0.0071238405 0.0052636163 0.0010891256 0.008765135 -0.008821529 0.00445051 -0.002069724
-0.007891598 -0.0058070486 0.013875762 0.012063805 -0.0066766045 0.016766978 -0.009414834 -0.006473131
0.0066997292 -0.00012516219 0.0016586677 0.0023250154 -0.00578671 0.0011318548 0.0042137443 0.0076691895
0.007535012 -0.0056085465 0.0045653502 0.0065909126 -0.0085919155 0.004207292 0.010518758 -0.0021833116
-0.0012342634 0.011166791 0.0056590433 -0.008967876 0.00035679628 0.007125904 0.02656493 -0.0063957223
-0.0066908435 -0.0026911432 -0.003482385 -0.00016972059 0.00047660232 0.0039795893 -0.012561955 -0.018446077
0.01545769 -0.015081197 0.027515639 0.011495723 0.00064462796 0.011074287 -0.0062111462 -0.0043716636
0.008896287 0.0014700809 -0.00059834396 0.009327048 -0.008847601 0.0074775256 0.016762434 -0.008046423
0.0032892262 -0.0072371806 -0.010796808 -0.01461439 0.00019395548 0.0039523225 -0.0067095654 0.005733079
0.0016749761 -0.011971148 -0.0092778625 0.005601605 0.0016319394 0.0012811873 0.00398492 0.019620936
-0.020236038 0.011750753 -0.008764727 0.02311212 -0.010868127 0.0077457875 -0.0018287328 -0.0070096934
0.00882485 0.0037806972 -0.0053743874 0.0016751789 3.3769797e-05 -0.01981063 -0.0043421704 -0.0021225277
-0.006567467 -0.010334892 0.007077887 -0.003195364 0.0023143322 -0.0076767886 -0.0057865493 -0.0038830906
0.011314408 -0.014579295 -0.0028323801 -0.0059086434 -0.008821118 -0.005365457 0.0014124099 0.008149995
-0.002522786 -0.008989938 -0.013129659 0.011671987 -0.00165486 -0.014692682 -0.005566966 -0.003214658
-0.00875055 -0.0016621631 0.00542828 -0.009575522 0.006328538 -0.007989316 -0.0030202542 0.0057670907
-0.011564213 0.0032369725 0.0052788854 0.003946989 0.028837994 -0.009174024 -0.00055802683 -0.004589496
-0.014324765 -0.006528335 0.0035068884 -0.017333832 -0.008443176 -0.0018656371 -0.0056051123 0.00839634
0.008807355 -0.012901038 0.0023398935 -0.011857043 -0.0029324559 -0.008986046 -0.008563609 0.0034483992
0.0019357452 0.0063799853 -0.00036170136 -0.008314436 -0.003022298 0.011373402 -0.0066056238 -0.0033622698
0.013245675 0.012148845 0.010148181 -0.016381616 0.0050198426 0.0015147529 0.0036400456 0.0024772778
0.0020982628 0.007637137 0.009267293 0.0002994883 -0.0015358457 -0.0039037738 0.004799082 -0.004313014
-0.010444842 0.0071245297 -0.0047969343 -0.0049602822 0.010649014 -0.0068501006 0.0068188086 -0.015849616
0.010659403 0.0048737302 0.006663406 -0.01093093 -0.0039450782 0.007570937 -0.0004116059 0.007720978
-0.0024195942 0.0074800993 0.00083177997 0.0098324865 0.0011574517 -0.0142442705 8.158101e-05 0.008573857
0.02012214 2.2968337e-05 0.013858556 0.003796193 0.011977132 -0.0037674226 0.011128071 0.001348223

action_model._discrete_distribution.branches.0.bias f4 [3]
00000000: 0000 0000 0000 0000 0000 0000
0.0 0.0 0.0

network_body._body_endoder.seq_layers.0.weight f4 [128, 11]
00000000: 3cbe 81bd 8e75 db3c 3d1d 793e 6aea 10bf
00000010: 3e89 403e 245d 96be 0853 dfbc 8a10 ef3c
00000020: ab45 cdbe a25f 853d 9347 74be e4ae 3cbd
00000030: e5b5 893e 5fd3 143e 2551 043e 6fe9 443e
00000040: 5d80 f63c e13c f73d 8e6d d93e d2b2 0d3e
00000050: 5ae5 4fbe b098 a53e e517 a23e 34a1 81bc
00000060: 4fda cdbe 6ca8 8f3e 4618 53be c8d1 543e
00000070: 807b bc3d b1da 9bbe bd32 00bf 4703 473d
00000080: 2987 0d3e 6b35 cdbd 94ea 6f3e f1be 983e
00000090: c30d aebe d6de 3a3e 7976 fe3d e26a 25be
000000a0: c056 eb3b e94d 6b3e 5cd9 623e d5e4 a7be
000000b0: 5c07 d9be 088a 433d 1a4c 8ebd d6ef 833e
000000c0: a111 21be 55c5 903e 67b6 98be 85b0 d1be
000000d0: 9efa 383e a2ed ff3d eced 88be 0835 83bd
000000e0: 2b6a 1abf c93e 723d 3333 36be 5e6f 303d
000000f0: 5c84 55be 6c87 63be d628 80bd 26fa cabe
00000100: 8915 cabd 367b 2fbf efb8 073f 00eb 64bd
00000110: a674 81bd 14a8 163e c2f7 a0be ce06 b13d
00000120: 0744 ed3c 6dce 473e 842c ab3d 2c5d 243d
00000130: eb8f a1be f83d 18be 9f61 82bd 8c52 3e3e
00000140: 99bd dd3e 8f1e ddbc 0dfe f2bd 5b2f f0be
00000150: 3e70 ba3d c6dd f2be 2747 923e 5582 aebe
00000160: 2ae8 efbe 1ff8 8b3e e9ae a0bd 70de d7bd
00000170: 5d90 9e3e df00 e5be 9530 c33e facb 8dbd
00000180: d13a 033d de75 be3d f59d 9c3b fefa cb3e
00000190: d5ab 7cbd 140e 803e eee8 96be 4853 48be
000001a0: 2f05 c2be 525d 063e 7c4e f1bd 5b84 f33d
000001b0: ebc5 51bd b0ef 2a3f e285 b63e 0485 3b3e
000001c0: d125 1dbe b6dd ed3e 7ca8 23be 4c22 bebe
000001d0: fb64 c7bc a9b2 a6be c7cc 953e 807b 1c3d
000001e0: ad46 c1be 6ebc a23e fb86 a73e a8a9 bbbe
000001f0: daba c83e acf4 87bd 11f0 153f 552c d5bc
00000200: 85c7 883e e7b6 afbd 482e 28be 1fab 60bc
00000210: 7e32 0bbf 1c32 68bd 61b8 d0be 3bfd aebd
00000220: 9aa5 98be 4303 6e3e 275f 3fbe 2e7f 08bf
00000230: 1372 4cbe 5607 5bbe 5a42 11bf cc80 1ebe
00000240: 515f cf3e 5d08 c2be e16f fabe 1326 53bd
00000250: 7104 be3d dc13 1b3f 6c97 22bf a3f9 96be
00000260: 8557 49be 53ee 223e 9758 973c a52c b33d
00000270: 5ee5 90be 9093 e6bd 972d 44be 7e4c 1cbe
00000280: b8e9 d5be 9152 41be 9599 8e3e 70e7 27be
00000290: dd65 b83e a648 1dbe b38b 4f3e 5bee 4f3e
000002a0: 8432 3cbd 09b6 da3d 8aa6 bcbe cffd 613e
000002b0: 650d 4fbd fa5e 48be 97a7 2dbe 1562 84bd
000002c0: ba7b 2fbe eef3 4ebe 7067 b53d 4536 d5bd
000002d0: 48f9 123d da9e 3abd 866e 903c c31a 763d
000002e0: 5883 c63d 567e 63bc b028 79be f3dd fc3c
000002f0: 05db f3bc 0234 5ebe 8172 9fbe 109f ff3e
00000300: 5465 fabc 864b e0be 64af 30be 7553 be3d
00000310: 0222 5f3e e486 2f3d 76e3 a3be 52a7 ecbe
00000320: 7ea6 78be ab47 2d3f e635 113c b89a d6bd
00000330: 7392 52be 7fc1 653e 95e3 1e3d 066e 1a3d
00000340: a1ae be3e ec30 a0be b8fc 85bd dedf e23e
00000350: 6ddb 5bbe e30f 1f3e ee49 f7be 447b adbe
00000360: c35e 25be 1fb3 3f3e cbaf b4bb 1552 ddbe
00000370: 757b cc3d 9fd0 e23d 9193 eabd ceaf 3f3e
00000380: 0ecf 56bf 7a21 08bc b32d 733e 6b01 143e
00000390: c2fb 493d 2e26 a5be 27e8 583d e881 e63e
000003a0: a766 a63e 5a9d e93e cdeb 5e3e 8ebe 12bd
000003b0: fdb1 18bf 5c61 4fbe 59f6 21be d90c cabe
000003c0: 5f89 93be 81f9 393f 47dc 283e 29a4 bb3e
000003d0: 8ba6 423e cc15 d13e 8d9d b33d ce9c 083e
000003e0: 3118 813e 75ac e5be db01 e4be 7454 a13e
000003f0: 2a0e d23e b90e 8dbd 6f41 043f b6aa c03e
-0.063351125 0.026789453 0.2432756 -0.5660769 0.18802354 -0.29367936 -0.027261272 0.029182691
-0.40092215 0.06512381 -0.23855428 -0.046065226 0.26896587 0.14533757 0.12921579 0.19229673
0.030090505 0.120721586 0.42466396 0.13837746 -0.20302334 0.32343054 0.31658855 -0.015823938
-0.4020562 0.28058183 -0.20614728 0.2078315 0.09203243 -0.30440286 -0.5007742 0.04858711
0.13821091 -0.10019954 0.23429328 0.29833177 -0.33994874 0.18249068 0.124249406 -0.16154054
0.0071819723 0.22978939 0.22153229 -0.32791772 -0.42388427 0.04773906 -0.06948109 0.25768918
-0.15729381 0.28275552 -0.29826662 -0.40954986 0.18064353 0.12496497 -0.2674402 -0.06406599
-0.6031825 0.059141908 -0.17792968 0.043074958 -0.20851272 -0.22219628 -0.06257789 -0.39643973
-0.09867389 -0.6854738 0.5301656 -0.055888176 -0.06321077 0.14712554 -0.31439024 0.08643876
0.028963102 0.19512339 0.083581 0.040127918 -0.31555113 -0.14867389 -0.06366276 0.18586177
0.43308714 -0.02699211 -0.118648626 -0.4691113 0.0910344 -0.47434825 0.2856991 -0.3408381
-0.46856815 0.2733774 -0.078458615 -0.105404735 0.30969515 -0.44727227 0.38123003 -0.06923671
0.032038514 0.09299825 0.004779572 0.3983993 -0.06168731 0.2501074 -0.29474586 -0.1956302
-0.3789458 0.13121536 -0.11782548 0.11890479 -0.05121414 0.66771984 0.3564902 0.1831246
-0.15346457 0.46458215 -0.1598224 -0.3713554 -0.024340143 -0.32558182 0.29257795 0.038203716
-0.37749234 0.31784385 0.3272017 -0.36652875 0.39205056 -0.06638464 0.5856944 -0.026022116
0.2671472 -0.08579808 -0.16423905 -0.013712673 -0.5437392 -0.056688413 -0.4076567 -0.08544394
-0.29813844 0.23243432 -0.18688641 -0.5331906 -0.19965391 -0.21389517 -0.5674187 -0.1547882
0.40502408 -0.37897006 -0.48913482 -0.051549982 0.09278191 0.6057718 -0.635123 -0.29487333
-0.19662292 0.15911226 0.01847486 0.0874875 -0.28299993 -0.11258614 -0.19158016 -0.15263554
-0.41779876 -0.18879153 0.2785155 -0.1639688 0.36015216 -0.15359744 0.20268135 0.20305769
-0.045946613 0.10679252 -0.3684581 0.22069477 -0.050549883 -0.1956748 -0.16958462 -0.0646402
-0.17137042 -0.2021024 0.0885762 -0.10410742 0.035882264 -0.04556165 0.017630827 0.060084116
0.096930206 -0.013885101 -0.24331927 0.030867552 -0.029767523 -0.21699527 -0.31142047 0.49926043
-0.030565895 -0.4380762 -0.17254406 0.09293262 0.21790317 0.04285325 -0.32009476 -0.46221405
-0.24282262 0.6768748 0.008862948 -0.10478729 -0.20563678 0.22437094 0.038791258 0.037702583
0.37242606 -0.31287324 -0.06542343 0.44311422 -0.21470423 0.15533404 -0.4829859 -0.33883107
-0.1614943 0.18720673 -0.00551412 -0.43226686 0.09984485 0.110749476 -0.11453927 0.18719408
-0.8390969 -0.008308763 0.23747902 0.14453666 0.04931236 -0.3225569 0.052955773 0.45020986
0.32500193 0.45627862 0.21769638 -0.03582626 -0.5964659 -0.20251983 -0.1581663 -0.39462927
-0.28815743 0.7264634 0.16490279 0.36648682 0.19008844 0.40836942 0.08770285 0.13341066
0.2521377 -0.44858137 -0.44532666 0.31509745 0.4102643 -0.06887574 0.51662344 0.37630242

network_body._body_endoder.seq_layers.0.bias f4 [128]
00000000: 0000 0000 0000 0000 0000 0000 0000 0000
00000010: 0000 0000 0000 0000 0000 0000 0000 0000
00000020: 0000 0000 0000 0000 0000 0000 0000 0000
00000030: 0000 0000 0000 0000 0000 0000 0000 0000
00000040: 0000 0000 0000 0000 0000 0000 0000 0000
00000050: 0000 0000 0000 0000 0000 0000 0000 0000
00000060: 0000 0000 0000 0000 0000 0000 0000 0000
00000070: 0000 0000 0000 0000 0000 0000 0000 0000
00000080: 0000 0000 0000 0000 0000 0000 0000 0000
00000090: 0000 0000 0000 0000 0000 0000 0000 0000
000000a0: 0000 0000 0000 0000 0000 0000 0000 0000
000000b0: 0000 0000 0000 0000 0000 0000 0000 0000
000000c0: 0000 0000 0000 0000 0000 0000 0000 0000
000000d0: 0000 0000 0000 0000 0000 0000 0000 0000
000000e0: 0000 0000 0000 0000 0000 0000 0000 0000
000000f0: 0000 0000 0000 0000 0000 0000 0000 0000
00000100: 0000 0000 0000 0000 0000 0000 0000 0000
00000110: 0000 0000 0000 0000 0000 0000 0000 0000
00000120: 0000 0000 0000 0000 0000 0000 0000 0000
00000130: 0000 0000 0000 0000 0000 0000 0000 0000
00000140: 0000 0000 0000 0000 0000 0000 0000 0000
00000150: 0000 0000 0000 0000 0000 0000 0000 0000
00000160: 0000 0000 0000 0000 0000 0000 0000 0000
00000170: 0000 0000 0000 0000 0000 0000 0000 0000
00000180: 0000 0000 0000 0000 0000 0000 0000 0000
00000190: 0000 0000 0000 0000 0000 0000 0000 0000
000001a0: 0000 0000 0000 0000 0000 0000 0000 0000
000001b0: 0000 0000 0000 0000 0000 0000 0000 0000
000001c0: 0000 0000 0000 0000 0000 0000 0000 0000
000001d0: 0000 0000 0000 0000 0000 0000 0000 0000
000001e0: 0000 0000 0000 0000 0000 0000 0000 0000
000001f0: 0000 0000 0000 0000 0000 0000 0000 0000
0.0 0.0 0.0 0.0 0.0 0.0 0.0 0.0
0.0 0.0 0.0 0.0 0.0 0.0 0.0 0.0
0.0 0.0 0.0 0.0 0.0 0.0 0.0 0.0
0.0 0.0 0.0 0.0 0.0 0.0 0.0 0.0
0.0 0.0 0.0 0.0 0.0 0.0 0.0 0.0
0.0 0.0 0.0 0.0 0.0 0.0 0.0 0.0
0.0 0.0 0.0 0.0 0.0 0.0 0.0 0.0
0.0 0.0 0.0 0.0 0.0 0.0 0.0 0.0
0.0 0.0 0.0 0.0 0.0 0.0 0.0 0.0
0.0 0.0 0.0 0.0 0.0 0.0 0.0 0.0
0.0 0.0 0.0 0.0 0.0 0.0 0.0 0.0
0.0 0.0 0.0 0.0 0.0 0.0 0.0 0.0
0.0 0.0 0.0 0.0 0.0 0.0 0.0 0.0
0.0 0.0 0.0 0.0 0.0 0.0 0.0 0.0
0.0 0.0 0.0 0.0 0.0 0.0 0.0 0.0
0.0 0.0 0.0 0.0 0.0 0.0 0.0 0.0

network_body._body_endoder.seq_layers.2.weight f4 [128, 128]
00000000: f7bd cb3d 4e82 56bc 9556 333d 3a78 f53d
00000010: c8df f13c a550 883e 0e3e 87bd 3bf0 2b3d
00000020: cda6 393c 0cbe 883d ccaa b3bd 88c5 b93d
00000030: f7da 0dbe 2d4e ac3d 400a 3bbd de50 0abe
00000040: 2dee f83d ccce cb3c 8fa7 bb3c 4049 37bd
00000050: 90f2 94bd 8cc1 c03d 580d 233e 741a 203d
00000060: cdf5 36bc 2d3e d23d cf46 c9ba 0679 93bb
00000070: 0af7 ed3c 39df 0f3e c362 cabd 0189 d03d
00000080: c1e7 073e d956 0bbd 9152 543c 99c6 dabd
00000090: 0c54 e23d 4a69 51be 66d3 c23c 20ae c4bd
000000a0: 600a f53d e9cc f4bd ff9a a43c 4415 ef3b
000000b0: e179 f93c cc2f b339 cc7d 6ebc 5400 3f3d
000000c0: a34b 71bc 5956 863d fdd1 d13d 5de1 65bc
000000d0: 5652 0d3e db97 2e3d 84f6 38be b6e2 e3bc
000000e0: 3b97 f13d d685 45bd 2dc9 b0bc 4942 d93d
000000f0: a958 2bbd 37fc c63d 2fd3 f6bd 57f8 d139
00000100: a13b c53d 502a c13c c05f a93c 8d40 603e
00000110: 9109 86be 6797 d5bd 08d6 09be 991e 233e
00000120: 4a19 0a3e 2c65 0ebe 15cf 933c 9981 1e3c
00000130: b3c1 e3bc 8d6d 9ebd 82e4 7fbd c6c6 24be
00000140: c55c 39be 07fe 90bd 7122 a5bd b76e 20bc
00000150: b7c4 973d 57da 4d3c a503 2a3c 5805 983d
00000160: 7f24 28bd 6763 843c 4358 10be 9556 303d
00000170: 6555 bbbc cd0e 183c d02b a13d 3703 09be
00000180: 8de8 3f3e 4809 cbbc 3300 a3bc c943 793d
00000190: 448a 933d 179a d1bd ee08 bdbc aeaa b83d
000001a0: 0a96 2dbe c5f4 f1bc 2d49 ce3d e39c 913c
000001b0: 0c36 5bbd 285c 363d c5b4 db3d df05 6fbd
000001c0: fb23 e2ba a6ce e2bc 9660 a8bd 10d4 afbd
000001d0: 8f2a 90bc 45b7 f43d 06e6 54bd f32a 9a3c
000001e0: 313d 9dbc 1521 c3bd 7e81 18bd de90 de3d
000001f0: 1c8a 86bc e4f9 94ba 5828 b9bc ed1c babc
00000200: 436b a63d ff7a 02bd 10dc ef3d 614d aa3d
00000210: 8fc9 e5bb 0170 4b3d 0f3b 483c 792e aebd
00000220: d522 2ebc 639e 87bd 5639 253d 21bd f63a
00000230: d892 93bd 0fab 0a3d ba2a 253e 0fff 8a3d
00000240: 9674 ccbd d087 223d 910d 703c 9882 7a3d
00000250: 2829 79be 27c0 9cbc 0660 bc3d 794d 87bd
00000260: 67ca bf3c 11b5 bdbd 0576 b83c 587c fa3c
00000270: 8e04 64bd be2b ad3d b7a0 6f3d 40f7 3c3d
00000280: 9351 8cbb b618 23be 9d7e 643e a99f 99bc
00000290: 0aba 20bc 7997 683e d551 723c b59a 133e
000002a0: 4d9b 663d c517 603d d98b e8bd f244 46bd
000002b0: 48d4 a73d ce66 483e 29c7 62be 30b5 303b
000002c0: 3978 163d 6841 1c3d e219 b83c 7819 40bd
000002d0: 5d3e d0bc 8d06 253e 2654 9fbd 1323 823d
000002e0: a67d a63d 7e04 7cbc 41fd 233d 2b6d af3d
000002f0: d808 ae3d eaad c33d b658 653e 94ad 79ba
00000300: 6571 43bd 1826 053d 0758 02be 3691 ddbd
00000310: 4c4d e83b b7f3 7a3d c898 fd3d 104b d5bd
00000320: c3ca 9ebd 74bb 2f3d 44a4 1abe 19ad 35bd
00000330: 4ba5 6a3a 2589 5abd 7a57 0e3e 143a d0ba
00000340: c20b d2bd 966e 14bc edf9 253d d26f c53c
00000350: 8d10 cabd d5c4 ea3d 8401 193d 4adc 3c3d
00000360: 547b 43bd 346e 2abd a17f c33d 823c 053d
00000370: ce2f a13c e828 363d 79cc bfbd 4fa2 663d
00000380: 8fda a33d 3214 c53d 5aa4 8f3c 75f5 da39
00000390: 1f0b 51bd 067d 0d3e 1796 7b3c d492 a4bd
000003a0: c708 ebbd 7afe b8b9 1d77 c6bd a633 e23b
000003b0: 6e64 1bbd 3758 9abd c67d a3bc d3d2 86bd
000003c0: 7d29 bf3d 56cd 48bc 173d 21bd 29f0 19bd
000003d0: a6c5 913e 9e98 81bd 358c 4ebd ba7e f5bd
000003e0: 04f2 9d3c 39d8 1abc 5797 4e3e 73f9 88bc
000003f0: 9f14 8d3d 18ae 4c3d 9e30 17be 6de5 0bbe
0.09948342 -0.0130925905 0.043783743 0.11985822 0.029525653 0.26624027 -0.06603633 0.04197715
0.011331272 0.066768736 -0.08772811 0.09070879 -0.1385306 0.08413348 -0.045664072 -0.13507411
0.121548034 0.024878882 0.022907047 -0.04474759 -0.072728276 0.09411916 0.15923059 0.039087728
-0.011167002 0.10265765 -0.0015356186 -0.004500511 0.029048461 0.14049996 -0.098821186 0.101823814
0.13272001 -0.03401837 0.0129591385 -0.10682411 0.11051187 -0.20450321 0.023782443 -0.09603524
0.119648695 -0.11953146 0.02009344 0.007296236 0.030453624 0.00034177152 -0.0145563595 0.046631172
-0.014727506 0.06559438 0.1024513 -0.014030782 0.1380094 0.04262529 -0.18062788 -0.027818065
0.11796423 -0.04822334 -0.021580303 0.10608346 -0.0418326 0.09716075 -0.12051999 0.00040048614
0.09630514 0.023579746 0.02067554 0.21899624 -0.26179174 -0.10429268 -0.13460553 0.15929641
0.1348621 -0.13905782 0.01804308 0.009674453 -0.027802324 -0.07735739 -0.06247378 -0.16091451
-0.18101795 -0.07079702 -0.0806321 -0.0097920215 0.07410567 0.012564263 0.0103768455 0.07422894
-0.04105043 0.01616068 -0.14096169 0.04305132 -0.022867868 0.0092808725 0.07869685 -0.13380133
0.18741055 -0.0247847 -0.019897556 0.06085566 0.072041065 -0.102344684 -0.023075547 0.090169296
-0.16951767 -0.02953566 0.10072551 0.017775005 -0.05351834 0.04452148 0.107278384 -0.05835521
-0.0017253155 -0.027686428 -0.08221547 -0.085853696 -0.017598419 0.119490184 -0.05197718 0.018819308
-0.019194217 -0.09527794 -0.03723287 0.10867475 -0.016423278 -0.0011365977 -0.022602245 -0.022718871
0.08125927 -0.03185558 0.117118955 0.0831554 -0.007012553 0.049667362 0.012221112 -0.08504958
-0.010628422 -0.06622007 0.040337883 0.0018824675 -0.072057426 0.03385454 0.1612958 0.0678693
-0.099831745 0.039680302 0.014651672 0.0611597 -0.24332106 -0.019134594 0.091980025 -0.066065736
0.023411943 -0.09263051 0.022517214 0.03057687 -0.055668406 0.08455609 0.05850288 0.046134233
-0.0042821853 -0.15927395 0.22313924 -0.01875289 -0.00980998 0.22714032 0.014790018 0.14414485
0.05630045 0.05471017 -0.11354799 -0.048405595 0.08194786 0.19570467 -0.22146286 0.0026963465
0.036735747 0.038148314 0.02247328 -0.04689929 -0.025420362 0.1611578 -0.07779722 0.06354346
0.08129434 -0.01538193 0.040036444 0.08565744 0.084977806 0.09554656 0.22397122 -0.00095244613
-0.047715563 0.032507032 -0.12728892 -0.108187124 0.0070892926 0.06126758 0.12382656 -0.10414708
-0.077535175 0.04290338 -0.15101725 -0.044354532 0.0008951022 -0.053353447 0.13900557 -0.0015886449
-0.10256149 -0.009059569 0.04052155 0.024101172 -0.09866438 0.11463324 0.03735496 0.04610852
-0.047725037 -0.041609004 0.09545828 0.032528408 0.019676115 0.044472605 -0.09365172 0.056307133
0.08000671 0.096229926 0.017534424 0.0004176308 -0.051035997 0.13817224 0.015355608 -0.08035818
-0.114762835 -0.00035284815 -0.09690688 0.0069031296 -0.037937574 -0.07536357 -0.019957434 -0.0658318
0.09334085 -0.012255987 -0.0393649 -0.03758255 0.28471106 -0.063279375 -0.05042668 -0.11987062
0.019280441 -0.009450966 0.20174919 -0.01672051 0.06888699 0.049970716 -0.1476464 -0.13661738

network_body._body_endoder.seq_layers.2.bias f4 [128]
00000000: 0000 0000 0000 0000 0000 0000 0000 0000
00000010: 0000 0000 0000 0000 0000 0000 0000 0000
00000020: 0000 0000 0000 0000 0000 0000 0000 0000
00000030: 0000 0000 0000 0000 0000 0000 0000 0000
00000040: 0000 0000 0000 0000 0000 0000 0000 0000
00000050: 0000 0000 0000 0000 0000 0000 0000 0000
00000060: 0000 0000 0000 0000 0000 0000 0000 0000
00000070: 0000 0000 0000 0000 0000 0000 0000 0000
00000080: 0000 0000 0000 0000 0000 0000 0000 0000
00000090: 0000 0000 0000 0000 0000 0000 0000 0000
000000a0: 0000 0000 0000 0000 0000 0000 0000 0000
000000b0: 0000 0000 0000 0000 0000 0000 0000 0000
000000c0: 0000 0000 0000 0000 0000 0000 0000 0000
000000d0: 0000 0000 0000 0000 0000 0000 0000 0000
000000e0: 0000 0000 0000 0000 0000 0000 0000 0000
000000f0: 0000 0000 0000 0000 0000 0000 0000 0000
00000100: 0000 0000 0000 0000 0000 0000 0000 0000
00000110: 0000 0000 0000 0000 0000 0000 0000 0000
00000120: 0000 0000 0000 0000 0000 0000 0000 0000
00000130: 0000 0000 0000 0000 0000 0000 0000 0000
00000140: 0000 0000 0000 0000 0000 0000 0000 0000
00000150: 0000 0000 0000 0000 0000 0000 0000 0000
00000160: 0000 0000 0000 0000 0000 0000 0000 0000
00000170: 0000 0000 0000 0000 0000 0000 0000 0000
00000180: 0000 0000 0000 0000 0000 0000 0000 0000
00000190: 0000 0000 0000 0000 0000 0000 0000 0000
000001a0: 0000 0000 0000 0000 0000 0000 0000 0000
000001b0: 0000 0000 0000 0000 0000 0000 0000 0000
000001c0: 0000 0000 0000 0000 0000 0000 0000 0000
000001d0: 0000 0000 0000 0000 0000 0000 0000 0000
000001e0: 0000 0000 0000 0000 0000 0000 0000 0000
000001f0: 0000 0000 0000 0000 0000 0000 0000 0000
0.0 0.0 0.0 0.0 0.0 0.0 0.0 0.0
0.0 0.0 0.0 0.0 0.0 0.0 0.0 0.0
0.0 0.0 0.0 0.0 0.0 0.0 0.0 0.0
0.0 0.0 0.0 0.0 0.0 0.0 0.0 0.0
0.0 0.0 0.0 0.0 0.0 0.0 0.0 0.0
0.0 0.0 0.0 0.0 0.0 0.0 0.0 0.0
0.0 0.0 0.0 0.0 0.0 0.0 0.0 0.0
0.0 0.0 0.0 0.0 0.0 0.0 0.0 0.0
0.0 0.0 0.0 0.0 0.0 0.0 0.0 0.0
0.0 0.0 0.0 0.0 0.0 0.0 0.0 0.0
0.0 0.0 0.0 0.0 0.0 0.0 0.0 0.0
0.0 0.0 0.0 0.0 0.0 0.0 0.0 0.0
0.0 0.0 0.0 0.0 0.0 0.0 0.0 0.0
0.0 0.0 0.0 0.0 0.0 0.0 0.0 0.0
0.0 0.0 0.0 0.0 0.0 0.0 0.0 0.0
0.0 0.0 0.0 0.0 0.0 0.0 0.0 0.0

value_heads.value_heads.extrinsic.weight f4 [1, 128]
00000000: 8082 383e da61 063e 0847 c73c 22aa 3a3e
00000010: ce6c 2a3e 88a3 e2bc ee8d 103e 40a6 0e3b
00000020: 1e40 c3bd 49a0 12be e053 d7bb a0b0 113e
00000030: 3e41 94bd 0092 ffbb ea15 b3bd 01d0 bebd
00000040: 50da 0e3e 78ca f13d 90f5 72bd 5856 38be
00000050: 88c8 fd3c c6fd 21be 8474 833d 3830 f5bc
00000060: 241b 6ebd 564f 39be 24d9 f03d 5cbe 0e3e
00000070: d087 3f3e 2c3f b43d e8a4 e5bd 3013 75bc
00000080: 226c afbd a35a 28be 3862 f23c bc40 b63d
00000090: 2c6e 14be 2241 9fbd 5203 0dbe 20f8 f03b
000000a0: 889e cb3d b304 debd e425 ae3d 005f a13a
000000b0: 7b71 3ebe 0080 873d 8128 1abe 46ef 40be
000000c0: 8063 36bb b43a 97bd b0b9 1dbc 1cc0 b33d
000000d0: 780e 23bd d049 06bd 6c3a 863d b8b3 e93d
000000e0: 8038 56be 9054 563c 60a6 913b f4e4 2b3e
000000f0: 683e f63c 6819 56be 575b ccbd ccfa 143e
00000100: 524e 243e 1a8e 363e 9212 f9bd c630 303e
00000110: 3965 37be de18 153e 20f4 6bbc b424 29be
00000120: b8af 7b3d a49e 70bd dcb8 22be 4ae1 1ebe
00000130: f61c 4ebe 8099 3e3b 1d9f f2bd 48d9 07be
00000140: d505 cebd e8e5 96bc 7a69 4e3e 0088 2f3e
00000150: 8445 34be e696 183e b83f e63d 2c70 cb3d
00000160: e11e 1ebe deab a6bd 6256 c3bd eca5 873d
00000170: 700b 2c3e 8867 513d c010 55be 0844 183e
00000180: fc3a d8bd 747b 21be 9833 64bd dfa4 c6bd
00000190: 1d5c 25be 443e 63bd 3028 4e3e cc44 183e
000001a0: bc0b 4bbd 6a7c 5b3e 5ce8 203e 3c04 2b3e
000001b0: 84b0 e13d 2c4b 1bbe 002b 87ba c265 4bbe
000001c0: d89a 573e 5680 86bd 904a fd3d b805 c0bc
000001d0: cc05 003d 00aa 32bb 4829 413d c6c8 203e
000001e0: 789c 8a3c f478 063e 6be0 e2bd aa94 243e
000001f0: 3042 91bc d02c 013e 1ccd d73d 5412 47bd
0.18018532 0.13123265 0.024325863 0.18228963 0.16643068 -0.027665868 0.14116642 0.0021766573
-0.09533714 -0.14318956 -0.006571278 0.14227533 -0.072390065 -0.007799387 -0.08744414 -0.09317017
0.13950467 0.11806196 -0.059316218 -0.18001688 0.03097941 -0.15819463 0.06418708 -0.029930219
-0.058131352 -0.1809667 0.11760166 0.13939804 0.18704152 0.088011116 -0.11213094 -0.014958188
-0.085655466 -0.16440825 0.02958785 0.08899066 -0.14495152 -0.07776095 -0.13770798 0.0073537976
0.09942347 -0.1084074 0.08503321 0.0012311637 -0.18597977 0.06616211 -0.15054514 -0.18841276
-0.0027830303 -0.073842436 -0.009626791 0.08776876 -0.03980872 -0.032785237 0.06554112 0.11411232
-0.2091999 0.013081685 0.0044448823 0.16786557 0.030059054 -0.20908129 -0.09978359 0.14548796
0.16045502 0.17827645 -0.12161745 0.17206106 -0.17909707 0.14560267 -0.014401466 -0.16517907
0.061446875 -0.05874504 -0.15890831 -0.15515628 -0.20128235 0.0029083192 -0.11846755 -0.1326648
-0.10059706 -0.018420175 0.20157424 0.17141724 -0.17604643 0.14901313 0.11242622 0.099335045
-0.15441467 -0.0813825 -0.095379606 0.06623444 0.16801238 0.051124126 -0.20807171 0.14869702
-0.105581254 -0.1576975 -0.055713266 -0.096994154 -0.1614842 -0.055479303 0.20132518 0.14869994
-0.049571738 0.21434179 0.15713638 0.16700834 0.11019996 -0.15165395 -0.0010312498 -0.19863036
0.21055162 -0.06567447 0.12367737 -0.023440227 0.03125553 -0.0027261972 0.04715851 0.15701589
0.016920313 0.13132077 -0.110779606 0.16072336 -0.017731756 0.12614751 0.105371684 -0.048601463
