results/ppo/ControlCar/ControlCar-14144.onnx (onnx, 82713 bytes, 10 tensors)

discrete_act_size_vector f4 [1, 3]
3.0 3.0 1.0
00000000: 0000 4040 0000 4040 0000 803f

network_body._body_endoder.seq_layers.0.weight f4 [128, 6]
0.020228991 -0.61441725 -0.30331412 0.04733342 -0.55674714 -0.26129293 0.39059436 -0.6201524
0.67627573 0.07302216 0.35803905 -0.0029497726 0.8023047 -0.6962313 0.117610596 -0.10929634
0.1678851 0.070301436 -0.29110277 0.029902998 0.17773882 0.3571878 -0.5230009 -0.2781222
0.22467475 -0.24495667 -0.1360132 -0.11970537 -0.2740039 -0.25116175 0.111381724 -0.25376207
0.551879 0.6357741 0.19900927 -0.05101742 -0.14742877 -0.59765846 0.38147178 0.31106657
-0.21081498 0.14170434 0.2697736 0.2867395 0.24537244 -0.17115618 -0.06467306 0.67057866
-0.21199094 0.07179742 0.07174094 0.15230186 -0.6596756 0.40940598 0.06992955 0.686567
0.07723238 -0.41327032 0.2943747 0.37813324 -0.11377727 -0.044759095 0.08414762 -0.07076003
-0.8029487 0.24127369 0.01637241 -0.69583255 0.87563366 -0.2798693 0.30846635 -0.338115
0.52574956 0.1358804 -0.000559695 -0.470013 0.073725246 0.31574103 -0.0616683 0.17839257
0.123509355 0.3979938 0.5339799 0.101994656 -0.07527232 -0.28452718 -0.3683926 -0.5037857
-0.37468228 0.80919564 0.31395632 0.1647139 -0.3136454 -0.08042001 0.65719414 0.11224148
-0.3435255 0.7439635 -0.040733404 -0.073596306 0.13353807 -0.21208517 -0.40676183 -0.2976701
0.4594478 -0.1616947 0.38458794 0.67572856 0.13147613 0.6526215 0.416133 0.43674576
-0.3345287 -0.9563458 0.14796408 -0.4352087 -0.13713348 -0.90493244 0.26565483 0.31074673
0.34732395 -0.15059997 -0.019668331 -0.25854734 -0.06114251 0.5385897 -0.4614061 0.22549728
0.15720877 0.12283847 -0.20345731 0.23537292 -0.525539 0.19129166 0.22008574 0.38976187
-0.57915616 -0.29754493 0.32679275 0.37576342 0.5867046 -0.18692721 -0.014639168 -0.29565483
0.5787048 -0.40626195 0.30869892 -0.52694464 0.22813335 0.04504106 -0.24115965 0.13263892
-0.3842124 0.21498944 0.46054053 0.27427417 0.4286292 0.04674175 0.4790894 0.24537948
-0.037541933 0.22065534 0.2578519 -0.9948078 0.22042863 -0.64979273 -0.3414941 0.42448547
0.03368444 -0.025103796 -0.41392416 0.2687974 0.12633505 0.19560894 -0.5023128 -0.13517247
0.6607576 -0.26063034 -0.07810895 0.69584656 0.12377095 0.028713644 0.24028602 0.3019266
0.29265136 0.30613357 -0.27762267 0.50801533 0.21312918 0.07283746 0.27414826 0.24598926
0.34223548 0.00013125571 -0.07755524 0.14481 -0.7980851 0.21249625 -0.76466817 -0.19828185
-0.22878855 -0.2118771 -0.45584399 -0.08151551 -0.058601353 0.6220087 0.17465211 0.2642777
0.050032504 -0.5835904 -0.49674946 0.06667223 -0.2548535 0.26698765 -0.4180804 -0.5111133
0.02626836 0.5790411 0.17092817 0.8174654 -0.6776448 0.5618021 0.231126 -0.41948566
-0.884407 0.2843987 0.28300345 0.32630414 0.15271382 0.09387271 0.08774478 0.51184183
-0.95530087 0.448072 -0.16416736 0.22378251 0.3579557 0.29035324 1.0755075 -0.08578167
0.39296526 0.5707728 0.40378085 0.043278843 -0.37827957 -0.49427918 -0.5481252 0.1090345
-0.23219152 -0.39591444 0.051838852 0.42632452 0.21623236 -0.43827298 0.51031727 0.08165986
00000000: 45b7 a53c 734a 1dbf fd4b 9bbe b0e0 413d
00000010: fb86 0ebf 30c8 85be fcfb c73e 4fc2 1ebf
00000020: 6820 2d3f a48c 953d e550 b73e f950 41bb
00000030: d763 4d3f 373c 32bf d3dd f03d c2d6 dfbd
00000040: 12ea 2b3e 33fa 8f3d 6c0b 95be 22f7 f43c
00000050: 2a01 363e 52e1 b63e 63e3 05bf 0866 8ebe
00000060: 2311 663e ecd5 7abe 0b47 0bbe 1728 f5bd
00000070: 3d4a 8cbe 4698 80be 1a1c e43d 1aed 81be
00000080: f147 0d3f 17c2 223f 16c9 4b3e a4f7 50bd
00000090: 91f7 16be 2500 19bf 4550 c33e 1e44 9f3e
000000a0: e2df 57be f11a 113e c41f 8a3e 85cf 923e
000000b0: ea42 7b3e 9143 2fbe 4f73 84bd 0bab 2b3f
000000c0: 2714 59be 870a 933d eaec 923d 05f5 1b3e
000000d0: 80e0 28bf a99d d13e 3937 8f3d dbc2 2f3f
000000e0: 032c 9e3d 2b98 d3be 48b8 963e ae9a c13e
000000f0: 0f04 e9bd 5055 37bd 9655 ac3d a2ea 90bd
00000100: 0c8e 4dbf 7310 773e 6f1f 863c 1522 32bf
00000110: 8729 603f 074b 8fbe 4def 9d3e 691d adbe
00000120: 8697 063f 3b24 0b3e 7fb8 12ba 8ba5 f0be
00000130: 43fd 963d cfa8 a13e e697 7cbd 8bac 363e
00000140: 79f2 fc3d d8c5 cb3e e8b2 083f 93e2 d03d
00000150: 6028 9abd 8cad 91be f49d bcbe 1af8 00bf
00000160: 5bd6 bfbe 7227 4f3f e2be a03e c3aa 283e
00000170: 2196 a0be 3fb3 a4bd e03d 283f dcde e53d
00000180: 93e2 afbe 6474 3e3f 12d8 26bd a9b9 96bd
00000190: 34be 083e db2c 59be 1643 d0be 3768 98be
000001a0: be3c eb3e 4c93 25be b6e8 c43e 8cfc 2c3f
000001b0: aea1 063e 3412 273f 620f d53e 249d df3e
000001c0: 5947 abbe 14d3 74bf e583 173e add3 debe
000001d0: b86c 0cbe a7a9 67bf e903 883e 321a 9f3e
000001e0: 72d4 b13e e136 1abe 7b1f a1bc 5160 84be
000001f0: 9270 7abd 04e1 093f 6c3d ecbe c2e8 663e
00000200: 56fb 203e bc92 fb3d 1d57 50be 9905 713e
00000210: b989 06bf f6e1 433e 285e 613e de8e c73e
00000220: 9443 14bf cf57 98be 6151 a73e 1064 c03e
00000230: 4632 163f d969 3fbe 1fd9 6fbc 1260 97be
00000240: ff25 143f 9101 d0be c90d 9e3e d8e5 06bf
00000250: ca9b 693e f97c 383d 8ef2 76be 7fd2 073e
00000260: 7db7 c4be 3126 5c3e f8cb eb3e aa6d 8c3e
00000270: 4975 db3e 4774 3f3d 354b f53e c244 7b3e
00000280: 92c5 19bd 79f3 613e 2a05 843e b9ab 7ebf
00000290: 0bb8 613e d158 26bf 51d8 aebe 2956 d93e
000002a0: b2f8 093d 7aa6 cdbc deed d3be d09f 893e
000002b0: fa5d 013e b64d 483e 9297 00bf a76a 0abe
000002c0: 6927 293f 5771 85be 96f7 9fbd 0023 323f
000002d0: a07b fd3d e038 eb3c 8a0d 763e 2096 9a3e
000002e0: 66d6 953e 8abd 9c3e 8f24 8ebe 4b0d 023f
000002f0: 893e 5a3e ce2b 953d 295d 8c3e 9ce4 7b3e
00000300: 7d39 af3e b0a1 0939 48d5 9ebd 1349 143e
00000310: 4e4f 4cbf 9e98 593e 4bc1 43bf 660a 4bbe
00000320: 8c47 6abe 4ff6 58be 6264 e9be 9bf1 a6bd
00000330: f907 70bd f63b 1f3f 01d8 323e 684f 873e
00000340: e2ee 4c3d 2e66 15bf f255 febe 738b 883d
00000350: 287c 82be 9bb2 883e a20e d6be 52d8 02bf
00000360: be30 d73c 0a3c 143f cb07 2f3e 6a45 513f
00000370: 217a 2dbf 43d2 0f3f 4bac 6c3e d3c6 d6be
00000380: 7f68 62bf b59c 913e d4e5 903e 5611 a73e
00000390: 0361 1c3e 5640 c03d 89b3 b33d 1108 033f
000003a0: 998e 74bf b169 e53e 7d1b 28be 3e27 653e
000003b0: f845 b73e 2ea9 943e 3baa 893f 4dae afbd
000003c0: be32 c93e 2b1e 123f 5dbc ce3e 2845 313d
000003d0: dcad c1be 2912 fdbe ef51 0cbf 7b4d df3d
000003e0: 9dc3 6dbe 4cb5 cabe fa54 543d 3547 da3e
000003f0: 046c 5d3e 5165 e0be 27a4 023f 493d a73d

network_body._body_endoder.seq_layers.0.bias f4 [128]
5.497513e-11 0.0006096623 0.00015657021 2.9499452e-07 -4.0378978e-11 -0.00016592447 0.0002198175 -0.00040012537
-0.001578098 -0.0005711812 -0.0017826477 -0.00021134451 -0.0001801766 0.00027230327 -0.00031252427 0.0004114072
-0.0010782372 -0.00033498203 2.4210224e-24 0.0022346505 -0.0005160518 -0.00043630294 -1.1077077e-05 0.0014695593
-0.00027631453 -0.00034962603 -0.0022601916 -0.00038172194 -0.0019088602 -0.00052900234 -0.00014249819 -0.00023128392
-0.00031266114 0.00041393162 1.9790017e-16 1.109866e-15 -0.00042262842 -0.002811744 -0.0012499426 -0.00045368113
1.9629148e-07 -0.0002339419 -0.0014791861 -8.651618e-05 0.0015244986 0.00016170635 -9.1418755e-23 0.0022103605
-0.0009128711 6.157069e-05 -0.00047169413 -8.881774e-25 -4.244976e-12 -5.3149174e-09 -1.4976652e-14 -5.1488936e-08
0.0005501093 3.0780542e-05 -0.0015646282 2.0127946e-07 -0.00026363158 -3.52007e-11 0.00027686378 1.8155806e-05
-2.4137069e-05 0.0003822086 -4.7671187e-05 -2.2956426e-09 -0.00080520613 -0.00023357375 0.0012719958 4.894228e-18
-0.00012404424 -7.1798595e-13 -0.00020578032 0.0023675603 -0.0006880102 -0.0009823136 -0.0012260634 0.0025968251
1.4232742e-07 -0.0032313704 2.0538287e-06 -5.5153886e-30 -0.00020017903 -0.0031964625 0.00059347984 0.0006158123
2.8657683e-14 0.0009851704 0.0013332888 0.0018619578 -0.00044718254 0.002447353 0.0019522706 -3.7114423e-05
-2.9853489e-09 0.000103396036 -5.0962612e-06 -0.0007439986 -0.0014999759 -0.0006286938 0.000438914 -0.0001635487
-0.00011887987 0.0021314062 -3.001939e-05 1.2037817e-05 0.002982008 0.0010810675 -1.5463156e-06 -0.0005970287
-2.5487765e-09 -0.0005987034 -0.0014913161 0.00017006052 -0.00077796844 -0.0015061637 1.9190008e-12 -0.0024297878
-0.00094053 -0.00013002599 0.0028129627 3.2143782e-14 -0.001864494 -0.0028284215 5.0664195e-05 0.0012262525
00000000: 7ec8 712e bfd1 1f3a ff2c 2439 bd5f 9e34
00000010: b096 31ae 03fc 2db9 d07e 6639 ebc7 d1b9
00000020: 2fd8 ceba 52bb 15ba bba7 e9ba 5c9c 5db9
00000030: caed 3cb9 edc3 8e39 4cda a3b9 24b2 d739
00000040: a353 8dba 87a0 afb9 4a51 3b18 3773 123b
00000050: a647 07ba 97bf e4b9 afd7 39b7 3a9e c03a
00000060: 4fde 90b9 034e b7b9 b91f 14bb da21 c8b9
00000070: b832 faba bfac 0aba 916b 15b9 ce84 72b9
00000080: abec a3b9 f604 d939 d229 6425 d4f2 9f26
00000090: 3a94 ddb9 3d45 38bb 1dd5 a3ba 0ddc edb9
000000a0: 31c4 5234 4d4e 75b9 40e1 c1ba 0570 b5b8
000000b0: afd1 c73a b88f 2939 7809 dd9a b2db 103b
000000c0: be4d 6fba 831f 8138 b74d f7b9 5570 8997
000000d0: 585b 95ac 829e b6b1 cfe5 86a8 af24 5db3
000000e0: 3635 103a 5b1a 0138 3614 cdba 471f 5834
000000f0: 0838 8ab9 77d0 1aae 0728 9139 4c4d 9837
00000100: f679 cab7 2b63 c839 8cf2 47b8 5fc1 1db1
00000110: 7814 53ba 7aeb 74b9 19b9 a63a ad90 b422
00000120: df11 02b9 5718 4aab bcc6 57b9 1229 1b3b
00000130: 955b 34ba fac0 80ba dcb3 a0ba 7f2f 2a3b
00000140: aad2 1834 66c5 53bb 82d4 0936 12bb df8e
00000150: 26e7 51b9 be7b 51bb c293 1b3a 776e 213a
00000160: 0f10 0129 d520 813a c0c1 ae3a f00c f43a
00000170: d373 eab9 c563 203b 55e3 ff3a 4fab 1bb8
00000180: d026 4db1 53d6 d838 8d00 abb6 e708 43ba
00000190: d79a c4ba edce 24ba 0a1e e639 457e 2bb9
000001a0: 254f f9b8 10af 0b3b 26d2 fbb7 08f6 4937
000001b0: cb6d 433b 9bb2 8d3a 008b cfb5 eb81 1cba
000001c0: 8d26 2fb1 4ef2 1cba 4478 c3ba 4652 3239
000001d0: 94f0 4bba 786a c5ba a509 072c 133d 1fbb
000001e0: e68d 76ba 9657 08b9 af59 383b 42c3 1029
000001f0: 0a62 f4ba 0a5d 39bb 4480 5438 35ba a03a

network_body._body_endoder.seq_layers.2.weight f4 [128, 128]
-0.034823515 -0.07527704 0.112938374 -0.09152353 -0.11069994 0.14166279 -0.076595664 -0.029301172
-0.07708462 0.14790304 0.110787064 0.06534782 0.0826074 0.03175986 0.045858886 -0.16197786
-0.06099432 -0.07472297 0.12313879 -0.087697566 -0.037629206 0.12531996 -0.06541799 -0.089945145
-0.088355824 0.09115829 0.13460295 -0.077467926 0.1145042 0.016754 0.013974702 -0.0677014
-0.06069354 0.07870776 -0.119637206 0.13437444 0.0412125 -0.06308786 0.19774683 0.07417837
-0.07560862 0.07462749 0.0817151 -0.028243152 -0.1172936 0.0086007975 -0.039783135 0.051806863
0.14769197 -0.020056803 -0.15101649 -0.0571214 -0.101330094 0.009108562 -0.057115782 0.06273058
-0.08717042 0.055149406 -0.023798456 -0.05091233 0.14941593 -0.07427185 0.21896487 -0.196534
0.0031515392 0.048209187 0.10183856 -0.11551609 -0.10105266 0.066515505 -0.034802556 -0.0480633
-0.061549515 0.12896912 -0.10839879 -0.12936236 -0.07657589 0.025841055 -0.04486901 -0.03979925
0.03975584 -0.031207496 -0.085323006 -0.038930364 0.02553054 0.1770913 0.043225497 0.18879196
0.07106503 0.07995979 0.027905801 -0.0074262735 0.12915884 -0.07708809 0.012231386 -0.049484223
-0.0018571174 -0.089289874 0.09842313 -0.018068839 0.21067333 0.1017386 0.113504514 0.091754876
-0.0944141 0.010372594 0.037731584 -0.05911808 0.18951404 0.05347302 0.07553821 -0.041772522
-0.123884425 0.13052645 -0.029844843 -0.06479059 0.12300902 -0.07222485 -0.020164173 -0.030421352
-0.1486966 0.09842548 0.034877114 0.057546858 -0.108424194 0.14221601 0.025062198 -0.08281764
0.016869443 -0.01747735 0.08957304 0.1695675 -0.05813868 0.11306812 0.100093484 -0.09887451
-0.020657346 -0.017986877 0.030841963 0.01587309 0.007389527 -0.23572885 0.0063626664 -0.10623105
-0.0015515983 0.111406125 -0.057979055 0.050399426 -0.13159268 0.12040895 0.026431154 -0.1997627
-0.13359702 0.029072246 0.16443332 0.022571562 -0.11084705 0.049110908 -0.15931492 0.04264603
-0.120069966 0.08277117 0.030681493 0.11592635 0.05449347 0.051698834 -0.021610659 -0.17211214
0.12113472 0.036714107 0.048431806 -0.176546 0.06939573 -0.0054627396 0.08175517 -0.09833552
0.010128243 -0.121347085 -0.11158594 -0.046444282 0.010231948 -0.03153457 -0.039072484 0.054694135
0.119079776 -0.18538117 -0.003007304 0.1737821 -0.01643648 0.07484541 -0.039589554 0.0009537228
-0.058538847 0.048670646 -0.035543703 0.017334519 0.033737935 -0.036939368 -0.09033549 0.037041347
0.024791291 -0.1263935 0.080643624 -0.00025537724 -0.0006497218 0.025200803 0.010909941 -0.10218652
-0.028554117 0.02194308 0.035457723 0.057041977 -0.087665744 -0.093824774 0.0055635213 -0.08738781
0.054559022 0.04961022 0.027082952 -0.06274469 -0.05615226 -0.065357216 0.0802276 0.0586925
-0.052920274 0.107478335 0.03464514 -0.094541036 -0.18680878 0.16053502 -0.08422807 0.02290592
-0.17485102 -0.058318444 -0.033986863 -0.014376499 -0.038936682 -0.014997424 0.11521371 0.04808499
-0.023445312 0.12093936 -0.021513581 0.16540119 -0.16713686 -0.16188848 -0.075677976 -0.11102497
0.05633172 0.14011809 -0.028985374 0.0054622856 0.059034906 0.09197254 0.016883919 0.056676317
00000000: 1aa3 0ebd d92a 9abd 3c4c e73d b070 bbbd
00000010: a6b6 e2bd 0d10 113e 30de 9cbd 0309 f0bc
00000020: 8bde 9dbd e573 173e 54e4 e23d 14d5 853d
00000030: 122e a93d a116 023d 87d6 3b3d 86dd 25be
00000040: 2ed5 79bd 5b08 99bd 3130 fc3d c89a b3bd
00000050: 1521 1abd e053 003e def9 85bd 2935 b8bd
00000060: e6f3 b4bd 33b1 ba3d 5bd5 093e 81a7 9ebd
00000070: 2e81 ea3d af3f 893c 26f6 643c 08a7 8abd
00000080: ca99 78bd 8931 a13d 5a04 f5bd 7499 093e
00000090: 70ce 283d 3534 81bd 257e 4a3e d4ea 973d
000000a0: b1d8 9abd 4cd6 983d 3f5a a73d 2f5e e7bc
000000b0: a137 f0bd 5cea 0c3c a4f3 22bd 6f33 543d
000000c0: 903c 173e 2a4e a4bc 11a4 1abe 21f8 69bd
000000d0: 2786 cfbd 143c 153c 3df2 69bd e478 803d
000000e0: 6886 b2bd 58e4 613d fbf4 c2bc 7389 50bd
000000f0: 7d00 193e d71b 98bd 5438 603e 3540 49be
00000100: 0e8a 4e3b ff76 453d bc90 d03d b393 ecbd
00000110: b2f4 cebd 4839 883d 208d 0ebd 06de 44bd
00000120: 581b 7cbd 7b10 043e 2f00 debd 9177 04be
00000130: d2d3 9cbd 9fb0 d33c 91c8 37bd 8a04 23bd
00000140: 05d7 223d dda6 ffbc d4bd aebd 7275 1fbd
00000150: 6c25 d13c 6c57 353e 380d 313d ae52 413e
00000160: 8b8a 913d f5c1 a33d b59a e43c 1958 f3bb
00000170: 3742 043e 5ce0 9dbd 2766 483c f8af 4abd
00000180: 856a f3ba 9cdd b6bd 1192 c93d 1a05 94bc
00000190: c0ba 573e 545c d03d 0e75 e83d fbe9 bb3d
000001a0: 2e5c c1bd d0f1 293c 6f8c 1a3d cd25 72bd
000001b0: f80f 423e 8706 5b3d c7b3 9a3d aa19 2bbd
000001c0: 1eb7 fdbd baa8 053e 2c7d f4bc eeb0 84bd
000001d0: 27ec fb3d 9fea 93bd 562f a5bc 3336 f9bc
000001e0: ec43 18be 4c93 c93d 4edb 0e3d 41b6 6b3d
000001f0: 810d debd 13a1 113e 3d4f cd3c 4b9c a9bd
00000200: c931 8a3c a92c 8fbc 1272 b73d 1aa3 2d3e
00000210: d322 6ebd 4290 e73d d0fd cc3d b87e cabd
00000220: 9839 a9bc 3759 93bc 49a8 fc3c 4808 823c
00000230: d823 f23b e762 71be ea7d d03b aa8f d9bd
00000240: 005f cbba e528 e43d 727b 6dbd a16f 4e3d
00000250: 3bc0 06be f898 f63d 2686 d83c 988e 4cbe
00000260: a8cd 08be eb28 ee3c 3561 283e ffe7 b83c
00000270: c703 e3bd 8528 493d 7323 23be 9bad 2e3d
00000280: 3ee7 f5bd ee83 a93d c157 fb3c cb6a ed3d
00000290: 8b34 5f3d 28c2 533d d608 b1bc 2a3e 30be
000002a0: 7b15 f83d 8861 163d 6e60 463d 7ac8 34be
000002b0: 591f 8e3d c800 b3bb 416f a73d 2264 c9bd
000002c0: eef0 253c d284 f8bd 2b87 e4bd 5c3c 3ebd
000002d0: e7a3 273c 652a 01bd 780a 20bd f506 603d
000002e0: 19e0 f33d 90d4 3dbe 3016 45bb eff3 313e
000002f0: cca5 86bc 8d48 993d a828 22bd 4103 7a3a
00000300: 6ec6 6fbd df5a 473d 4696 11bd 1f01 8e3c
00000310: ca30 0a3d bc4d 17bd d001 b9bd abb8 173d
00000320: 1b17 cb3c 4c6d 01be 7c28 a53d 27e4 85b9
00000330: 1852 2aba ea71 ce3c 9cbf 323c 2b47 d1bd
00000340: 53ea e9bc f9c1 b33c 1e3c 113d d9a4 693d
00000350: 198a b3bd 3427 c0bd 334e b63b 61f8 b2bd
00000360: 4879 5f3d 1634 4b3d 11dd dd3c 4a80 80bd
00000370: eaff 65bd 01da 85bd 5e4e a43d 8c67 703d
00000380: eec2 58bd 9a1d dc3d 10e8 0d3d bb9e c1bd
00000390: cd4a 3fbe 4b63 243e c47f acbd 32a5 bb3c
000003a0: 250c 33be 52df 6ebd cf35 0bbd 688b 6bbc
000003b0: 127c 1fbd c1b7 75bc 2af5 eb3d c4f4 443d
000003c0: 6210 c0bc 0eaf f73d 403d b0bc ee5e 293e
000003d0: ed25 2bbe 18c6 25be 0efd 9abd 0f61 e3bd
000003e0: 17bc 663d 1e7b 0f3e bc72 edbc f9fc b23b
000003f0: 96ce 713d 195c bc3d 2550 8a3c 6d25 683d

network_body._body_endoder.seq_layers.2.bias f4 [128]
3.2249038e-05 -0.00044749194 -0.00012585045 -0.00014505364 -0.00025066562 -0.0013915563 -0.0011803309 -3.74716e-10
-0.00029341452 5.887465e-10 -0.00065504725 -0.0018723065 -0.0013919224 -0.00043028258 -0.0005438109 -0.0019373852
-0.00023153922 -0.0009920408 -0.0006455258 -0.00014493926 -0.0011355864 0.00035131563 -0.000632886 0.00036568526
-0.0014717327 -0.0010160247 0.00013818796 -0.00020722122 -5.956154e-08 -0.00018211952 -0.0019994455 -0.0006324778
1.1478825e-05 0.0005031583 -0.00040623322 -0.00030945957 0.00047512812 -0.0009510249 -0.0013840982 -0.0019513699
-0.0005949644 1.25611605e-05 0.001194276 -0.0017442356 -1.665402e-05 -0.00050782465 -0.001915532 9.637433e-10
-3.198358e-24 -0.00037434307 -0.001298477 -1.6796375e-11 -0.00075770856 0.00060195616 3.271812e-05 -0.0039581847
-0.001527472 -0.0013122133 8.463898e-08 -0.0016533562 -1.4496095e-06 5.0320883e-18 3.556639e-06 -6.301824e-14
0.00018303946 -0.00041929382 -0.0005651838 6.3028856e-06 -9.187737e-08 -9.92753e-05 -0.00023180373 3.952e-05
-0.000119612596 0.00018850021 -0.004085994 -6.881709e-05 -0.00092363905 -0.00030538582 0.00089651044 -0.0010237566
0.0007147344 -0.001004693 0.00090520363 -8.118714e-05 -0.00041143323 0.0010138376 0.000120341894 0.00025391672
-1.7897936e-06 -0.0020580003 -0.001248416 0.0002471942 -0.00035735677 8.846601e-07 0.0007452695 0.0004223265
-0.00042932626 1.1222293e-09 -0.0026420793 0.00041705466 0.0010760642 0.00048289303 -2.046062e-09 0.0020337529
-0.0009964649 -0.0004678011 -5.6136414e-06 0.00041151242 4.7675312e-05 -0.0014023891 0.0001247213 0.00076648116
0.00033277622 0.0002472857 4.7370955e-18 -0.00063788466 0.00038852188 -0.00057554943 -2.0033206e-21 -0.0008264009
-0.0010728107 -9.445176e-12 -0.00084819493 -0.0005000301 -0.0011234557 -3.9266542e-05 -0.0012707997 -0.00070075534
00000000: 2443 0738 5a9d eab9 b9f6 03b9 8a19 18b9
00000010: c56b 83b9 e264 b6ba 55b5 9aba 9700 ceaf
00000020: 6ed5 99b9 5ad5 2130 7ab7 2bba 2e68 f5ba
00000030: 2a71 b6ba 8d97 e1b9 888e 0eba dcef fdba
00000040: 56c9 72b9 5e07 82ba 8138 29ba d6fa 17b9
00000050: f5d7 94ba c930 b839 43e8 25ba 72b9 bf39
00000060: 28e7 c0ba 222c 85ba 8ce6 1039 8649 59b9
00000070: 9bd0 7fb3 56f7 3eb9 2109 03bb decc 25ba
00000080: 2e95 4037 62e6 033a b3fb d4b9 f63e a2b9
00000090: 9e1a f939 334e 79ba a16a b5ba 1cc5 ffba
000000a0: 63f7 1bba c6bd 5237 4189 9c3a d69e e4ba
000000b0: 3cb4 8bb7 891f 05ba 9712 fbba b474 8430
000000c0: 0276 7798 7a43 c4b9 a831 aaba 13be 93ad
000000d0: f6a0 46ba 98cc 1d3a d03a 0938 a9b3 81bb
000000e0: 7535 c8ba 92fe abba c5c2 b533 6eb5 d8ba
000000f0: 3490 c2b5 bba6 b922 98ae 6e36 8be7 8da9
00000100: 48ee 3f39 aad4 dbb9 d828 14ba 607d d336
00000110: 1e4e c5b3 0532 d0b8 5710 73b9 47c2 2538
00000120: 86d8 fab8 24a8 4539 cde3 85bb e551 90b8
00000130: 5e20 72ba 311c a0b9 cc03 6b3a 922f 86ba
00000140: 035d 3b3a e7af 83ba 304b 6d3a 0443 aab8
00000150: a2b5 d7b9 bfe2 843a 1060 fc38 2020 8539
00000160: d738 f0b5 84df 06bb e4a1 a3ba d899 8139
00000170: 9d5b bbb9 6179 6d35 315e 433a b46b dd39
00000180: 3217 e1b9 ef3c 9a30 bc26 2dbb 21a8 da39
00000190: b90a 8d3a ce2c fd39 b49a 0cb1 b648 053b
000001a0: d09b 82ba 3343 f5b9 d05c bcb6 43c0 d739
000001b0: faf6 4738 5fd0 b7ba 9ec7 0239 aeed 483a
000001c0: 7878 ae39 20a6 8139 9ac4 ae22 b737 27ba
000001d0: 86b2 cb39 78e0 16ba db5d 179d d3a2 58ba
000001e0: 8e9d 8cba 4b29 26ad 6659 5eba 7414 03ba
000001f0: eb40 93ba 21b2 24b8 f690 a6ba e5b2 37ba

action_model._discrete_distribution.branches.0.weight f4 [3, 128]
0.007717739 0.00297963 0.009879535 0.019647667 -0.007551306 -0.0013005855 0.006298925 -0.0035021338
-0.009338274 0.007191591 -0.008827701 0.0008950609 -0.017937558 -0.0089956075 -0.017618958 0.0027676648
0.0046193087 0.005509774 -0.014881785 -0.018355379 -0.002005399 0.0028238883 0.0015254628 0.01741179
-0.0048289425 -0.0029653881 -0.004208031 0.007389704 0.0077960035 0.008631566 -0.00023636446 -0.0027139308
-0.028851448 0.011071148 -0.023365036 -0.010701899 -0.0077800807 0.0014095883 -0.011656529 -0.010571733
-0.0019663733 0.023342272 -0.0008207097 -0.00074099755 0.0071922527 -0.0112328585 -0.0029521342 0.00096437376
-0.0051160585 0.0049549076 -0.00019424093 -0.0070974617 0.0040358845 0.015182855 -0.0038207727 -0.012182151
-0.007423613 0.0077986666 0.0053614373 -4.9816255e-05 0.006167802 -0.0067076436 -0.016330754 -0.012171074
-0.006869652 0.0009353085 -0.009964573 -0.0025079225 0.0008356553 -0.004008347 0.0029733717 0.0018369047
0.008403628 0.015994342 -0.0034251357 0.009108033 -0.015595245 0.002584971 0.003507485 0.00011518852
-0.00032284477 -0.0004038179 0.009444383 0.014118816 0.0131301535 0.002228962 0.008361662 -0.003969648
0.009673362 -0.004848832 0.00022176762 0.001102732 -0.007845592 0.00017741296 -0.0019174153 -0.0029067942
0.0034472633 0.00013863586 0.006692491 0.004068579 0.0059018526 0.020448472 -0.006882089 -1.0034972e-05
-0.004535847 0.008226444 -0.0018001238 0.018062955 0.028505249 -0.008184357 -0.00022414049 -0.0007477444
0.017460117 0.00955821 0.0022943914 -0.006958882 -0.0014341961 -2.1885526e-05 0.01840177 0.0014103804
0.004099172 0.000570348 0.0029699777 0.009016494 -0.012042161 0.005661304 0.008393399 -0.011105607
-0.008236018 -0.0064016837 -0.013564216 -0.0015160396 -0.0061694733 0.011838624 -0.004539661 -0.012662846
-0.0020822918 0.020835953 -0.0059245694 -0.0015677342 0.0013726826 -0.012150882 -0.003219103 -0.0032051986
-0.008073673 0.00563907 -0.004493251 0.0014634539 -0.0089812735 0.0036296244 0.015782276 -0.014369059
0.015340631 0.0062014065 0.0129816085 -0.0038781548 -0.0105239125 0.0016563841 -0.003985991 -0.003237169
0.009765958 -0.022215676 0.0043292358 -0.0140247205 -0.002792204 0.0039683 -0.016972458 -0.005373213
0.011357591 -0.013237659 -0.00391901 -0.016025033 0.0062353313 0.0021989064 0.0017465481 0.0025941136
0.001880854 -0.015252624 0.009958967 0.006679086 -0.010934276 0.015405965 -0.00018990887 -0.00017675369
0.004898309 0.0020480687 -0.008510438 0.0120928995 -0.002600371 0.0028002032 0.0021764613 0.010604377
-0.0037945106 -0.007718559 0.0026828567 0.0050123017 -0.0061439765 0.003151166 -0.001696329 0.00073219585
-0.0014973219 -0.026511246 -0.0029006305 -0.0048631923 -0.015143416 -0.0105123175 -0.00013494246 0.0021164727
0.002340691 -0.0019832284 -0.011957094 -0.01376603 -0.015777266 -0.0064765904 -0.0006493882 -0.0041730017
-0.022435073 -0.0010631037 0.007822084 0.005200332 -0.0006483444 -0.0027283086 -0.0024604832 -0.00860697
0.014415653 -0.014678169 -0.012336163 -0.016312715 -0.0032828276 0.0050869617 0.0025638908 0.0034924531
-6.955705e-05 -0.014320207 -0.0076011433 0.0049968637 0.012946101 0.0058159856 -0.009319072 0.0036014016
0.0029954226 -0.0057309764 -0.023864973 -0.011015308 -0.0021510073 -0.0064905467 -0.004585757 -0.0044589913
0.0018067012 0.004971416 -0.0017002326 -0.014393679 -0.0066171377 -0.0068568056 -0.002449626 0.014766697
00000000: 16e5 fc3b e545 433b c6dd 213c 25f4 a03c
00000010: f270 f7bb 6878 aaba 3667 ce3b 0e84 65bb
00000020: 8fff 18bc 70a7 eb3b 10a2 10bc 85a2 6a3a
00000030: c9f1 92bc 5062 13bc a255 90bc b661 353b
00000040: 925d 973b 568b b43b bbd2 73bc 055e 96bc
00000050: 036d 03bb fc10 393b 0af2 c73a 2ca3 8e3c
00000060: 1b3c 9ebb f556 42bb 86e3 89bb 5525 f23b
00000070: 9e75 ff3b 696b 0d3c 9ad8 77b9 34dc 31bb
00000080: df59 ecbc c363 353c 0868 bfbc 0557 2fbc
00000090: 0cf0 febb efc1 b83a 07fb 3ebc 1035 2dbc
000000a0: 45de 00bb 4b38 bf3c e524 57ba 813f 42ba
000000b0: fdac eb3b 060a 38bc 9878 41bb 07ce 7c3a
000000c0: 9ca4 a7bb c75c a23b 27ad 4bb9 d391 e8bb
000000d0: 743f 843b 82c1 783c ee65 7abb a597 47bc
000000e0: c841 f3bb f58b ff3b ffae af3b ccf1 50b8
000000f0: 461b ca3b cbcb dbbb 13c8 85bc 2f69 47bc
00000100: d11a e1bb 7e2f 753a 7342 23bc f55b 24bb
00000110: e10f 5b3a 7458 83bb e6dc 423b 4bc4 f03a
00000120: 5faf 093c 9106 833c 3e78 60bb dc39 153c
00000130: 3383 7fbc 9e68 293b d5dd 653b 5e91 f138
00000140: 7e43 a9b9 85b7 d3b9 9dbc 1a3c 9b52 673c
00000150: db1f 573c c713 123b 5aff 083c d213 82bb
00000160: 057d 1e3c f3e2 9ebb 4b8a 6839 8c89 903a
00000170: cc8a 00bc ee07 3a39 c851 fbba ea7f 3ebb
00000180: 7beb 613b c85e 1139 af4c db3b b751 853b
00000190: 5464 c13b 8e83 a73c 2683 e1bb e05b 28b7
000001a0: 71a1 94bb 35c8 063c 22f2 ebba c3f8 933c
000001b0: d783 e93c ae17 06bc 4107 6bb9 4704 44ba
000001c0: 8508 8f3c 0a9a 1c3c 805d 163b 5507 e4bb
000001d0: a3fb bbba cf96 b7b7 4fbf 963c 83dc b83a
000001e0: 5952 863b 6883 153a f5a3 423b ebb9 133c
000001f0: 7c4c 45bc 7682 b93b 7884 093c 4bf4 35bc
00000200: 5df0 06bc 37c5 d1bb 723c 5ebc d9b5 c6ba
00000210: 4b29 cabb caf6 413c 70c1 94bb d377 4fbc
00000220: 0f77 08bb 29b0 aa3c e422 c2bb 6e7c cdba
00000230: 96eb b33a 7e14 47bc 96f7 52bb 4f0e 52bb
00000240: 7047 04bc f3c7 b83b 1f3c 93bb 5dd1 bf3a
00000250: 3126 13bc fede 6d3b d549 813c 346c 6bbc
00000260: 4557 7b3c 2b35 cb3b d0b0 543c a428 7ebb
00000270: 7d6c 2cbc 071b d93a ea9c 82bb af26 54bb
00000280: 6601 203c a6fd b5bc 43dc 8d3b f1c7 65bc
00000290: 69fd 36bb 8308 823b d309 8bbc c711 b0bb
000002a0: 3015 3a3c c4e2 58bc 0a6b 80bb ee46 83bc
000002b0: c051 cc3b 871b 103b 6eec e43a 0102 2a3b
000002c0: fd86 f63a 24e6 79bc ef2a 233c 3cdc da3b
000002d0: ad25 33bc 4d69 7c3c 4622 47b9 f556 39b9
000002e0: fe81 a03b e438 063b 5d6f 0bbc 4c21 463c
000002f0: fc6a 2abb 9d83 373b f6a2 0e3b fbbd 2d3c
00000300: 53ad 78bb f7eb fcbb ded2 2f3b 3c3e a43b
00000310: 6953 c9bb cb83 4e3b 5b57 deba d5f0 3f3a
00000320: c941 c4ba 1d2e d9bc 8118 3ebb 6a5b 9fbb
00000330: 171c 78bc db3b 2cbc 577f 0db9 85b4 0a3b
00000340: 4766 193b 0df9 01bb b0e7 43bc ea8a 61bc
00000350: 533f 81bc 9439 d4bb b43b 2aba adbd 88bb
00000360: c2c9 b7bc d757 8bba 3328 003c 8c67 aa3b
00000370: a8f5 29ba 6ccd 32bb 0f40 21bb 4004 0dbc
00000380: a22f 6c3c b47c 70bc 9e1d 4abc 3ea2 85bc
00000390: b524 57bb 87b0 a63b f306 283b a4e1 643b
000003a0: 28df 91b8 4d9f 6abc 0313 f9bb bbbc a33b
000003b0: e21b 543c 0694 be3b 05af 18bc 7e05 6c3b
000003c0: da4e 443b eaca bbbb 7a80 c3bc 8d79 34bc
000003d0: eaf7 0cbb a7ae d4bb 1e44 96bb bb1c 92bb
000003e0: d5ce ec3a 43e7 a23b 57da deba 77d3 6bbc
000003f0: 93d4 d8bb 0eaf e0bb e889 20bb 04f0 713c

action_model._discrete_distribution.branches.0.bias f4 [3]
0.00030717868 -0.00019888881 -0.00036624473
00000000: d30c a139 cf8c 50b9 8904 c0b9

action_model._discrete_distribution.branches.1.weight f4 [3, 128]
-0.0008587687 -0.0019106017 -0.006679304 0.011954913 -0.0074420846 0.0054908283 0.010785926 0.0033063712
0.005039499 0.004274776 -0.01361249 0.0041825273 0.0003685432 -0.0016657457 -0.003233931 0.003748837
0.0006665943 -0.0048177303 -0.01448294 -0.005459504 -0.0014650724 -0.0015118077 0.003439437 0.016555866
-0.0044821193 -0.0005959711 0.013707559 -0.006307388 -0.0009811654 -0.0025866344 0.003906602 0.009714017
0.0036046063 0.0058766743 0.0018396464 0.007947748 0.004862398 -0.018972078 -0.008100031 5.391506e-05
-0.008949606 0.0014009286 0.0012509029 -0.0012813888 -0.008850253 -0.006126654 -0.0033923062 0.01787237
0.005494727 -0.00044573838 0.011431616 0.021265788 -0.0020485553 -0.00089702895 0.006188525 -0.0011631226
-0.0037143866 0.0060405093 -0.0057046907 -0.00043793579 -0.012439683 0.002860038 -0.019182429 0.0020809013
-0.0043162946 -0.00058822555 0.0064467066 0.003116509 0.0069024516 -0.0050765313 -0.013858348 0.0038085508
0.0124754 -0.024376899 -0.008509366 -0.005732624 -0.008366682 -0.014075492 -0.013399366 -0.00035709928
0.008198535 -0.009101116 -0.009364268 -0.012462057 -0.0061109574 0.011927746 0.0014807909 0.0093767755
-0.010031145 0.0006553327 0.008615111 0.004714462 -0.00444126 -0.0019187852 -0.0011278001 -0.005205553
0.014604468 -0.013430605 0.0026384997 0.0086475285 0.010764181 0.005516719 0.0047330055 0.0011879507
-0.0010010831 -0.00220231 -0.008681868 -0.0044406545 0.008491329 -0.018709712 0.0070428858 0.015304579
0.0029820276 0.009306533 -0.0011151538 -0.0029080482 0.00937567 -0.004656989 -0.0108206505 -0.0100442665
-0.003187485 0.014108881 -0.0066800076 -0.00085076294 0.0062771672 -0.009328144 -0.00027875358 -0.011680252
0.005205529 0.0025616589 -0.005200619 -0.024840048 0.01315503 0.014307723 -0.0016275687 0.01326397
0.002987717 -0.0029821491 0.006924425 0.004038459 0.0059162397 -0.0009196406 -0.0022194604 0.006945695
-0.0037819173 -0.022747273 -0.0010494877 0.004237574 0.00017190706 -0.010088266 -0.008388184 0.012664784
-0.007959771 -0.0072290218 0.02751005 -0.0053203884 0.023799883 -0.011859445 -0.012366083 0.0068656066
-0.011401487 -0.012123154 -0.0018578116 0.010237025 0.0074348873 0.007554965 0.0072598704 0.010715641
-0.002252761 -0.002486469 0.005198841 0.00239996 -0.013102257 0.005409055 -0.009315538 -0.0037687975
0.0026093402 -0.014563725 0.010806409 0.0065982533 -0.01067725 -0.0058265687 -0.00536999 -0.012206599
-0.00056254584 -0.0068150596 -0.010703628 0.0024879093 0.015601736 0.0016149866 -0.000258416 0.0034066718
0.0018819631 0.0039083525 0.0049182787 0.009882669 0.006219482 -0.0010742077 0.017293815 0.001851583
-0.007354064 0.0027388067 -0.0019121816 0.0010431352 0.008980223 -0.010005129 0.009110355 -0.015524792
0.0026817815 0.0036427889 0.012529681 0.013935714 -0.017863857 -0.0160542 -0.01982031 -0.0033231778
-0.0061981315 0.001751629 0.007203336 -0.012556597 -0.0083257025 0.011207651 0.012881948 -0.0022252235
-0.0066924714 -0.00011719969 -0.0024147697 -0.004335606 0.017070247 0.012664572 -0.008275402 0.004193835
-0.009137317 -0.0061090915 0.011188452 0.0065344735 -0.0013606354 0.004472297 0.0008506398 -0.0003466371
-0.0070942366 -0.0001615785 8.3367886e-05 -0.013794633 -0.011403886 -0.0028096074 0.014826727 -0.006504219
-0.00021745385 0.00815694 -0.00088041916 0.005405608 -0.01577375 -0.007814156 0.003932885 -0.008252334
00000000: fe1e 61ba 286d faba 10de dabb 8ade 433c
00000010: bbdc f3bb 68ec b33b 74b7 303c b4af 583b
00000020: 6222 a53b 6c13 8c3b ec06 5fbc 950d 893b
00000030: 0839 c139 2755 daba 5cf0 53bb 0caf 753b
00000040: 63be 2e3a 0dde 9dbb da49 6dbc a4e5 b2bb
00000050: ac07 c0ba d927 c6ba 2d68 613b 2ba0 873c
00000060: bede 92bb f23a 1cba ab95 603c 35ae cebb
00000070: 739a 80ba 8684 29bb f402 803b 8a27 1f3c
00000080: 423b 6c3b 1e91 c03b 4a20 f13a 4537 023c
00000090: c054 9f3b 556b 9bbc feb5 04bc db22 6238
000000a0: 5ea1 12bc 5d9f b73a 56f5 a33a 46f4 a7ba
000000b0: a700 11bc 19c2 c8bb 7451 5ebb 1469 923c
000000c0: 1c0d b43b feb1 e9b9 ac4b 3b3c 9735 ae3c
000000d0: 0e41 06bb 9826 6bba 1cc9 ca3b eb73 98ba
000000e0: 116d 73bb 77ef c53b 6aee babb bf9a e5b9
000000f0: d0cf 4bbc 7a6f 3b3b 7824 9dbc bb5f 083b
00000100: b46f 8dbb 2633 1aba e53e d33b 583e 4c3b
00000110: f62d e23b 0859 a6bb 200e 63bc e198 793b
00000120: 9f65 4c3c 10b2 c7bc de6a 0bbc bcd8 bbbb
00000130: 6814 09bc e49c 66bc 0489 5bbc 0e39 bbb9
00000140: 2653 063c d91c 15bc 966c 19bc a82d 4cbc
00000150: 6d3e c8bb 986c 433c 1917 c23a 0ca1 193c
00000160: ac59 24bc a2ca 2b3a 6526 0d3c c67b 9a3b
00000170: fd87 91bb bf7f fbba b1d2 93ba 5893 aabb
00000180: 9447 6f3c 0a0c 5cbc aeea 2c3b 5dae 0d3c
00000190: 3f5c 303c 98c5 b43b 5417 9b3b 03b5 9b3a
000001a0: c636 83ba a154 10bb 653e 0ebc e982 91bb
000001b0: 371f 0b3c 1c45 99bc 02c8 e63b 0fc0 7a3c
000001c0: 1f6e 433b 6e7a 183c 5a2a 92ba f494 3ebb
000001d0: 699c 193c a899 98bb 1949 31bc b590 24bc
000001e0: 20e5 50bb f028 673c f7e3 dabb bc05 5fba
000001f0: b2b0 cd3b 12d5 18bc ac25 92b9 875e 3fbc
00000200: 2493 aa3b 81e1 273b f469 aabb 5b7d cbbc
00000210: 3288 573c f16a 6a3c 2554 d5ba 1f51 593c
00000220: 93cd 433b 2970 43bb 49e6 e23b 0d55 843b
00000230: 04dd c13b 0914 71ba 5e74 11bb b698 e33b
00000240: 0bda 77bb 7d58 babc f78e 89ba 59db 8a3b
00000250: f341 3439 4149 25bc 986e 09bc f47f 4f3c
00000260: b369 02bc 6ee1 ecbb c25c e13c a756 aebb
00000270: f9f7 c23c 1e4e 42bc 1d9b 4abc e2f8 e03b
00000280: 4dcd 3abc 31a0 46bc d081 f3ba 32b9 273c
00000290: 5ba0 f33b a48f f73b 35e4 ed3b a890 2f3c
000002a0: 0fa3 13bb 07f4 22bb 0a5b aa3b a648 1d3b
000002b0: d9aa 56bc 713e b13b 33a0 18bc eefd 76bb
000002c0: 7701 2b3b b19c 6ebc 5d0d 313c 2936 d83b
000002d0: a2ef 2ebc cdec bebb bef6 afbb 30fe 47bc
000002e0: d077 13ba dd50 dfbb 455e 2fbc 310c 233b
000002f0: 6c9e 7f3c f5ad d33a 027c 87b9 7842 5f3b
00000300: 34ac f63a a311 803b 8329 a13b ebea 213c
00000310: cccc cb3b 6ecc 8cba c2ab 8d3c d1b0 f23a
00000320: 5cfa f0bb 8d7d 333b 2ba2 faba cfb9 883a
00000330: c921 133c 8dec 23bc 9943 153c b25b 7ebc
00000340: d4c0 2f3b dbbb 6e3b 4b49 4d3c 9f52 643c
00000350: 3957 92bc 1984 83bc 345e a2bc acc9 59bb
00000360: b219 cbbb eb96 e53a f609 ec3b 2fba 4dbc
00000370: 8768 08bc 4ca0 373c ce0e 533c 0ed5 11bb
00000380: 854c dbbb 1bc9 f5b8 1d41 1ebb b311 8ebb
00000390: e7d6 8b3c 117f 4f3c 8d95 07bc 706c 893b
000003a0: afb4 15bc c62e c8bb c54f 373c 231f d63b
000003b0: 5957 b2ba 598c 923b 78fd 5e3a d8bc b5b9
000003c0: c576 e8bb 666d 29b9 cbd5 ae38 e202 62bc
000003d0: 5dd7 3abc 6421 38bb cdeb 723c 5821 d5bb
000003e0: 5304 64b9 b0a4 053c eecb 66ba 8721 b13b
000003f0: f437 81bc f206 00bc 6edf 803b cc34 07bc

action_model._discrete_distribution.branches.1.bias f4 [3]
0.0005858497 0.00040588286 -0.00060372584
00000000: b593 193a adcc d439 5b43 1eba

action_model._discrete_distribution.branches.2.weight f4 [1, 128]
0.012046871 0.009314263 -0.011574255 -0.009982365 0.0043259724 -0.0057891263 -0.0007106946 -0.022691859
0.0032183302 -0.003687782 -0.0058184485 0.0019562144 0.011087876 0.0066739963 -0.0135985315 0.00026471293
0.0027983957 0.002922826 -0.010518637 0.0076548615 -0.0052103917 -0.0086280955 2.1716076e-05 -0.00968546
-0.009901698 -0.014384593 0.004739599 -0.0077544944 0.0060522337 0.0027577353 0.0052230204 0.009384373
-0.010665683 0.005332375 0.0071291127 0.00017522613 0.003082327 -0.0023522447 0.01037901 -0.0020831723
-0.011686936 -0.0041150213 0.00484033 0.0070231156 0.009383059 0.02244514 0.015902707 0.01568468
-0.0059327227 -0.019272564 -0.007901355 -0.0074984855 0.012868258 0.0129288165 -0.002327154 -0.009905703
0.008656419 0.012511812 0.0026362382 0.0035317854 0.012737284 0.005946425 -0.007557835 -0.004148933
0.015665878 -0.0074817175 0.018179253 -0.003971966 -0.0064066 0.006774234 0.008062779 -0.0013744513
-0.008516739 0.0013754473 0.0048967334 -0.010130331 0.0078186365 0.0030422062 0.0030295048 -0.0015944511
-0.012695943 -0.0045938524 0.0018906429 0.0036664025 0.0059661977 0.0026256212 -0.0031486389 -0.007900406
0.008740331 -0.011233932 -0.020471746 0.0017407645 -0.0013778816 0.008171158 0.0073941164 -0.0060947766
0.0070719565 0.010568368 -0.0049867877 0.00014833504 -0.02111397 -0.0077511272 -0.0047897003 -0.0067725168
0.0034660131 0.0039507234 0.005216182 0.01674717 0.012560013 0.006416712 -0.0008602378 -0.005214761
-0.0058039515 0.006265353 -0.002364519 -0.0059790527 0.0098932525 -0.01306714 0.012133623 0.0030937688
0.0077770175 -0.005174447 -0.015447977 -0.010066065 0.003672214 0.006512906 0.0031409257 -0.012476351
00000000: 3d60 453c da9a 183c f2a1 3dbc 138d 23bc
00000010: e3c0 8d3b b6b2 bdbb e84d 3aba 47e4 b9bc
00000020: 9fea 523b b7ae 71bb afa8 bebb d533 003b
00000030: eca9 353c 8ab1 da3b 60cc 5ebc 2bc9 8a39
00000040: 4a65 373b e28c 3f3b 5c56 2cbc a2d5 fa3b
00000050: efbb aabb db5c 0dbc eb2a b637 c3af 1ebc
00000060: bb3a 22bc 5bad 6bbc a34e 9b3b 6a19 febb
00000070: d151 c63b 1fbb 343b df25 ab3b eac0 193c
00000080: 1ebf 2ebc 34bb ae3b 559b e93b e8bc 3739
00000090: de00 4a3b 1e28 1abb b90c 2a3c d585 08bb
000000a0: 907a 3fbc 4dd7 86bb a29b 9e3b 2a22 e63b
000000b0: 67bb 193c dfde b73c 6546 823c 287d 803c
000000c0: 4967 c2bb 7fe1 9dbc af74 01bc dbb5 f5bb
000000d0: 63d5 523c 63d3 533c 2a83 18bb 884b 22bc
000000e0: a7d3 0d3c 58fe 4c3c bdc4 2c3b 8775 673b
000000f0: 0bb0 503c 3ada c23b b7a7 f7bb c6f3 87bb
00000100: ba55 803c 3229 f5bb a8ec 943c 4427 82bb
00000110: 75ee d1bb 65fa dd3b bf19 043c ef26 b4ba
00000120: cb89 0bbc 5a48 b43a c774 a03b b0f9 25bc
00000130: bd19 003c c05f 473b a88a 463b e7fc d0ba
00000140: a502 50bc 0788 96bb 73cf f73a 0748 703b
00000150: 1880 c33b 9d12 2c3b 6559 4ebb b470 01bc
00000160: 9b33 0f3c 870e 38bc 5db4 a7bc 5d2a e43a
00000170: 099a b4ba 52e0 053c 584a f23b b1b6 c7bb
00000180: dfbb e73b f326 2d3c 3568 a3bb 628a 1b39
00000190: 34f7 acbc 2bfd fdbb ebf2 9cbb fdeb ddbb
000001a0: 0d26 633b 1275 813b 82ec aa3b 5c31 893c
000001b0: 83c8 4d3c 4843 d23b 9581 61ba 96e0 aabb
000001c0: 132f bebb 974d cd3b 0cf6 1abb eeeb c3bb
000001d0: 4f17 223c 8f17 56bc 1acc 463c d4c0 4a3b
000001e0: 5ad6 fe3b 688e a9bb 8319 7dbc 23ec 24bc
000001f0: 87a9 703b 376a d53b fdd7 4d3b 9c69 4cbc
