results/ppo/ControlCar/ControlCar-4826.onnx (onnx, 81745 bytes, 9 tensors)

discrete_act_size_vector f4 [1, 3]
2.0 3.0 1.0
00000000: 0000 0040 0000 4040 0000 803f

network_body._body_endoder.seq_layers.0.weight f4 [128, 6]
0.18587662 0.5074027 0.4269308 0.078128554 -0.47144657 -0.08322401 -0.50065 -0.6696253
0.37722486 0.05231822 -0.63444287 0.19012953 0.56096345 0.13694295 0.03147015 -0.8136999
-0.6383086 0.5368555 0.007820872 -0.0745373 0.13655825 0.2277088 0.78291684 0.025830142
-0.20706308 -0.23849171 -0.59560573 -1.0132077 -0.12903361 0.15282941 -0.15149929 -0.010222702
0.5268739 0.8972132 1.0813258 -0.5920013 -0.022939913 -0.8097898 -0.98814136 -0.12422989
0.7969682 1.0890068 -0.19508564 -0.17881107 0.1645182 0.5020068 0.17886324 0.37429947
0.16330256 -0.043810397 -0.41790286 -0.17579766 0.15324122 0.091333844 0.39481696 0.45441908
0.2825082 -0.24193446 0.17225446 -0.6702642 0.14604108 0.07116042 0.059835233 0.30524936
-0.30004033 0.40302098 0.06203346 0.74692184 -0.5124321 -0.10168482 0.24352515 -0.2562793
-0.3500883 0.16307878 -0.31555828 -0.09197049 -0.15952227 0.4839329 -0.3425511 -0.5414103
-0.30907506 -0.23232429 -0.13570894 -0.1362199 0.41655377 0.029232677 -0.20667443 0.28807822
-0.31519842 0.013884188 -0.5498636 0.07599324 -0.459236 -0.35077953 0.23696207 -0.23064832
-0.3000318 0.53588593 -0.22095461 -0.09313546 0.034889508 -0.06745782 -0.24536422 0.77399427
0.06523382 -0.649713 -0.07263655 0.13192059 -0.04344789 1.3221176 0.2178111 -0.14482245
-0.14345536 0.8652087 -0.14781493 0.0063671703 -0.71400315 -0.18171641 -0.93217695 0.29083744
-0.4418584 0.7719931 0.029458784 -0.29873788 -0.4995909 0.34244794 -0.72786295 -0.5565579
0.28245276 -0.28553146 0.0064342623 -0.49588466 -0.38531664 0.42838374 0.22505054 -0.15752183
-0.18044193 0.16201279 -0.46900368 0.4895059 0.30105683 -0.10710507 0.8874063 -0.63088065
0.09845962 0.3790771 -0.26976788 -0.4278624 -0.19217677 0.1792446 0.1082979 0.28695533
0.6251608 0.110150434 0.3371874 -0.7467685 -0.17838778 0.25917682 0.919758 -0.17161107
0.43154734 0.16094188 -0.44143572 -0.70174867 0.15217778 -0.438721 -0.03658527 0.06566329
0.09712606 0.29053414 0.64196914 -0.26708165 -0.58073103 -0.33703795 -0.11951389 0.10469904
0.12992802 0.45485464 0.061919622 -0.051506046 -1.0619708 0.47371918 -0.18347749 -0.14477947
-0.12617035 -0.303195 -0.41077816 -0.21701463 -0.4403577 0.006406707 -0.058956575 -0.12469118
0.1964607 -0.25819746 -0.011949034 -0.07785825 -0.2502506 0.36172864 0.2908331 -0.16753781
0.5625988 0.24975252 0.4595241 0.010357054 -0.43380553 0.46921203 0.005416843 0.39686388
-0.4031722 -0.1015409 0.048049208 -0.6496088 0.081094734 0.088838845 0.21949397 -0.68887967
-0.48291856 0.043331742 -0.21809964 0.45572758 -0.09993868 -0.321984 -0.7519856 0.59756976
0.011832123 -0.12930778 0.043873154 -0.049542114 -0.023776073 -0.16033624 -0.07504343 -0.27691936
-0.0064487373 0.7298364 -0.51498914 -0.40056103 -0.32918638 -0.17658125 -0.18298131 0.64914465
0.1736067 -0.10430962 -0.3503291 1.0656389 -0.14500195 0.11582474 -0.45759585 0.23798928
0.4011394 -0.0025511682 0.2528019 0.109474555 0.20595588 0.08561191 0.38507572 0.19510897
00000000: 7156 3e3e 25e5 013f ac96 da3e dd01 a03d
00000010: 7261 f1be 5a71 aabd 992a 00bf 906c 2bbf
00000020: 9e23 c13e a14b 563d d96a 22bf 51b1 423e
00000030: 4d9b 0f3f c63a 0c3e d8e6 003d a34e 50bf
00000040: 3168 23bf 5d6f 093f 1d23 003c 03a7 98bd
00000050: edd5 0b3e 7f2c 693e 3d6d 483f bc99 d33c
00000060: 5808 54be 2c37 74be 9e79 18bf cab0 81bf
00000070: 6321 04be 507f 1c3e a122 1bbe 1f7d 27bc
00000080: 35e1 063f c4af 653f e268 8a3f 668d 17bf
00000090: 7cec bbbc 624e 4fbf d5f6 7cbf 3e6c febd
000000a0: 1c06 4c3f 9364 8b3f 88c4 47be 401a 37be
000000b0: 7677 283e 8583 003f ed27 373e 2ea4 bf3e
000000c0: c938 273e 8872 33bd 5df7 d5be 4d04 34be
000000d0: 44eb 1c3e 3d0d bb3d 7325 ca3e 9ea9 e83e
000000e0: eaa4 903e abbd 77be 7963 303e 6f96 2bbf
000000f0: cb8b 153e 8ebc 913d ca15 753d a549 9c3e
00000100: e39e 99be c458 ce3e cc16 7e3d 4536 3f3f
00000110: c02e 03bf 2240 d0bd a85e 793e 0a37 83be
00000120: c63e b3be 20fe 263e db90 a1be 065b bcbd
00000130: ce59 23be 0ec6 f73e dc62 afbe de99 0abf
00000140: 163f 9ebe 6be6 6dbe 49f7 0abe 3b7d 0bbe
00000150: 8946 d53e 5e79 ef3c 76a2 53be fd7e 933e
00000160: b061 a1be 817a 633c dcc3 0cbf 58a2 9b3d
00000170: fb20 ebbe 6099 b3be 2fa6 723e 132f 6cbe
00000180: c59d 99be d22f 093f ed41 62be cebd bebd
00000190: 4de8 0e3d 5327 8abd c240 7bbe 7d24 463f
000001a0: 4f99 853d 9753 26bf 79c2 94bd 3116 073e
000001b0: 6af6 31bd 263b a93f df09 5f3e 564c 14be
000001c0: f6e5 12be 517e 5d3f cc5c 17be b2a3 d03b
000001d0: e9c8 36bf de13 3abe 26a3 6ebf a5e8 943e
000001e0: 443b e2be 57a1 453f 8c53 f13c 2cf4 98be
000001f0: 61ca ffbe 5655 af3e 3a55 3abf 947a 0ebf
00000200: a69d 903e 2e31 92be 81d6 d23b 98e4 fdbe
00000210: 3948 c5be 1d55 db3e a673 663e 674d 21be
00000220: c5c5 38be aee6 253e 4021 f0be 84a0 fa3e
00000230: 1f24 9a3e e759 dbbd 0f2d 633f 6581 21bf
00000240: 32a5 c93d 6516 c23e 041f 8abe c810 dbbe
00000250: fdc9 44be e58b 373e 4acb dd3d cfeb 923e
00000260: 8a0a 203f 8d96 e13d d4a3 ac3e 382c 3fbf
00000270: 49ab 36be d3b2 843e 4375 6b3f d0ba 2fbe
00000280: c6f3 dc3e f3cd 243e dd03 e2be cda5 33bf
00000290: 7ed4 1b3e 0aa0 e0be 70da 15bd 7a7a 863d
000002a0: 07ea c63d e4c0 943e 1758 243f edbe 88be
000002b0: caaa 14bf 3d90 acbe b3c3 f4bd 736c d63d
000002c0: da0b 053e b5e2 e83e 6e9f 7d3d 01f8 52bd
000002d0: a9ee 87bf 528b f23e 86e1 3bbe 1241 14be
000002e0: cd32 01be 603c 9bbe 8451 d2be 1539 5ebe
000002f0: 9176 e1be 5bef d13b 737c 71bd 175e ffbd
00000300: fe2c 493e 7532 84be e2c5 43bc 2574 9fbd
00000310: d920 80be 7f34 b93e 13e8 943e 088f 2bbe
00000320: 7a06 103f 20bf 7f3e be46 eb3e a2b0 293c
00000330: c21b debe 8f3c f03e c67f b13b be31 cb3e
00000340: 966c cebe adf4 cfbd 3fcf 443d c34c 26bf
00000350: ff14 a63d 24f1 b53d 07c3 603e 6b5a 30bf
00000360: 1a41 f7be a07c 313d 8355 5fbe 2055 e93e
00000370: a7ac ccbd 16db a4be 2182 40bf 55fa 183f
00000380: 85db 413c 4269 04be 56b4 333d acec 4abd
00000390: 0ac6 c2bc 2f2f 24be 5fb0 99bd 60c8 8dbe
000003a0: ee4f d3bb 8fd6 3a3f 54d6 03bf 5616 cdbe
000003b0: 1e8b a8be b7d1 34be 745f 3bbe 582e 263f
000003c0: f4c5 313e 48a0 d5bd 565e b3be db66 883f
000003d0: 647b 14be 8535 ed3d 014a eabe 76b3 733e
000003e0: 2562 cd3e 8031 27bb 406f 813e 3234 e03d
000003f0: 19e6 523e 4c55 af3d a528 c53e a5ca 473e

network_body._body_endoder.seq_layers.0.bias f4 [128]
0.0 0.0 0.0 0.0 0.0 0.0 0.0 0.0
0.0 0.0 0.0 0.0 0.0 0.0 0.0 0.0
0.0 0.0 0.0 0.0 0.0 0.0 0.0 0.0
0.0 0.0 0.0 0.0 0.0 0.0 0.0 0.0
0.0 0.0 0.0 0.0 0.0 0.0 0.0 0.0
0.0 0.0 0.0 0.0 0.0 0.0 0.0 0.0
0.0 0.0 0.0 0.0 0.0 0.0 0.0 0.0
0.0 0.0 0.0 0.0 0.0 0.0 0.0 0.0
0.0 0.0 0.0 0.0 0.0 0.0 0.0 0.0
0.0 0.0 0.0 0.0 0.0 0.0 0.0 0.0
0.0 0.0 0.0 0.0 0.0 0.0 0.0 0.0
0.0 0.0 0.0 0.0 0.0 0.0 0.0 0.0
0.0 0.0 0.0 0.0 0.0 0.0 0.0 0.0
0.0 0.0 0.0 0.0 0.0 0.0 0.0 0.0
0.0 0.0 0.0 0.0 0.0 0.0 0.0 0.0
0.0 0.0 0.0 0.0 0.0 0.0 0.0 0.0
00000000: 0000 0000 0000 0000 0000 0000 0000 0000
00000010: 0000 0000 0000 0000 0000 0000 0000 0000
00000020: 0000 0000 0000 0000 0000 0000 0000 0000
00000030: 0000 0000 0000 0000 0000 0000 0000 0000
00000040: 0000 0000 0000 0000 0000 0000 0000 0000
00000050: 0000 0000 0000 0000 0000 0000 0000 0000
00000060: 0000 0000 0000 0000 0000 0000 0000 0000
00000070: 0000 0000 0000 0000 0000 0000 0000 0000
00000080: 0000 0000 0000 0000 0000 0000 0000 0000
00000090: 0000 0000 0000 0000 0000 0000 0000 0000
000000a0: 0000 0000 0000 0000 0000 0000 0000 0000
000000b0: 0000 0000 0000 0000 0000 0000 0000 0000
000000c0: 0000 0000 0000 0000 0000 0000 0000 0000
000000d0: 0000 0000 0000 0000 0000 0000 0000 0000
000000e0: 0000 0000 0000 0000 0000 0000 0000 0000
000000f0: 0000 0000 0000 0000 0000 0000 0000 0000
00000100: 0000 0000 0000 0000 0000 0000 0000 0000
00000110: 0000 0000 0000 0000 0000 0000 0000 0000
00000120: 0000 0000 0000 0000 0000 0000 0000 0000
00000130: 0000 0000 0000 0000 0000 0000 0000 0000
00000140: 0000 0000 0000 0000 0000 0000 0000 0000
00000150: 0000 0000 0000 0000 0000 0000 0000 0000
00000160: 0000 0000 0000 0000 0000 0000 0000 0000
00000170: 0000 0000 0000 0000 0000 0000 0000 0000
00000180: 0000 0000 0000 0000 0000 0000 0000 0000
00000190: 0000 0000 0000 0000 0000 0000 0000 0000
000001a0: 0000 0000 0000 0000 0000 0000 0000 0000
000001b0: 0000 0000 0000 0000 0000 0000 0000 0000
000001c0: 0000 0000 0000 0000 0000 0000 0000 0000
000001d0: 0000 0000 0000 0000 0000 0000 0000 0000
000001e0: 0000 0000 0000 0000 0000 0000 0000 0000
000001f0: 0000 0000 0000 0000 0000 0000 0000 0000

network_body._body_endoder.seq_layers.2.weight f4 [128, 128]
0.08982864 -0.011709571 0.100023545 -0.08322177 -0.118800186 0.055200458 -0.0102513 -0.11347259
-0.0027106763 -0.10777058 -0.11555752 -0.18005039 0.12412306 0.108923376 -0.032555763 0.027967421
-0.13476653 -0.2195687 0.0024529537 -0.00059695845 -0.036362734 0.025950676 0.0029254176 -0.20542662
-0.028778033 -0.03360864 -0.003964766 -0.13137867 -0.024163263 -0.023634825 0.007302139 0.15920861
0.008111758 0.025787354 0.029100986 0.010548041 -0.06412629 -0.119665846 -0.03453321 0.03884079
0.05415411 -0.16292296 0.007579269 0.027919644 -0.07403397 0.06337469 -0.16773584 0.094614625
0.22585687 0.06286148 0.057239488 0.11830192 -0.028757216 -0.004632416 0.14461789 0.047520485
0.018319 0.0036569515 0.003431319 0.067443915 -0.15376112 0.033047825 0.07142159 0.07456116
-0.18936108 -0.028805805 -0.10277627 0.06934667 0.049235493 -0.016095104 0.11565622 0.034335155
-0.06473974 -0.024873473 0.064088 -0.09879439 -0.0036999614 0.0822076 0.09979929 -0.1541995
-0.27071634 -0.010900286 0.10682206 0.112322055 0.09730527 -0.045707144 0.1113717 0.08461754
-0.09009621 -0.009546582 -0.043225884 -0.18102472 0.011568582 -0.048340987 -0.06471662 0.10993731
0.12719408 -0.0041549527 0.0874233 0.14160444 0.021878885 -0.09362167 -0.103105895 0.1294659
0.16162077 0.038953472 -0.065940164 0.0792344 0.086688645 0.10317971 -0.21152702 0.054297205
-0.15790375 0.024159214 -0.099419124 -0.10874018 0.03920407 -0.09457288 0.09093505 -0.109347306
-0.19883992 -0.015482014 -0.01771359 -0.091923326 0.04653364 -0.07507927 0.0910218 -0.12774152
-0.13875258 0.022490248 0.15385495 -0.15848738 0.17936316 -0.031114979 -0.075135075 0.032628335
-0.07763128 -0.056026775 -0.01473921 0.14859253 -0.1307196 0.0796741 -0.20222928 0.12364666
0.08870856 -0.049127743 0.052204277 0.055482864 -0.08572844 -0.010196391 0.061291873 0.031757254
-0.17665467 0.03203625 0.068241656 -0.04281692 0.19306289 -0.04160951 -0.04402628 0.09594597
0.06677375 -0.027866969 0.0055574346 -0.011117506 -0.029832745 0.13464874 0.06449629 -0.056544647
0.023878437 0.0807692 0.07037269 0.026893232 0.07557 -0.12421609 0.0021361427 -0.112208225
-0.05935391 0.008433056 0.07388236 -0.061988562 -0.071473785 -0.072444886 -0.059225947 0.03793709
0.19573641 -0.044634603 -0.060300414 0.12952474 0.07219768 -0.14498974 -0.06152025 -0.031262368
0.015428007 0.047709487 0.0039740973 -0.118674114 -0.09103264 -0.00833875 0.082419515 -0.0128036095
0.1172238 0.039490763 -0.13847655 -0.1954285 0.046663366 -0.03953081 0.07968999 0.08502985
-0.13399431 0.16027193 -0.03276761 0.053835396 0.08019624 0.02746125 -0.002013093 -0.023908982
-0.092645064 -0.19630145 -0.057192694 -0.017033523 0.10570558 0.13217963 0.046158765 0.11778051
-0.045242634 -0.07194443 0.0075694947 0.05096781 -0.007798473 -0.070869416 0.11664487 0.04977837
0.113354 -0.081293315 0.1028651 -0.027141849 -0.008849372 -0.10456895 0.03434572 -0.17554806
0.01456786 -0.026246246 -0.21730477 0.05020949 -0.031341877 -0.0056617474 0.18227144 -0.14782375
-0.03648475 0.033791054 -0.00888231 0.08474528 0.06774949 0.08808101 -0.10658508 0.106524765
00000000: 14f8 b73d 80d9 3fbc 25d9 cc3d 2d70 aabd
00000010: 834d f3bd e019 623d 12f5 27bc 5164 e8bd
00000020: 9aa5 31bb d2b6 dcbd 6ca9 ecbd 215f 38be
00000030: 3b34 fe3d 3813 df3d 3159 05bd ef1b e53c
00000040: 3d00 0abe 9ed6 60be bcc1 203b 347d 1cba
00000050: 17f1 14bd 8396 d43c 5db8 3f3b 5b5b 52be
00000060: e9bf ebbc 37a9 09bd deea 81bb 2188 06be
00000070: 09f2 c5bc d29d c1bc c846 ef3b 9507 233e
00000080: 2ee7 043c 0040 d33c 3165 ee3c b1d1 2c3c
00000090: a554 83bd 5e13 f5bd b272 0dbd 8517 1f3d
000000a0: b3d0 5d3d 47d5 26be 845b f83b bdb7 e43c
000000b0: 1f9f 97bd 97ca 813d f2c2 2bbe 50c5 c13d
000000c0: 0647 673e 85bd 803d f473 6a3d 4748 f23d
000000d0: 4194 ebbc 86cb 97bb b616 143e d7a4 423d
000000e0: ba11 963c 77a9 6f3b fbdf 603b 0920 8a3d
000000f0: 8e73 1dbe 285d 073d 7c45 923d 85b3 983d
00000100: dfe7 41be 27fa ebbc 5d7c d2bd a005 8e3d
00000110: 28ab 493d e1d9 83bc 2bdd ec3d 05a3 0c3d
00000120: 4596 84bd 74c3 cbbc 9240 833d b754 cabd
00000130: 0d7b 72bb 755c a83d 9263 cc3d 79e6 1dbe
00000140: 559b 8abe 1d97 32bc 86c5 da3d 1b09 e63d
00000150: fc47 c73d 6a37 3bbd d916 e43d f64b ad3d
00000160: 5d84 b8bd 4469 1cbc a00d 31bd 8b5e 39be
00000170: 268a 3d3c 3301 46bd 268a 84bd d026 e13d
00000180: 2a3f 023e 4526 88bb fd0a b33d c100 113e
00000190: 593b b33c b8bc bfbd 2f29 d3bd b592 043e
000001a0: ea7f 253e ad8d 1f3d a30b 87bd a545 a23d
000001b0: d189 b13d e24f d33d 8a9a 58be bf66 5e3d
000001c0: 85b1 21be 8be9 c53c 419c cbbd 2cb3 debd
000001d0: 7294 203d 6daf c1bd 283c ba3d 7bf1 dfbd
000001e0: b19c 4bbe 46a8 7dbc 171c 91bc 4c42 bcbd
000001f0: 0f9a 3e3d 29c3 99bd a369 ba3d acce 02be
00000200: 2815 0ebe 783d b83c 278c 1d3e 844a 22be
00000210: faaa 373e d7e4 febc 6be0 99bd 4aa5 053d
00000220: 26fd 9ebd 557c 65bd ba7c 71bc a428 183e
00000230: 5cdb 05be 2d2c a33d 3115 4fbe 763a fd3d
00000240: d5ac b53d 2c3a 49bd 27d4 553d 0042 633d
00000250: 6492 afbd c30e 27bc 300d 7b3d e513 023d
00000260: f6e4 34be 7138 033d 48c2 8b3d cb60 2fbd
00000270: 47b2 453e bc6e 2abd e754 34bd 527f c43d
00000280: adc0 883d 4549 e4bc 241b b63b 3326 36bc
00000290: cd63 f4bc 5ce1 093e a216 843d 5c9b 67bd
000002a0: b69c c33c 536a a53d 8f1f 903d 324f dc3c
000002b0: 72c4 9a3d 0165 febd 87fe 0b3b 6dcd e5bd
000002c0: 161d 73bd cd2a 0a3c a24f 973d b8e7 7dbd
000002d0: d960 92bd fc5d 94bd e896 72bd ec63 1b3d
000002e0: 206f 483e c6d2 36bd 91fd 76bd 22a2 043e
000002f0: 61dc 933d 3178 14be a8fc 7bbd f80c 00bd
00000300: c0c5 7c3c 066b 433d 2539 823b 6a0b f3bd
00000310: 526f babd 419f 08bc 90cb a83d 3bc6 51bc
00000320: 0813 f03d 11c1 213d cccc 0dbe 691e 48be
00000330: 1622 3f3d 0feb 21bd 8134 a33d 2124 ae3d
00000340: ce35 09be 531e 243e 5437 06bd 8182 5c3d
00000350: ed3d a43d 6af6 e03c 19ee 03bb c5dc c3bc
00000360: b2bc bdbd 3f03 49be e342 6abd e389 8bbc
00000370: 2b7c d83d 195a 073e f910 3d3d e836 f13d
00000380: 5750 39bd 9a57 93bd 8609 f83b 9fc3 503d
00000390: 558a ffbb fc23 91bd 81e3 ee3d 67e4 4b3d
000003a0: 2426 e83d 1c7d a6bd f0aa d23d 9558 debc
000003b0: f5fc 10bc 3f28 d6bd 19ae 0c3d dfc2 33be
000003c0: 09ae 6e3c 5e02 d7bc 2485 5ebe 77a8 4d3d
000003d0: 5760 00bd 2e86 b9bb 5da5 3a3e 1c5f 17be
000003e0: 0971 15bd 7d68 0a3d 1c87 11bc ef8e ad3d
000003f0: 3fc0 8a3d d163 b43d 4749 dabd a829 da3d

action_model._discrete_distribution.branches.0.weight f4 [2, 128]
0.00491579 0.010494974 0.006869243 -0.0005462258 -0.004385893 0.005974684 0.003830947 -0.014373208
-0.011867537 -0.018555174 0.006316323 0.004263726 0.008501231 0.007865524 -0.0068086386 0.0054235565
0.0031697347 0.0012005646 -0.008443795 0.0024106808 -0.0037944892 -0.00471894 -0.0011695287 0.020841641
0.0008492889 0.011187593 -0.0011018673 -0.0004676183 0.008287955 -0.006820486 -0.010115148 -0.0005120888
0.010373329 -0.0051327324 -0.0031151355 -0.0014203778 -0.002655922 -0.008667472 0.003167754 -0.0022163128
0.002002807 0.0029349648 0.0011144489 0.016968412 -0.016790537 0.0022502928 -0.002041838 0.0009483153
-0.0036057027 -0.011501415 -0.004014471 0.0015051864 0.0005548498 0.014915891 0.0069416584 -0.001840044
0.023189768 0.0043113837 -0.016292926 0.00045865632 0.001170535 -0.0037670538 0.0037454192 -0.003760388
-0.0033923076 -0.013683978 0.011486254 0.007347318 0.008220339 -0.002287042 -0.010415285 0.0013214839
-0.0055528246 -0.0027595477 -0.009028731 0.010283052 -0.00017929735 -0.005375705 -0.0019031946 -0.012329238
-0.018197354 -0.0037863688 0.013802233 0.00077181356 -0.007199143 0.004055283 0.0018976479 -0.0022287564
-0.0016910842 -0.0047932346 0.0017673522 0.0055725835 0.013930296 0.0004994699 -0.003988008 0.00910722
0.005832625 -0.009346101 0.00818242 0.0018740448 -0.0011922376 -0.007856009 -0.0028726 0.005958012
0.015899383 0.004228142 0.005904451 -0.0029866635 0.0006077115 -0.0028704095 0.00030357408 0.005996721
-0.016635232 -0.017742533 -0.002283462 -0.014142384 0.007838883 -0.012683824 0.0031501201 -0.012390491
0.011184811 -0.0056176293 0.007970192 0.0024964947 0.013285259 0.004216131 -0.005729455 -0.00516013
0.013098808 -0.0019821073 0.0027122155 -0.0070205354 0.00930926 0.0021617648 0.009203287 -0.0116515355
0.008919661 0.010986491 0.00860749 0.009215022 0.0063280426 -0.00937025 -0.0026517059 0.012234801
0.008206925 -0.016937044 -0.0013097383 -0.006847667 -0.0077839345 -0.010457996 0.003214764 -0.011703786
0.016256353 0.010337108 -0.0086424295 -0.012885285 0.00059613393 0.0012458412 0.002147032 0.021068444
-0.0031143534 0.0016187805 0.02482651 -0.001995803 0.0071072476 -0.013378662 -0.0001559165 -0.011740185
-0.0026565266 -0.003389173 0.004647543 0.001806682 -0.0019016808 -0.013357668 0.007841246 -0.0068299356
0.002869941 0.000273268 -0.000996533 -0.008128216 -0.01365371 -0.004167738 0.00018119857 0.00077019556
0.007961331 -0.009593111 0.0076214285 0.0005019928 0.0011373468 -0.0057141795 0.007561151 0.00012158655
0.0043477505 0.0064524994 0.0041405316 -0.009866886 -0.0031435264 -0.013026746 0.014477164 0.012155323
0.0018826074 -0.022023715 0.0016574658 0.001432442 -0.00029186858 0.00771377 -0.0034976497 0.009772441
0.005034225 -0.008006649 0.020420892 -0.016653525 0.004340585 -0.0121603655 -0.0024272131 0.0008546258
-0.01501812 0.0070225256 -0.0033054077 -0.011115032 0.018241307 0.000198027 -0.007275508 0.011501862
0.0075857094 -0.0030584168 -0.01328618 -0.009616057 0.0071292385 -0.014779091 -0.00841413 0.0007287298
-0.008360553 -0.0095232045 0.0052360967 0.003835718 -0.012878296 0.021580942 0.0067266435 0.0045848438
-0.0049206046 0.007515274 0.0012945334 -0.007946724 -0.005780665 0.008446866 -0.0050650155 0.000161966
-0.012388776 0.0070423703 -0.0031408009 0.010472105 0.01634734 -0.0013378265 -0.003147368 0.0052182814
00000000: a314 a13b 1df3 2b3c 6317 e13b 9830 0fba
00000010: 89b7 8fbb 48c7 c33b a010 7b3b 9b7d 6bbc
00000020: 0f70 42bc 0501 98bc 28f9 ce3b bab6 8b3b
00000030: bf48 0b3c 66de 003c 001b dfbb 17b8 b13b
00000040: 53bb 4f3b 435c 9d3a d857 0abc 83fc 1d3b
00000050: f7ac 78bb 56a1 9abb df4a 99ba 17bc aa3c
00000060: d0a2 5e3a 2b4c 373c 886c 90ba aa2a f5b9
00000070: 34ca 073c 627e dfbb 01ba 25bc b33d 06ba
00000080: e5f4 293c 7b30 a8bb 4d27 4cbb f82b baba
00000090: fa0e 2ebb 0302 0ebc 189a 4f3b 8f3f 11bb
000000a0: 8741 033b 8a58 403b b312 923a 5701 8b3c
000000b0: 4f8c 89bc a679 133b 5bd0 05bb 5d98 783a
000000c0: a74d 6cbb 6e70 3cbc d38b 83bb ad49 c53a
000000d0: 5773 113a c861 743c da76 e33b a22d f1ba
000000e0: 78f8 bd3c 8246 8d3b be78 85bc cf77 f039
000000f0: a36c 993a ade0 76bb b575 753b d770 76bb
00000100: 7a51 5ebb c332 60bc d730 3c3c c5c1 f03b
00000110: 9aae 063c 33e2 15bb dfa4 2abc a435 ad3a
00000120: 78f4 b5bb 87d9 34bb 3eed 13bc 3f7a 283c
00000130: c401 3cb9 af26 b0bb 9d74 f9ba 9200 4abc
00000140: 9e12 95bc ba24 78bb c322 623c 8853 4a3a
00000150: cae6 ebbb 2ee2 843b 7fba f83a 5410 12bb
00000160: 5fa7 ddba 9110 9dbb 80a6 e73a 389a b63b
00000170: e53b 643c dcee 023a d6ad 82bb 7336 153c
00000180: 9b1f bf3b 6420 19bc 8f0f 063c 82a2 f53a
00000190: db44 9cba 7db6 00bc 3b42 3cbb 6d3b c33b
000001a0: 6c3f 823c 3a8c 8a3b 207a c13b e6bb 43bb
000001b0: d44e 1f3a 7b1d 3cbb 0629 9f39 2480 c43b
000001c0: 9c46 88bc ca58 91bc 23a6 15bb 75b5 67bc
000001d0: a96e 003c d0cf 4fbc 3f72 4e3b 7c01 4bbc
000001e0: 7f40 373c 1714 b8bb 6895 023c 3b9c 233b
000001f0: 6aaa 593c 7827 8a3b 27be bbbb 4f16 a9bb
00000200: 629c 563c 3ee6 01bb 6dbf 313b 850c e6bb
00000210: de85 183c 65ac 0d3b 62c9 163c 15e6 3ebc
00000220: c523 123c af00 343c 6e06 0d3c 9bfa 163c
00000230: 785b cf3b ad85 19bc 3ec8 2dbb 7a74 483c
00000240: 5776 063c 8ebf 8abc 86ab abba 6562 e0bb
00000250: 6010 ffbb 0458 2bbc caae 523b 3dc1 3fbc
00000260: 0b2c 853c f95c 293c fa98 0dbc cd1c 53bc
00000270: df45 1c3a 7e4b a33a 38b5 0c3b bb97 ac3c
00000280: 2e1a 4cbb 432d d43a f760 cb3c 05cc 02bb
00000290: eae3 e83b 2d32 5bbc 847d 23b9 e859 40bc
000002a0: 1f19 2ebb e31c 5ebb 6b4a 983b 30ce ec3a
000002b0: d241 f9ba 1fda 5abc 9278 003c a7cd dfbb
000002c0: 9f15 3c3b 6945 8f39 199e 82ba 352c 05bc
000002d0: cfb3 5fbc 8591 88bb 1f00 3e39 f3e6 493a
000002e0: 3e70 023c 6d2c 1dbc 2dbd f93b 2b98 033a
000002f0: 0713 953a 033e bbbb 88c3 f73b 48fc fe38
00000300: 9377 8e3b 7d6f d33b 4cad 873b b8a8 21bc
00000310: 9f03 4ebb 226e 55bc a031 6d3c 1f27 473c
00000320: d2c1 f63a 146b b4bc 533f d93a c7c0 bb3a
00000330: f005 99b9 cbc3 fc3b d338 65bb 971c 203c
00000340: 24f6 a43b 522e 03bc b749 a73c f96c 88bc
00000350: 773b 8e3b 453c 47bc e111 1fbb f708 603a
00000360: 900e 76bc 371d e63b 8a9f 58bb d31b 36bc
00000370: cb6e 953c 78a5 4f39 6267 eebb 4e72 3c3c
00000380: 8b91 f83b b86f 48bb 47ae 59bc ab8c 1dbc
00000390: 639c e93b 0024 72bc 6bdb 09bc 3b08 3f3a
000003a0: b3fa 08bc 3707 1cbc 9093 ab3b ab60 7b3b
000003b0: 7dff 52bc 84ca b03c 2d6b dc3b 753c 963b
000003c0: 063d a1bb b042 f63b 55ad a93a fa32 02bc
000003d0: bc6b bdbb b964 0a3c 6ef8 a5bb 6bd5 2939
000003e0: 4bfa 4abc afc3 e63b e5d5 4dbb 3193 2b3c
000003f0: dbea 853c 025a afba 1344 4ebb 1efe aa3b

action_model._discrete_distribution.branches.0.bias f4 [2]
0.0 0.0
00000000: 0000 0000 0000 0000

action_model._discrete_distribution.branches.1.weight f4 [3, 128]
-0.014613682 0.016079692 -0.0010308446 0.014787703 0.011566086 -0.0075150165 0.0042486372 0.0066157505
0.01582071 -0.0032707897 -0.00804004 0.0033579525 0.00880834 0.0061639072 0.008680867 0.0005871605
-0.019049374 -0.003417965 0.008033338 0.0053034755 0.001217848 -0.003928014 0.0023547441 -0.013560392
-0.0027739322 -0.0075828745 0.015791252 0.0067859152 -0.012139267 -0.0032200054 0.003090242 -0.011394626
-0.0010134496 0.010453181 -0.011204288 0.011225729 -0.009381036 0.010139002 0.0005577814 0.0075784894
0.0037577513 -0.0023305228 -0.0014858254 0.018562064 -0.008888874 0.006261424 -0.0014460776 0.0009576878
0.0052966643 0.015146056 0.01222095 0.010897829 -0.0035627973 -0.0040496285 0.0058287405 -0.01058651
0.00011338026 -0.0021711658 0.0015843761 0.007896346 0.00084776775 0.0037223415 -0.0062488853 -0.0036895045
0.0081648445 -0.0006002917 0.013915503 0.010860904 0.011398717 -0.020859333 -0.012275247 0.012555622
-0.0076147863 0.01113925 -0.000861372 -0.009616046 -0.00047347546 0.019765995 0.004085708 -0.007857299
-0.008837531 -0.010879638 0.00042915042 0.0072947103 0.0062612626 0.0035784647 0.00019938036 0.008569209
0.009368393 0.0017910593 -0.002679227 0.0015037071 -0.015700484 -0.0014733005 -0.0032444969 0.0010690755
0.017911775 -0.0019552184 0.0007948965 0.004994594 -0.0022590335 0.0050565926 -0.00545314 -0.013290356
0.028550485 -0.005577903 -0.004594235 -0.0051783947 0.005350852 -0.013170815 -0.00012305395 -0.004104462
-0.008186388 0.0051745563 -0.0032016225 -0.0037590265 -0.015944187 0.003603203 0.009207184 -0.0011005125
-0.006859395 0.008838887 -0.00058918475 0.0035195593 0.0036642978 0.016542409 0.0066340542 -0.0019311653
0.006364651 0.0057265633 0.008001166 0.005545266 0.0003014246 0.0059662103 0.0016925769 0.0020891244
-0.012715588 -0.0094042225 -0.0036946218 -0.0061431946 0.012902041 -0.0047664135 0.00879047 0.0057230755
-0.011240265 -0.004095714 -0.005754929 0.0029521976 -0.0022658417 -0.007866601 -0.00240722 0.0036813512
-0.0030673041 -0.0006512888 -0.0017222367 0.019184107 -0.0015561407 -0.0067654783 0.0080162035 -0.0024086938
0.0018104309 -0.006908335 0.0051158476 0.0067153717 -0.006268473 0.016311452 -0.013712528 -0.0013171654
0.016261669 -0.004390621 0.009603027 -0.0018694444 0.011398733 -0.0009833019 -0.008914708 -0.011608663
-0.0018957545 -0.0033662654 0.0071030147 -0.0009003812 0.0038362318 -0.005673859 -0.005371624 -0.0049429354
0.00045197317 -0.00964053 0.00075100764 -0.008017318 -0.009015772 0.023777662 0.008458571 -0.004363609
0.015064671 -0.016690021 -0.0021952714 0.0031797108 0.024856243 -0.010149874 -0.0140182525 0.006955012
-0.0062107737 -0.008927732 -0.006438146 0.007675054 -0.0057498515 0.010411157 0.00039711958 0.008369359
-0.002174043 0.007634133 -0.009419194 -0.009345594 -0.0024814631 0.00024977844 0.0008480069 -0.0033068904
0.0024596646 0.002013814 0.0013186161 -0.004210642 0.012828779 -0.0042981105 -0.00031264365 -0.00088393857
0.011632857 -0.00018997656 -0.004837304 0.010217797 -0.0013097101 0.0005447871 -0.0038119375 -0.0036290784
-0.015193581 0.01117229 -0.004375204 0.020707203 0.00303992 -0.007719237 -0.0051555703 0.009539453
-0.014620292 -0.011146723 -0.012075757 -0.01289158 0.0013764895 0.01018201 0.006880273 -0.004979726
0.015013732 -0.015231972 0.0035897826 0.020077286 0.010951857 -0.0051733665 -0.0045475713 0.00016406333
00000000: 3a6e 6fbc 8fb9 833c 681d 87ba 1f48 723c
00000010: ae7f 3d3c 8740 f6bb 2738 8b3b f0c8 d83b
00000020: 6f9a 813c bf5a 56bb 5fba 03bc 1811 5c3b
00000030: db50 103c 9afa c93b 323a 0e3c adeb 193a
00000040: 6f0d 9cbc f0ff 5fbb 439e 033c c7c8 ad3b
00000050: 33a0 9f3a 92b6 80bb 0d52 1a3b 682c 5ebc
00000060: dcca 35bb c379 f8bb a85c 813c 625c de3b
00000070: c7e3 46bc ba06 53bb a885 4a3b 87b0 3abc
00000080: bad5 84ba d243 2b3c 3192 37bc 1fec 373c
00000090: ebb2 19bc 0f1e 263c 1338 123a fa54 f83b
000000a0: 9b44 763b afbb 18bb 07c0 c2ba 780f 983c
000000b0: a4a2 11bc a22c cd3b 508a bdba 570d 7b3a
000000c0: a48f ad3b 2a27 783c 613a 483c cf8c 323c
000000d0: d27d 69bb bfb2 84bb 05ff be3b 0b73 2dbc
000000e0: 90c6 ed38 1e4a 0ebb d7aa cf3a ad5f 013c
000000f0: bb3c 5e3a 87f2 733b 73c3 ccbb 9dcb 71bb
00000100: d7c5 053c e55c 1dba dafd 633c eff1 313c
00000110: afc1 3a3c 31e1 aabc 1e1e 49bc 18b6 4d3c
00000120: 7585 f9bb 6781 363c b2cd 61ba 9f8c 1dbc
00000130: cd3c f8b9 4cec a13c 67e1 853b e7bb 00bc
00000140: 4bcb 10bc 8240 32bc 98ff e039 7708 ef3b
00000150: 472b cd3b ad84 6a3b c210 5139 de65 0c3c
00000160: e37d 193c fac1 ea3a f895 2fbb 0a18 c53a
00000170: 4d9e 80bc c31b c1ba a0a1 54bb 3920 8c3a
00000180: b7bb 923c 1f23 00bb 9a60 503a b1a9 a33b
00000190: 4b0c 14bb c6b1 a53b 41b0 b2bb cbbf 59bc
000001a0: b5e2 e93c d7c6 b6bb 3d8b 96bb 86af a9bb
000001b0: 3356 af3b 67ca 57bc 0b08 01b9 b97e 86bb
000001c0: 3320 06bc 538f a93b 50d2 51bb 005a 76bb
000001d0: 629d 82bc b723 6c3b bbd9 163c 123f 90ba
000001e0: c7c4 e0bb fbd0 103c 8573 1aba 68a8 663b
000001f0: b724 703b f283 873c 7b62 d93b 281f fdba
00000200: 908e d03b e5a5 bb3b 5317 033c 10b5 b53b
00000210: 8608 9e39 3380 c33b 75d9 dd3a b1e9 083b
00000220: 0b55 50bc 2b14 1abc 7821 72bb da4c c9bb
00000230: 1563 533c 932f 9cbb e705 103c a388 bb3b
00000240: 1729 38bc 5735 86bb d893 bcbb a879 413b
00000250: 847e 14bb ebe2 00bc 73c2 1dbb d342 713b
00000260: d304 49bb 40bb 2aba adbc e1ba fd27 9d3c
00000270: 6bf7 cbba f2b0 ddbb 6556 033c 2ddb 1dbb
00000280: fb4b ed3a 505f e2bb d7a2 a73b 9f0c dc3b
00000290: c367 cdbb 989f 853c 83aa 60bc bda4 acba
000002a0: 3137 853c 33df 8fbb 0456 1d3c 2508 f5ba
000002b0: c0c1 3a3c 23e2 80ba ff0e 12bc 4332 3ebc
000002c0: f77a f8ba 909c 5cbb 68c0 e83b 8f07 6cba
000002d0: 4a69 7b3b c7eb b9bb 7304 b0bb 59f8 a1bb
000002e0: d0f6 ec39 50f3 1dbc 45df 443a 125b 03bc
000002f0: e3b6 13bc 5fc9 c23c d195 0a3c 9bfc 8ebb
00000300: cfd1 763c 83b9 88bc 8bde 0fbb b262 503b
00000310: 529f cb3c a84b 26bc d0ac 65bc dfe6 e33b
00000320: bf83 cbbb 9f45 12bc 15f7 d2bb 057f fb3b
00000330: 4069 bcbb 8f93 2a3c 7d34 d039 a31f 093c
00000340: 647a 0ebb c027 fa3b f752 1abc 431e 19bc
00000350: 0ba0 22bb b2f4 8239 c84c 5e3a 6ab8 58bb
00000360: 5332 213b 31fa 033b 6ad5 ac3a 6df9 89bb
00000370: cd2f 523c 2ad7 8cbb 52ea a3b9 1db8 67ba
00000380: bd97 3e3c 7234 47b9 3f82 9ebb 8c68 273c
00000390: 94aa abba 0bd0 0e3a b3d1 79bb d5d5 6dbb
000003a0: 7fee 78bc fb0b 373c df5d 8fbb 27a2 a93c
000003b0: 6539 473b a7f1 fcbb 0ff0 a8bb 5e4b 1c3c
000003c0: f389 6fbc bfa0 36bc 65d9 45bc 3537 53bc
000003d0: 536b b43a 72d2 263c ea73 e13b f82c a3bb
000003e0: 28fc 753c 858f 79bc 8f42 6b3b 1f79 a43c
000003f0: 6b6f 333c 5885 a9bb cb03 95bb 6a08 2c39

action_model._discrete_distribution.branches.1.bias f4 [3]
0.0 0.0 0.0
00000000: 0000 0000 0000 0000 0000 0000

action_model._discrete_distribution.branches.2.weight f4 [1, 128]
0.009199185 -0.0026214148 0.006992336 0.01888873 -0.0078807315 0.009239751 0.007177513 -0.0041923444
0.014504127 -0.017948017 0.012811134 0.005365902 -0.014013012 0.006798661 -0.0045827143 -0.0035110712
-0.0060490137 -0.012331416 0.0016926999 -0.0014929441 -0.004105894 0.0064272094 -0.010774567 -0.009035577
-0.009668383 0.0013673167 0.005200679 -0.0038947985 -0.0090110665 -0.010004167 0.015381226 0.005057579
-0.02168796 -0.0124482885 -0.005984808 0.004409129 0.0043819826 0.0014021113 -0.0044518462 0.00530051
-0.0006677284 -0.003852987 -0.008601895 0.011321483 -0.0012494008 -0.004632439 -0.010804797 0.014422615
-0.004921528 0.012006777 -0.005879994 0.00015348561 0.0034961093 0.008987403 0.010752038 -0.0041429074
-0.0032650474 -0.0042706113 -0.0015429899 0.00047170432 0.0061965263 -0.0009791324 0.002829205 0.003821559
0.0005008171 -0.012321404 -0.016979076 -0.004329942 0.007046263 -0.004672627 0.0030942422 -0.004680976
0.00043022065 -0.0049113515 0.02072068 -0.005972206 0.005444393 0.0003457182 0.0028830601 0.014266853
0.004571078 0.011073574 -0.0060696993 0.012739628 0.0029411882 0.000698319 0.0017947713 0.0034803876
0.0022626685 0.013252961 0.0013588918 0.017248431 -0.011953785 0.016436292 0.006166829 -0.00027730872
-0.017664626 0.0022901923 -0.0041678264 0.0058039133 0.0063832304 -0.005920047 -0.002561973 0.005624095
-0.0023899698 -0.001829482 0.0042766724 -0.0045722206 -0.020714872 0.0024604993 -0.011954951 -0.009408682
-0.00045412357 -0.012719166 -0.0073490776 -0.001717139 -0.0035599177 0.004352489 -0.010518016 0.0008018633
0.007795673 -0.005729437 0.0009038487 0.008294414 0.009086995 0.003981195 -0.0012389052 0.00669318
00000000: 2eb8 163c 0bcc 2bbb f71f e53b 8abc 9a3c
00000010: 2f1e 01bc 5362 173c 5831 eb3b ef5f 89bb
00000020: b8a2 6d3c b807 93bc cae5 513c 73d4 af3b
00000030: d596 65bc 4dc7 de3b 982a 96bb 001a 66bb
00000040: ce36 c6bb b509 4abc 95dd dd3a e4ae c3ba
00000050: bc8a 86bb 579b d23b cf87 30bc f509 14bc
00000060: 2368 1ebc 8937 b33a 756a aa3b e03f 7fbb
00000070: 27a3 13bc 85e8 23bc 8a01 7c3c 0cba a53b
00000080: f3aa b1bc e8f3 4bbc 351c c4bb 747a 903b
00000090: bc96 8f3b 0cc7 b73a cbe0 91bb e7af ad3b
000000a0: 7f0a 2fba 6582 7cbb f6ee 0cbc be7d 393c
000000b0: efc2 a3ba b7cb 97bb 9a06 31bc d54c 6c3c
000000c0: c544 a1bb 13b8 443c f7ac c0bb fbf0 2039
000000d0: fb1e 653b e63f 133c 5129 303c 3ac1 87bb
000000e0: 68fa 55bb 7cf0 8bbb 263e caba 154f f739
000000f0: 3b0c cb3b 3b56 80ba 2f6a 393b 1f73 7a3b
00000100: 4449 033a b7df 49bc b417 8bbc 30e2 8dbb
00000110: 57e4 e63b d61c 99bb c5c8 4a3b df62 99bb
00000120: 3d8f e139 67ef a0bb 6abe a93c 7fb2 c3bb
00000130: e166 b23b 8341 b539 b9f1 3c3b 85bf 693c
00000140: fbc8 953b f06d 353c 54e4 c6bb dfb9 503c
00000150: f3c0 403b 650f 373a 883e eb3a 3717 643b
00000160: 4749 143b f322 593c d81c b23a 954c 8d3c
00000170: cfd9 43bc 67a5 863c 1c13 ca3b bf63 91b9
00000180: 68b5 90bc 0d17 163b 4392 88bb c12e be3b
00000190: 6b2a d13b f4fc c1bb c6e6 27bb 544a b83b
000001a0: 0aa1 1cbb 3bcb efba 5423 8c3b 91d2 95bb
000001b0: 3cb2 a9bc 5440 213b b3de 43bc df26 1abc
000001c0: 6f17 eeb9 0d64 50bc 88d0 f0bb a011 e1ba
000001d0: 824d 69bb 539f 8e3b c253 2cbc 2334 523a
000001e0: d872 ff3b 00be bbbb 42f0 6c3a 4be5 073c
000001f0: 9fe1 143c af74 823b c362 a2ba 7752 db3b
