results/ppo/ControlCar/ControlCar-2112.pt (torch, 157471 bytes, 14 tensors)

discrete_act_size_vector f4 [1, 2]
0	0x40400000	3.0
1	0x40400000	3.0

network_body._body_endoder.seq_layers.0.weight f4 [128, 11]
0	0xbec73062	-0.389041
1	0xbe586005	-0.21130379
2	0x3eb3f6ee	0.3514933
3	0xbe2a40ab	-0.16626231
4	0xbe1ef1be	-0.15521905
5	0xbe42462d	-0.18972082
6	0xbd5d9645	-0.054098386
7	0x3ed8cfcd	0.4234604
8	0xbd9eb80e	-0.077499494
9	0xbd81fd0c	-0.06347093
10	0x3f1b1ce8	0.6059098
11	0xbdcf33e3	-0.101173185
12	0x3e45f4aa	0.19331613
13	0x3e915653	0.28386173
14	0xbeb5cd17	-0.35508034
15	0xbebe2ee2	-0.37145144
16	0x3d41754a	0.047230996
17	0x3df73065	0.120697774
18	0xbd30e75c	-0.04318939
19	0x3f0bc1d7	0.5459265
20	0x3e30249e	0.17201468
21	0xbde92079	-0.11383147
22	0x3e070244	0.13184458
23	0xbea74484	-0.3266946
24	0x3d81d2f0	0.06339061
25	0x3db3b2f7	0.08774369
26	0x3e9b7d21	0.30368903
27	0x3ebb4ede	0.36583608
28	0x3d27feea	0.04101459
29	0xbe303c57	-0.17210518
30	0xbec4ef0a	-0.38463622
31	0xbf00eb08	-0.5035863
32	0x3e7add49	0.24498476
33	0xbd35b224	-0.04435934
34	0xbe3aca49	-0.18241228
35	0xbea44b1e	-0.3208856
36	0xbec451c3	-0.3834363
37	0xbe0fcb32	-0.14042357
38	0xbedc9e82	-0.43089682
39	0xbd38b42c	-0.0450937
40	0x3dd555aa	0.1041673
41	0xbdbe3e27	-0.09289198
42	0x3db5fd66	0.088862225
43	0xbdbf8fa0	-0.09353566
44	0xbeb1517a	-0.34632474
45	0x3d3b7a94	0.045771196
46	0xbd4b6c43	-0.049663793
47	0xbea7ce0f	-0.32774398
48	0x3dbdb7f4	0.09263602
49	0xbe89fcb5	-0.26950613
50	0x3e22072d	0.1582305
51	0xbe48aa7c	-0.19596285
52	0x3e0c18a9	0.13681282
53	0xbee65253	-0.44984683
54	0x3ed8c499	0.42337492
55	0x3ec79138	0.3897798
56	0x3e2f0403	0.17091374
57	0x3f2592d3	0.6467716
58	0x3cdbce96	0.026831906
59	0xbe011137	-0.12604223
60	0x3e9a039b	0.30080876
61	0xbd94974b	-0.07255419
62	0x3e9a8752	0.30181366
63	0xbf2609b9	-0.64858586
64	0x3f3a38d8	0.72742987
65	0x3dfb8914	0.12282005
66	0xbe18a8da	-0.14908162
67	0x3e116096	0.14197001
68	0xbe852135	-0.26001897
69	0x3ed274ce	0.4110474
70	0x3e96c815	0.29449525
71	0xbe340d99	-0.17583312
72	0xbebfbc24	-0.37448227
73	0x3c9a58b2	0.018841121
74	0xbdbce6c7	-0.09223705
75	0x3ec80b18	0.39070964
76	0xbeb0dc43	-0.34543046
77	0x3cccc5ff	0.024996756
78	0x3e11f6dc	0.14254326
79	0xbeb504bd	-0.35355178
80	0x3f248b4d	0.64275056
81	0xbee783f3	-0.45217857
82	0xbec9a375	-0.3938252
83	0xbdf93205	-0.121677436
84	0xbdd7509d	-0.10513423
85	0xbe587378	-0.21137798
86	0xbe9f83cd	-0.31155244
87	0xbe9efe35	-0.3105332
88	0x3eeb1f5b	0.4592236
89	0x3e8b3b44	0.27193654
90	0xbdfe6360	-0.12421298
91	0x3f06e188	0.52687883
92	0xbc853e9c	-0.016265206
93	0xbe76674a	-0.24062839
94	0x3e037c12	0.12840298
95	0xbd60415a	-0.054749824
96	0xbc149abd	-0.009070096
97	0xbe89fc4e	-0.26950306
98	0x3dd8369c	0.10557291
99	0x3e965cfb	0.29367813
100	0xbd05a427	-0.03262725
101	0xbbba12d6	-0.005678515
102	0xbe8346c0	-0.25639915
103	0x3f1cbdd6	0.61227167
104	0xbe63826e	-0.22217724
105	0xbe5d0be3	-0.21586566
106	0xbe5672ca	-0.20942226
107	0xbe9eb71c	-0.30999076
108	0x3f18660d	0.5953072
109	0x3eedc280	0.46437454
110	0x3e51d024	0.20489556
111	0xbe11eb09	-0.14249815
112	0xbdebe0df	-0.115175
113	0xbe1f306b	-0.15545814
114	0x3d3f1cdb	0.046658378
115	0xbea5eb85	-0.3240625
116	0xbd9e0b34	-0.077169806
117	0x3debf675	0.11521617
118	0x3e967f5b	0.2939404
119	0x3eebf3f5	0.46084562
120	0x3e7dba3e	0.24778077
121	0xbf1a3d80	-0.6025009
122	0x3b7c2126	0.0038471906
123	0x3eb2dba5	0.349332
124	0x3f0a5988	0.54042864
125	0xbb7314aa	-0.0037091174
126	0xbed35663	-0.41276845
127	0xbe8fb583	-0.2806817
128	0x3c61b912	0.013777034
129	0xbe01d34b	-0.12678258
130	0xbc8dcbf0	-0.017309159
131	0x3e8e5202	0.27796942
132	0xbcc399e9	-0.023877101
133	0xbeb47f18	-0.35253215
134	0xbea67b70	-0.3251605
135	0xba81c681	-0.0009901078
136	0x3e39fc6e	0.181627
137	0xbed44e4e	-0.41465992
138	0x3e8b26bb	0.27177987
139	0xbd7b32db	-0.061327796
140	0xbf3ebfd6	-0.7451147
141	0xbec800f1	-0.39063218
142	0x3e8a3b8a	0.2699855
143	0xbeea5ff5	-0.45776334
144	0xbe20b52b	-0.1569411
145	0x3e886e79	0.26646784
146	0x3d773c83	0.060360443
147	0xbd865084	-0.06558326
148	0x3ef01d2c	0.46897256
149	0x3ee65f61	0.44994643
150	0x3c5bc630	0.013413951
151	0xbda0cc2e	-0.07851444
152	0x3e4b3e26	0.19847926
153	0x3e792b0b	0.24332826
154	0xbeb181fa	-0.34669477
155	0x3e951c33	0.29123077
156	0xbd114a78	-0.03547141
157	0x3eb5152d	0.35367718
158	0xbbb46f62	-0.005506442
159	0x3c2faaf0	0.010721907
160	0x3d9fec0e	0.07808696
161	0xbe39ba72	-0.1813753
162	0xbd9148ec	-0.07093987
163	0xbba11d58	-0.004916828
164	0xbe9b5e6c	-0.30345476
165	0xbdabfdfe	-0.083980545
166	0x3ede2c7d	0.43393317
167	0x3ebb77f7	0.36614963
168	0xbd0af27e	-0.033922665
169	0xbeb4a039	-0.3527849
170	0x3cf0d59b	0.02939873
171	0x3d03d327	0.032183792
172	0x3d0c6be0	0.034282565
173	0x3e9cc323	0.30617628
174	0xbd3291d5	-0.043596108
175	0xbef2074e	-0.47271198
176	0x3e18f7b1	0.14938237
177	0x3d41b384	0.04729034
178	0x3ce8e09a	0.02842741
179	0xbe6ffdb2	-0.23436621
180	0xbea4aeb5	-0.3216454
181	0x3dbdb6c1	0.09263373
182	0xbd29f9b2	-0.041497894
183	0x3f1e7121	0.6189137
184	0xbd5d3b44	-0.0540116
185	0x3e60a28d	0.21937008
186	0xbe42cccf	-0.19023441
187	0x3e32c465	0.17457731
188	0xbd8b65c5	-0.068065204
189	0xbe17c3c9	-0.1482078
190	0x3eadbedc	0.33934677
191	0xbed17d67	-0.40915987
192	0x3be47bd5	0.0069727697
193	0xbf206ddb	-0.62667626
194	0x3e435b36	0.19077763
195	0x3efc2fe6	0.49255294
196	0x3e97e4aa	0.29666644
197	0xba9f5471	-0.0012155903
198	0x3d8d856a	0.06910212
199	0x3ec3e838	0.38263106
200	0x3e88e257	0.26735184
201	0x3f104230	0.56350994
202	0x3e871ca1	0.2638903
203	0x3e1fab8b	0.15592782
204	0x3dde6e53	0.108608864
205	0x3ee0aae4	0.4388038
206	0x3da4dba7	0.08049708
207	0xbe994c20	-0.2994089
208	0x3cb11312	0.021615539
209	0x3e9ad550	0.3024087
210	0x3e10c3d1	0.14137198
211	0x3d95cccc	0.073144525
212	0x3d37d69e	0.04488241
213	0xbdf91274	-0.12161723
214	0xbd9e6129	-0.077333756
215	0xbbbaff76	-0.005706723
216	0x3d22345e	0.039600722
217	0x3e65b6de	0.2243304
218	0x3edf11a5	0.4356815
219	0x3eab20e7	0.3342354
220	0x3c62aa0c	0.013834488
221	0xbce7462b	-0.0282317
222	0x3ee981d8	0.45606875
223	0x3e257093	0.16156225
224	0xbed9c755	-0.4253489
225	0xbe2b073d	-0.1670198
226	0x3e385877	0.18002497
227	0xbeb48089	-0.35254315
228	0x3e6b3188	0.22968113
229	0x3df0f8d1	0.11766208
230	0x3e44f0fb	0.19232552
231	0x3ca515ee	0.020152058
232	0xbef22f46	-0.47301692
233	0xbe0508f7	-0.12991701
234	0xbe4aa5df	-0.19789837
235	0x3ea99091	0.33118108
236	0xbe7c9d5f	-0.24669407
237	0x3f428ae0	0.75993156
238	0x3f036562	0.5132657
239	0xbe14c7cb	-0.1452934
240	0x3d9f2e4e	0.07772504
241	0xbe9a8a6f	-0.3018374
242	0x3dd707d6	0.104995415
243	0x3e20a8ac	0.15689343
244	0x3e9eafd1	0.30993512
245	0x3e926193	0.28590068
246	0x3dea2f06	0.1143475
247	0xbe130879	-0.14358701
248	0xbecfaf12	-0.40563256
249	0xbee84935	-0.45368353
250	0x3cc08b75	0.023503998
251	0xbcdef350	-0.02721563
252	0xbeb1c018	-0.34716868
253	0xbe852767	-0.26006624
254	0x3ecbf388	0.39834237
255	0xbe974e97	-0.29552147

network_body._body_endoder.seq_layers.0.bias f4 [128]
0	0x00000000	0.0
1	0x00000000	0.0
2	0x00000000	0.0
3	0x00000000	0.0
4	0x00000000	0.0
5	0x00000000	0.0
6	0x00000000	0.0
7	0x00000000	0.0
8	0x00000000	0.0
9	0x00000000	0.0
10	0x00000000	0.0
11	0x00000000	0.0
12	0x00000000	0.0
13	0x00000000	0.0
14	0x00000000	0.0
15	0x00000000	0.0
16	0x00000000	0.0
17	0x00000000	0.0
18	0x00000000	0.0
19	0x00000000	0.0
20	0x00000000	0.0
21	0x00000000	0.0
22	0x00000000	0.0
23	0x00000000	0.0
24	0x00000000	0.0
25	0x00000000	0.0
26	0x00000000	0.0
27	0x00000000	0.0
28	0x00000000	0.0
29	0x00000000	0.0
30	0x00000000	0.0
31	0x00000000	0.0
32	0x00000000	0.0
33	0x00000000	0.0
34	0x00000000	0.0
35	0x00000000	0.0
36	0x00000000	0.0
37	0x00000000	0.0
38	0x00000000	0.0
39	0x00000000	0.0
40	0x00000000	0.0
41	0x00000000	0.0
42	0x00000000	0.0
43	0x00000000	0.0
44	0x00000000	0.0
45	0x00000000	0.0
46	0x00000000	0.0
47	0x00000000	0.0
48	0x00000000	0.0
49	0x00000000	0.0
50	0x00000000	0.0
51	0x00000000	0.0
52	0x00000000	0.0
53	0x00000000	0.0
54	0x00000000	0.0
55	0x00000000	0.0
56	0x00000000	0.0
57	0x00000000	0.0
58	0x00000000	0.0
59	0x00000000	0.0
60	0x00000000	0.0
61	0x00000000	0.0
62	0x00000000	0.0
63	0x00000000	0.0
64	0x00000000	0.0
65	0x00000000	0.0
66	0x00000000	0.0
67	0x00000000	0.0
68	0x00000000	0.0
69	0x00000000	0.0
70	0x00000000	0.0
71	0x00000000	0.0
72	0x00000000	0.0
73	0x00000000	0.0
74	0x00000000	0.0
75	0x00000000	0.0
76	0x00000000	0.0
77	0x00000000	0.0
78	0x00000000	0.0
79	0x00000000	0.0
80	0x00000000	0.0
81	0x00000000	0.0
82	0x00000000	0.0
83	0x00000000	0.0
84	0x00000000	0.0
85	0x00000000	0.0
86	0x00000000	0.0
87	0x00000000	0.0
88	0x00000000	0.0
89	0x00000000	0.0
90	0x00000000	0.0
91	0x00000000	0.0
92	0x00000000	0.0
93	0x00000000	0.0
94	0x00000000	0.0
95	0x00000000	0.0
96	0x00000000	0.0
97	0x00000000	0.0
98	0x00000000	0.0
99	0x00000000	0.0
100	0x00000000	0.0
101	0x00000000	0.0
102	0x00000000	0.0
103	0x00000000	0.0
104	0x00000000	0.0
105	0x00000000	0.0
106	0x00000000	0.0
107	0x00000000	0.0
108	0x00000000	0.0
109	0x00000000	0.0
110	0x00000000	0.0
111	0x00000000	0.0
112	0x00000000	0.0
113	0x00000000	0.0
114	0x00000000	0.0
115	0x00000000	0.0
116	0x00000000	0.0
117	0x00000000	0.0
118	0x00000000	0.0
119	0x00000000	0.0
120	0x00000000	0.0
121	0x00000000	0.0
122	0x00000000	0.0
123	0x00000000	0.0
124	0x00000000	0.0
125	0x00000000	0.0
126	0x00000000	0.0
127	0x00000000	0.0

network_body._body_endoder.seq_layers.2.weight f4 [128, 128]
0	0xbd2ccdd3	-0.042188477
1	0xbc21afd8	-0.009868585
2	0x3e6aba2f	0.22922586
3	0xbca484fc	-0.020082943
4	0x3d9c6690	0.0763675
5	0xbdc4d2fd	-0.09610555
6	0x3d20b8fa	0.039238907
7	0xbd9bcdb8	-0.07607597
8	0xbd45a71d	-0.048255075
9	0x3d05cc70	0.03266567
10	0xbde2ea04	-0.11079791
11	0xbd3362f3	-0.043795537
12	0x3e02de39	0.12780084
13	0x3d9a26c6	0.07526927
14	0x3e7f1aaa	0.24912515
15	0xbda0970b	-0.07841309
16	0x3d90a7c3	0.07063248
17	0x3e4037a2	0.18771222
18	0xbd56fcff	-0.05248737
19	0x3cff3350	0.031152397
20	0x3e295ac8	0.16538537
21	0x3d59c86d	0.053169657
22	0xbe2e2642	-0.17006782
23	0x3d103e2f	0.035215553
24	0xbbadd0b0	-0.0053044185
25	0x3c9d09ca	0.019169707
26	0xbdeaf9c0	-0.11473417
27	0xbd5d2cdb	-0.053997856
28	0x3d327b25	0.04357447
29	0x3c0730d9	0.008251392
30	0xbe196187	-0.1497861
31	0xbe0ee945	-0.13956173
32	0xbd4a428d	-0.049379874
33	0xbd1c7fde	-0.03820788
34	0x3d8db683	0.06919577
35	0x3c91c7f2	0.017795537
36	0x3d84e2b4	0.06488553
37	0x3b4061ca	0.0029355162
38	0x3df3ad8a	0.11898334
39	0x3e62615f	0.22107457
40	0x3d4e66ad	0.050390888
41	0x3d6aa0ed	0.057282377
42	0x3d27999f	0.04091799
43	0x3e10ca03	0.14139561
44	0x3d9db7b9	0.07701058
45	0x3d6f9041	0.05848718
46	0xbdb1563e	-0.086590275
47	0xbd34c6cc	-0.0441349
48	0x3d195533	0.037434768
49	0xbe88c3ae	-0.26711792
50	0x3bb46cb8	0.0055061243
51	0x3cbc9a5c	0.023022823
52	0x3c2331ab	0.009960572
53	0xbd744875	-0.059639413
54	0xbdad20ee	-0.084535465
55	0xbd0c82d3	-0.03430445
56	0xbdc5f6c7	-0.0966621
57	0xbd8f507c	-0.06997773
58	0xbdeab4c5	-0.1146026
59	0xbe4c156f	-0.19930051
60	0x3e282124	0.16418892
61	0xbd6e3a2b	-0.058160942
62	0x3dc3b2db	0.09555598
63	0xbbf52694	-0.0074814055
64	0xbe043c40	-0.12913609
65	0xbd8afa7c	-0.06786057
66	0x3d2a42b7	0.04156753
67	0xbcadb524	-0.021204539
68	0xbd49c1c8	-0.04925707
69	0xbdd3e29d	-0.103459574
70	0x3dbb1b1f	0.09136032
71	0xbd9a1e43	-0.07525303
72	0x3c95e188	0.018296018
73	0x3dbecbc5	0.0931621
74	0x3cb44c73	0.02200911
75	0xbe21d014	-0.15802032
76	0x3d81a5d1	0.06330455
77	0xbd05666b	-0.032568377
78	0x3c017426	0.007901227
79	0xbd41fa1f	-0.047357675
80	0x3d094c9e	0.033520333
81	0xbd87ef7e	-0.066374764
82	0xbd34b10b	-0.044114154
83	0x3e0af31c	0.13569301
84	0xbdcecb74	-0.10097399
85	0xbe3f5f2b	-0.18688647
86	0x3d8b8a51	0.06813491
87	0xbdc5f488	-0.09665781
88	0xbd200694	-0.039068773
89	0xbe3ac9e8	-0.18241084
90	0xbcc02f7d	-0.023460144
91	0xbdf11d29	-0.1177314
92	0xbd4edf79	-0.05050609
93	0x3de90622	0.11378123
94	0x3d75456e	0.059880666
95	0xbcc88b51	-0.024480494
96	0xbd830eb7	-0.06399291
97	0xbd6ed872	-0.058311887
98	0xbcafaa9d	-0.02144366
99	0xbd3fa230	-0.046785533
100	0x3dc8f66e	0.09812628
101	0x3ce50d48	0.027960435
102	0xbc28559b	-0.010274316
103	0xbddf2713	-0.10896125
104	0x3d539104	0.05165197
105	0x3d92b61c	0.07163641
106	0x3cda8205	0.026673326
107	0x3d345693	0.044027876
108	0xbd368350	-0.044558823
109	0x3d1d5be5	0.038417716
110	0xbdf5c939	-0.12001271
111	0xbd8ad4e8	-0.0677889
112	0x3e53c367	0.20680009
113	0xbc74dca9	-0.014945188
114	0x3d25dcdf	0.040493842
115	0x3dd26c1b	0.10274526
116	0xbe3acf06	-0.18243036
117	0xbdbe5ae3	-0.09294679
118	0x3d6ae121	0.057343606
119	0xbd5568fa	-0.052102067
120	0xbc296e37	-0.010341219
121	0x3da0f029	0.07858307
122	0x38932802	7.016958e-05
123	0xbd28208e	-0.04104667
124	0x3caacdc9	0.02085008
125	0xbd9833c9	-0.07431752
126	0x3db94854	0.090469986
127	0xbe144baf	-0.14481996
128	0x3d2642db	0.040591102
129	0x3cdcb0f9	0.026939856
130	0xbd7f6157	-0.06234869
131	0x3dd6d1c7	0.104892306
132	0x3c16bd30	0.009200379
133	0x3dbb269e	0.09138225
134	0xbdae9d01	-0.0852604
135	0x3dee2563	0.11628225
136	0xbcb17bf9	-0.02166556
137	0x3d339788	0.043845683
138	0xbde61a53	-0.1123549
139	0xbd98e3e9	-0.074653454
140	0x3d4195d8	0.047262043
141	0xbd4b24d7	-0.04959568
142	0x3dfd2b53	0.12361779
143	0x3d4de662	0.05026854
144	0xbd8c6f8a	-0.06857212
145	0x3cc429b3	0.023945665
146	0xbdf2c834	-0.11854592
147	0xbcc404af	-0.023928015
148	0x3d0010ec	0.031266138
149	0x3c20bc49	0.009810516
150	0xbd91825b	-0.071049415
151	0x3e04961f	0.12947892
152	0x3c284e2b	0.010272543
153	0x3e26ffda	0.16308537
154	0x3cc5702b	0.024101337
155	0xbe2c57c5	-0.16830356
156	0x3d4fc808	0.050727874
157	0xbdab5da3	-0.08367469
158	0x3da883c2	0.08228256
159	0x3da16dc1	0.07882262
160	0x3e05ba1a	0.13059273
161	0xbd45ef15	-0.04832371
162	0x3d4dc8c9	0.05024031
163	0xbce752fa	-0.028237808
164	0x3d68bd79	0.05682132
165	0x3c9ba753	0.019000685
166	0xbe1b84fa	-0.15187445
167	0xbd78dcbd	-0.060757387
168	0x3ddbccfa	0.107324556
169	0xbdf989bc	-0.12184474
170	0x3c2db58a	0.010602364
171	0x3cb7b709	0.022426145
172	0xbc1c01c3	-0.009521904
173	0xbe13e2fe	-0.1444206
174	0x3e89c972	0.26911503
175	0x3dc9f5a9	0.09861309
176	0x3dca7ed3	0.09887471
177	0x3d31ddb0	0.04342431
178	0xbd761300	-0.060076714
179	0xbccd2d84	-0.025046118
180	0x3d1b0ef2	0.03785605
181	0xbdfe33eb	-0.12412246
182	0x3e0507f5	0.12991317
183	0xbe36c492	-0.17848423
184	0x3e1b9284	0.1519261
185	0xbdce7b0e	-0.100820646
186	0xbdf97266	-0.12180023
187	0x3d10eea7	0.035383847
188	0x3d4b9374	0.04970117
189	0x3cf408c7	0.029789342
190	0xbd204969	-0.03913251
191	0xbc9f927a	-0.019479025
192	0x3d998064	0.07495192
193	0x3d2ba869	0.041908655
194	0xbc93c023	-0.018035954
195	0xbc5206f2	-0.012819039
196	0x3e836fcf	0.2567124
197	0xbe311f02	-0.17296985
198	0xbd7bd846	-0.06148555
199	0xbe1c6b3c	-0.15275282
200	0xbd970a44	-0.07375005
201	0xbda44430	-0.08020818
202	0x3c3c8a3b	0.011507566
203	0x3e7e2789	0.24819769
204	0x3c7676e8	0.015042998
205	0x3e24f256	0.16108069
206	0x3cdee5f5	0.027209261
207	0xbdd67f6c	-0.104735225
208	0x3da8bc3e	0.08239029
209	0xbd6eb0e7	-0.058274176
210	0x3dc52f26	0.096281335
211	0x3c61ae75	0.013774504
212	0x3cb86f3e	0.022513982
213	0x3e08eb2f	0.13370965
214	0x3bc4d36f	0.00600665
215	0x3d83bcf0	0.06432521
216	0xbe6cc46e	-0.23121807
217	0x3d990a41	0.07472659
218	0xbe1c3448	-0.15254319
219	0xbddd7dbb	-0.10814997
220	0xbb70ae84	-0.0036725113
221	0xbe433cb1	-0.1906612
222	0x3c06b4cc	0.008221816
223	0xbd75756e	-0.059926443
224	0x3d30f5a5	0.043203015
225	0x3d2d286e	0.042274885
226	0xbb3645d8	-0.0027812626
227	0xbd953986	-0.07286362
228	0xbe1c5d39	-0.15269937
229	0xbdd1dabf	-0.10246801
230	0x3d969343	0.07352307
231	0x3cad472c	0.021152101
232	0x3d3c25f7	0.045934644
233	0x3db9b7cc	0.090682596
234	0x3d3040ca	0.043030538
235	0xbc48bf36	-0.0122526195
236	0x3cfa9cde	0.030592378
237	0xbcf9ceae	-0.03049406
238	0xbdbfc398	-0.093634784
239	0xbc0b5ca6	-0.008505976
240	0xbd451bef	-0.048122343
241	0x3cec1bbc	0.028821819
242	0x3cb2c584	0.021822698
243	0xbda074ca	-0.07834776
244	0x3dc85741	0.09782267
245	0xbc1cb426	-0.009564435
246	0xbc910266	-0.017701339
247	0x3d604d2f	0.054761108
248	0xbda35931	-0.07975996
249	0x3cebd023	0.02878577
250	0x3d68f10e	0.056870513
251	0x3cbf0670	0.0233185
252	0x3c99ad4b	0.01875939
253	0x3c7f9d24	0.01560143
254	0x3dad66a5	0.084668435
255	0x3dadcd0b	0.084863745

network_body._body_endoder.seq_layers.2.bias f4 [128]
0	0x00000000	0.0
1	0x00000000	0.0
2	0x00000000	0.0
3	0x00000000	0.0
4	0x00000000	0.0
5	0x00000000	0.0
6	0x00000000	0.0
7	0x00000000	0.0
8	0x00000000	0.0
9	0x00000000	0.0
10	0x00000000	0.0
11	0x00000000	0.0
12	0x00000000	0.0
13	0x00000000	0.0
14	0x00000000	0.0
15	0x00000000	0.0
16	0x00000000	0.0
17	0x00000000	0.0
18	0x00000000	0.0
19	0x00000000	0.0
20	0x00000000	0.0
21	0x00000000	0.0
22	0x00000000	0.0
23	0x00000000	0.0
24	0x00000000	0.0
25	0x00000000	0.0
26	0x00000000	0.0
27	0x00000000	0.0
28	0x00000000	0.0
29	0x00000000	0.0
30	0x00000000	0.0
31	0x00000000	0.0
32	0x00000000	0.0
33	0x00000000	0.0
34	0x00000000	0.0
35	0x00000000	0.0
36	0x00000000	0.0
37	0x00000000	0.0
38	0x00000000	0.0
39	0x00000000	0.0
40	0x00000000	0.0
41	0x00000000	0.0
42	0x00000000	0.0
43	0x00000000	0.0
44	0x00000000	0.0
45	0x00000000	0.0
46	0x00000000	0.0
47	0x00000000	0.0
48	0x00000000	0.0
49	0x00000000	0.0
50	0x00000000	0.0
51	0x00000000	0.0
52	0x00000000	0.0
53	0x00000000	0.0
54	0x00000000	0.0
55	0x00000000	0.0
56	0x00000000	0.0
57	0x00000000	0.0
58	0x00000000	0.0
59	0x00000000	0.0
60	0x00000000	0.0
61	0x00000000	0.0
62	0x00000000	0.0
63	0x00000000	0.0
64	0x00000000	0.0
65	0x00000000	0.0
66	0x00000000	0.0
67	0x00000000	0.0
68	0x00000000	0.0
69	0x00000000	0.0
70	0x00000000	0.0
71	0x00000000	0.0
72	0x00000000	0.0
73	0x00000000	0.0
74	0x00000000	0.0
75	0x00000000	0.0
76	0x00000000	0.0
77	0x00000000	0.0
78	0x00000000	0.0
79	0x00000000	0.0
80	0x00000000	0.0
81	0x00000000	0.0
82	0x00000000	0.0
83	0x00000000	0.0
84	0x00000000	0.0
85	0x00000000	0.0
86	0x00000000	0.0
87	0x00000000	0.0
88	0x00000000	0.0
89	0x00000000	0.0
90	0x00000000	0.0
91	0x00000000	0.0
92	0x00000000	0.0
93	0x00000000	0.0
94	0x00000000	0.0
95	0x00000000	0.0
96	0x00000000	0.0
97	0x00000000	0.0
98	0x00000000	0.0
99	0x00000000	0.0
100	0x00000000	0.0
101	0x00000000	0.0
102	0x00000000	0.0
103	0x00000000	0.0
104	0x00000000	0.0
105	0x00000000	0.0
106	0x00000000	0.0
107	0x00000000	0.0
108	0x00000000	0.0
109	0x00000000	0.0
110	0x00000000	0.0
111	0x00000000	0.0
112	0x00000000	0.0
113	0x00000000	0.0
114	0x00000000	0.0
115	0x00000000	0.0
116	0x00000000	0.0
117	0x00000000	0.0
118	0x00000000	0.0
119	0x00000000	0.0
120	0x00000000	0.0
121	0x00000000	0.0
122	0x00000000	0.0
123	0x00000000	0.0
124	0x00000000	0.0
125	0x00000000	0.0
126	0x00000000	0.0
127	0x00000000	0.0

action_model._discrete_distribution.branches.0.weight f4 [3, 128]
0	0xbbc19085	-0.0059071206
1	0xbc190010	-0.009338394
2	0x3bf7b67b	0.007559595
3	0xbbf391fd	-0.0074331746
4	0x3c02583b	0.007955606
5	0xbca8cccf	-0.020605473
6	0xbc573b48	-0.013136692
7	0xbb0caaa5	-0.0021464017
8	0x3c45dc66	0.012076473
9	0xbc2c0e53	-0.010501462
10	0xbc1faf67	-0.009746409
11	0xba89f7fc	-0.0010526176
12	0x3c84e497	0.016222281
13	0xbaff367a	-0.0019471191
14	0x3c45c34a	0.012070486
15	0x3c3a4a8c	0.011370312
16	0xbc20426b	-0.00978146
17	0x3addafbf	0.0016913338
18	0x3bcef78a	0.00631613
19	0x3bcb2d9f	0.006200507
20	0x3bcccbcb	0.00624988
21	0xbb96c69b	-0.0046013123
22	0xbc2270f7	-0.009914628
23	0x3c3a7e7d	0.011382696
24	0xbc0098ee	-0.007848961
25	0x3bc21e04	0.0059239883
26	0x3c6f93a3	0.014622602
27	0x3c067ebd	0.008208928
28	0x3c0f709e	0.008754877
29	0xbbed3aa5	-0.007239657
30	0xb9ab884f	-0.0003271722
31	0xbb504620	-0.003178008
32	0xbb39a3d1	-0.0028326402
33	0xbbdff630	-0.0068347678
34	0x3b92fc9d	0.0044856803
35	0xbc49da0d	-0.012320054
36	0x3a7efea0	0.0009727273
37	0x3a9c710b	0.0011935545
38	0xbb502475	-0.0031760011
39	0x3c45a95c	0.012064304
40	0xbc96551b	-0.018351128
41	0xbb4fc278	-0.0031701606
42	0xba224bff	-0.0006191134
43	0x3ba07e39	0.0048978594
44	0xbc2a0cb5	-0.010379006
45	0xbb31d768	-0.0027136449
46	0x3ced57ad	0.028972471
47	0xbc2ae87c	-0.010431405
48	0x3bcc44b5	0.0062337765
49	0x3bed65bd	0.007244794
50	0xba9fbd33	-0.0012187123
51	0x3c091ceb	0.008368711
52	0x3992f27b	0.00028027952
53	0x3b80164d	0.0039089085
54	0x3bb26734	0.0054444317
55	0x3a897800	0.0010488033
56	0x3b0af664	0.002120399
57	0x3c074d66	0.008258199
58	0xbc849884	-0.016186006
59	0x3b5d07da	0.0033726604
60	0x3b55ed20	0.0032642558
61	0xbc0cfd64	-0.008605335
62	0x3c242553	0.010018664
63	0x3b9ad80f	0.004725463
64	0xbc3d90fe	-0.011570213
65	0xbb197173	-0.0023413568
66	0xbc1b4737	-0.009477428
67	0x3bc504cf	0.006012536
68	0x3afeeba0	0.0019448884
69	0xbb6f8817	-0.0036549622
70	0x3a918e7e	0.0011105088
71	0x3c3c1587	0.011479742
72	0x3b76bb5a	0.0037648291
73	0x3b5df0bd	0.0033865415
74	0xbc3d7554	-0.011563618
75	0x39b5780d	0.00034612455
76	0xbb18b2d7	-0.0023299956
77	0xbc458b3a	-0.01205712
78	0x3ca85043	0.020546084
79	0xbbe7e7c3	-0.0070771887
80	0xbb40dba4	-0.002942779
81	0xbb10f43c	-0.0022118231
82	0xbc6ebda3	-0.01457158
83	0x3b97c93b	0.004632143
84	0x3a358fe7	0.0006926045
85	0x3caa0192	0.020752702
86	0x3b7038d0	0.0036654957
87	0x3c09b2cf	0.008404448
88	0xbc3719cf	-0.011175587
89	0x38f375d7	0.00011609092
90	0x3c2e5de1	0.0106425
91	0xbb37290c	-0.002794805
92	0xbba2ce1e	-0.0049684187
93	0xbb9ee4ce	-0.004849053
94	0x3aaec7e1	0.0013334715
95	0x3bb1b1c7	0.005422804
96	0x3c158eda	0.009128297
97	0x3c101ebb	0.008796389
98	0xbba4b02c	-0.005025884
99	0xbaafdb18	-0.0013416735
100	0x3b67647d	0.0035307698
101	0x3c0ff774	0.008787025
102	0xbbbb1a43	-0.0057099178
103	0xba01cda6	-0.00049516035
104	0x3af1f430	0.0018459614
105	0xbba9ae39	-0.0051782397
106	0x3a5b3913	0.0008362692
107	0x3ad7db78	0.0016468605
108	0x39b42593	0.0003436027
109	0x3ba0fb14	0.0049127433
110	0x3c42a289	0.011879572
111	0x3be1ec47	0.0068946215
112	0x3c01f3a8	0.007931627
113	0x3c22a34b	0.009926627
114	0xbbe3e12f	-0.006954334
115	0xbb823b8a	-0.0039743828
116	0xbc91c4ff	-0.01779413
117	0xbbc7c619	-0.006096613
118	0xbbb3a0dd	-0.005481823
119	0xbc8077bf	-0.0156821
120	0xbaa36c69	-0.0012468222
121	0x3bb52a5d	0.0055287317
122	0x3b194724	0.002338835
123	0xbb75dc32	-0.003751528
124	0x3b731040	0.0037088543
125	0x3a292df3	0.00064536853
126	0x3ac0c383	0.0014706705
127	0x3b123ff5	0.0022315953
128	0xbba849bb	-0.0051357425
129	0xbbecbaad	-0.007224402
130	0x3c736d0b	0.014857541
131	0xbbdeafb5	-0.0067958483
132	0x3c28566c	0.010274511
133	0x3c4c3417	0.012463591
134	0xbaaeaca4	-0.0013326597
135	0xbaddf54d	-0.0016934067
136	0xbc4c1817	-0.012456915
137	0x37e59dbf	2.7372384e-05
138	0x3bae5c71	0.0053210785
139	0x3c2fae8e	0.010722769
140	0xbc664672	-0.014054881
141	0x3b2dc471	0.0026514793
142	0x3c127268	0.008938409
143	0x3ae8dd83	0.0017766211
144	0x3bce12fa	0.0062888833
145	0xbbd84a67	-0.0066006663
146	0xbc065edf	-0.00820133
147	0xbc4c9786	-0.012487298
148	0xb9e4c90a	-0.00043637335
149	0x3c4f1203	0.012638572
150	0xbb1f2277	-0.0024282017
151	0xbbda05d2	-0.006653526
152	0xbc07d283	-0.008289936
153	0x3bb02ca8	0.005376417
154	0xbc0d41e2	-0.008621665
155	0xbba66717	-0.0050782072
156	0xbc5d0360	-0.013489574
157	0xbc9a4a58	-0.018834278
158	0xbc4d68bf	-0.01253718
159	0x3b9521fc	0.0045511704
160	0xb9167882	-0.00014350007
161	0xbc8bb3a8	-0.01705344
162	0x3b749f7a	0.00373265
163	0x3c92755e	0.01787823
164	0x3b151c61	0.002275251
165	0x3c37c2df	0.0112158945
166	0xbc8df79d	-0.017329985
167	0x3b490dfc	0.0030678501
168	0xb94d7a10	-0.00019595795
169	0xbb85c7ee	-0.0040826714
170	0x3bd74c2d	0.00657036
171	0x3c353aad	0.011061353
172	0x3c96829f	0.018372832
173	0xbc38304f	-0.011241986
174	0x3b8404eb	0.0040289066
175	0xbbc10d15	-0.005891452
176	0xbc5ebb37	-0.01359444
177	0xbc7e93d5	-0.015538176
178	0xbc4072c1	-0.011746109
179	0xbc0d7803	-0.00863457
180	0xbb8ef296	-0.0043624146
181	0x3bb191e6	0.005419004
182	0xbbf4f9e5	-0.007476079
183	0x3c1c8f07	0.009555585
184	0x3adde5ef	0.0016929487
185	0xbbd1ec72	-0.0064063603
186	0x3c4c9e31	0.012488888
187	0x3c089c28	0.008338012
188	0x3b9589ae	0.004563532
189	0xbb83706b	-0.004011204
190	0xbbad4033	-0.005287194
191	0xbb23f932	-0.0025020358
192	0xbae3d680	-0.0017382652
193	0x3ae3d65b	0.0017382608
194	0xbc82abbe	-0.015951034
195	0xbac98533	-0.001537478
196	0xbb8c6f71	-0.004285746
197	0xbc30d49b	-0.010792877
198	0xbc64b718	-0.013959669
199	0xb9f98ba8	-0.00047597033
200	0xbbb256a5	-0.0054424577
201	0x3c2a96f3	0.010411966
202	0xbb1f73e7	-0.0024330558
203	0xbbc0101f	-0.005861297
204	0xbb8641b6	-0.004097189
205	0x3c0917d9	0.008367502
206	0xbb82d570	-0.003992729
207	0x3c64be6b	0.013961415
208	0xbb0ba98f	-0.0021310782
209	0xba8022ff	-0.0009776055
210	0x3c7d9e5b	0.015479649
211	0x3b2ba913	0.0026193305
212	0xbb530078	-0.0032196324
213	0x3b814fc3	0.003946276
214	0x3a2f252b	0.00066812587
215	0x3bf47eba	0.007461396
216	0xbbc70722	-0.0060738483
217	0x3b86accf	0.004109956
218	0xbc078381	-0.008271099
219	0xbc513d9b	-0.012771036
220	0xbb111030	-0.0022134893
221	0xbb46862c	-0.0030292375
222	0xbb9a6e2f	-0.004712842
223	0xbc4893c3	-0.01224226
224	0xbab8e569	-0.0014106455
225	0x3b67d657	0.003537556
226	0xbaf48420	-0.0018655099
227	0x3ae366ea	0.0017349396
228	0x3ac71e5a	0.0015191541
229	0x3b305f3c	0.0026912233
230	0xbc18b503	-0.0093205
231	0x3c1c4a44	0.009539191
232	0x3bca0de8	0.0061662085
233	0x3a8db6ce	0.0010811926
234	0xbc11250f	-0.008858933
235	0x3bb266ec	0.005444398
236	0xbc7d6f3f	-0.015468418
237	0xba01ed7f	-0.0004956349
238	0xbc01e85a	-0.007928932
239	0xbca89859	-0.020580458
240	0xbaa3f56f	-0.0012509058
241	0x3a9d4775	0.0011999445
242	0x3aecfd3f	0.0018080844
243	0x3ac3aee7	0.0014929444
244	0xbc975770	-0.01847431
245	0x3be95cb8	0.0071216486
246	0x3c984a3a	0.018590081
247	0x3c8b5ed5	0.017012993
248	0xbc4240a2	-0.01185623
249	0xbbb3bcd6	-0.0054851575
250	0xbc2ee47f	-0.010674595
251	0x3addcdb8	0.0016922271
252	0x3a97e100	0.0011587441
253	0x3c567afd	0.013090846
254	0x3c20ab0b	0.009806405
255	0x3b885beb	0.004161348

action_model._discrete_distribution.branches.0.bias f4 [3]
0	0x00000000	0.0
1	0x00000000	0.0
2	0x00000000	0.0

action_model._discrete_distribution.branches.1.weight f4 [3, 128]
0	0x3c33037c	0.010926124
1	0x398cddcb	0.0002686813
2	0x3bca4cf8	0.006173726
3	0xbbd121eb	-0.006382217
4	0x3c60a86f	0.013712033
5	0xbb2eead4	-0.0026690261
6	0x3b1eb716	0.0024218014
7	0x3c846062	0.01615924
8	0xbb1710dd	-0.0023050823
9	0x3a7ea2b8	0.0009713578
10	0xbc1a56ab	-0.009420077
11	0x3c38a0c1	0.0112687955
12	0xbb717e90	-0.0036849119
13	0x3a8d4494	0.0010777884
14	0xbb96e599	-0.004605007
15	0xbb2f9205	-0.0026789915
16	0x39cec0a2	0.00039434904
17	0x3c4fa307	0.012673146
18	0xbbe1b898	-0.0068884604
19	0x3c11fe79	0.008910769
20	0xbc311c1f	-0.010809927
21	0x3bdd4e5d	0.0067537264
22	0x3b51e06a	0.003202463
23	0xbcba16cb	-0.022715947
24	0xbc5461f0	-0.012962803
25	0xb94c5e46	-0.00019490076
26	0x3c02ee1f	0.007991343
27	0x3a980421	0.001159791
28	0x3afc0677	0.0019228001
29	0x3c29a506	0.010354286
30	0x3bbe8a4a	0.005814825
31	0xbc0856c2	-0.008321466
32	0x3a014699	0.00049314793
33	0x3ac4f80b	0.0015027536
34	0xbbd4dae7	-0.0064958218
35	0x3a6dd300	0.0009072274
36	0x3b7048d2	0.0036664498
37	0xba816ff2	-0.0009875281
38	0xbc064f9f	-0.008197694
39	0xba1c9c99	-0.00059742626
40	0xba1090c3	-0.0005514735
41	0xbbb15755	-0.005412022
42	0x3cab6cd5	0.020925919
43	0x3ba157fb	0.004923818
44	0x3b87000f	0.00411988
45	0x3c2079b8	0.009794645
46	0x3cb81d8d	0.022475028
47	0xbc834784	-0.016025312
48	0xbc3465a9	-0.011010566
49	0x3c0eedb3	0.008723664
50	0xbb740e8d	-0.0037240118
51	0xbb144a58	-0.002262732
52	0x3c046e60	0.008082956
53	0xbb745853	-0.003728409
54	0x3c0917d7	0.0083675
55	0xb7bbe3a3	-2.2398139e-05
56	0x3c0ea417	0.008706114
57	0x3a973162	0.0011535103
58	0xbab60497	-0.0013886866
59	0xbbdebdcd	-0.0067975284
60	0x3a3de31e	0.0007243621
61	0xbbeddb77	-0.0072588283
62	0x3b89089f	0.004181936
63	0xbc5d15eb	-0.013493995
64	0x3b63adc7	0.003474103
65	0x3c0cd6a3	0.008596095
66	0x3908c81d	0.00013044519
67	0x3b103dd2	0.0022009504
68	0x3c124187	0.008926756
69	0xbbae70fc	-0.0053235274
70	0x3c26d961	0.010183663
71	0x3b0fa367	0.0021917464
72	0xbbe15980	-0.0068771243
73	0x3bb6346f	0.00556045
74	0xbbeaa955	-0.007161299
75	0xbcabd83b	-0.02097713
76	0x3ae41dea	0.0017403935
77	0xbbd320c0	-0.006443113
78	0xbc39f617	-0.011350176
79	0xbc334428	-0.010941543
80	0x3b10016b	0.0021973501
81	0xbb8b2f73	-0.0042475997
82	0xbc79d180	-0.015247703
83	0xbab483ed	-0.0013772227
84	0xba240187	-0.0006256331
85	0x3b47608b	0.0030422534
86	0x3c859bd4	0.016309656
87	0xbba4787f	-0.005019247
88	0x3c394f8f	0.011310472
89	0x3ab83529	0.0014053929
90	0xbbc60216	-0.006042729
91	0x3c04d033	0.008106279
92	0xbc3b45e8	-0.011430241
93	0xbc0ba798	-0.008523844
94	0x3c9d18fe	0.019176956
95	0xbb152ef8	-0.0022763591
96	0xb981f7ef	-0.00024789522
97	0x3c564fdb	0.013080562
98	0x3c0d270d	0.008615267
99	0xbb042c19	-0.0020167886
100	0x3a44e0cc	0.0007510304
101	0x3b6f5265	0.0036517617
102	0xbc070a3c	-0.008242186
103	0xbb999baf	-0.0046877484
104	0xbb5d5a3d	-0.003377571
105	0x3bfc438d	0.0076984824
106	0x3ae61b90	0.0017555822
107	0x3b657397	0.0035011524
108	0x3ba0d0b7	0.0049076932
109	0x3b95b776	0.0045689894
110	0xbb87dea3	-0.0041464134
111	0xbad1464d	-0.0015966386
112	0xbb21a6fe	-0.0024666185
113	0x3b4972df	0.0030738635
114	0x3b10bc23	0.0022084794
115	0x3b91285f	0.0044298614
116	0x3bac3987	0.005255881
117	0xbc2bad8e	-0.01047839
118	0xb9bea5e1	-0.00036363213
119	0x3c9cdd52	0.019148502
120	0xbb58889d	-0.0033040412
121	0x3c4756eb	0.012166719
122	0x3ca8bcf9	0.020597922
123	0xb9987ced	-0.00029084776
124	0xbc3edf19	-0.01164987
125	0xbbfb6a37	-0.007672574
126	0xbaa356df	-0.0012461803
127	0x3c79c8fd	0.015245673
128	0xbbcc40cd	-0.006233311
129	0xbbb3fd10	-0.005492814
130	0x3bd45030	0.0064792857
131	0xbbc1acdb	-0.0059104986
132	0xbbc021c3	-0.0058633997
133	0xbc7cca85	-0.015429144
134	0xbbba34c5	-0.00568256
135	0x3bb6deb5	0.005580748
136	0x3c38882e	0.0112629365
137	0xbb2d0188	-0.0026398618
138	0x3bd73a23	0.0065682097
139	0xbc1dcc67	-0.009631253
140	0x39af6f33	0.0003346145
141	0x3c468fa8	0.012119211
142	0xb9dfa9d2	-0.000426604
143	0x3c8b4a4c	0.017003201
144	0xbc585f7f	-0.013206362
145	0xbb27480f	-0.0025525128
146	0xbc5db98b	-0.013533006
147	0x3bb3660f	0.005474813
148	0x3b8c3e07	0.004279855
149	0xbbc14881	-0.0058985357
150	0x3a787ca3	0.00094790215
151	0x3bf56bc0	0.0074896514
152	0xbbf7c00d	-0.007560736
153	0xbbdee465	-0.006802129
154	0xbc4ccca5	-0.012499963
155	0x3b8c79cf	0.0042869817
156	0xbb22ab20	-0.0024821237
157	0xbaeec828	-0.001821761
158	0x3712d0d4	8.7509e-06
159	0x3a7586bd	0.0009366086
160	0xbbcfb6b8	-0.0063389204
161	0x3b00ac56	0.001963397
162	0xbba4d3ff	-0.0050301547
163	0xbbaa9009	-0.0052051586
164	0xbaccfcf3	-0.001563935
165	0xbb3ded43	-0.002898053
166	0x3ba33e86	0.0049818186
167	0xbbf03c5b	-0.0073314137
168	0xbc40fd50	-0.011779144
169	0xbca2960a	-0.019846935
170	0x3a83e2b0	0.0010062065
171	0xbbf88548	-0.0075842477
172	0xbbe64293	-0.0070269792
173	0xbad5a28f	-0.0016299057
174	0x3b3ab1b4	0.0028487267
175	0xbbaa0541	-0.0051886146
176	0xbb67fb5a	-0.003539762
177	0x38859958	6.370497e-05
178	0x3ba06851	0.004895248
179	0x3b366f87	0.0027837472
180	0xbc080412	-0.008301752
181	0xbaaf01fb	-0.0013352031
182	0xbc86f202	-0.01647282
183	0x3c187bdf	0.009306877
184	0x3b9683af	0.0045933346
185	0x3c063b65	0.008192872
186	0x3ca2eda7	0.019888712
187	0xbb35a2d7	-0.0027715468
188	0x3b6a2b38	0.0035731327
189	0xbc3f5127	-0.011677063
190	0xbc822c67	-0.015890313
191	0x3beabcca	0.0071636187
192	0xb874766a	-5.8284415e-05
193	0x3c057bf6	0.00814723
194	0xbc6976e3	-0.014249536
195	0x3b206f67	0.0024480463
196	0xbca71683	-0.020396477
197	0x3c241a19	0.010015988
198	0xba8bf93b	-0.0010679135
199	0x3c6bc812	0.014390962
200	0xbc71050b	-0.014710675
201	0x3b63f3ad	0.0034782693
202	0x3ba41097	0.0050068605
203	0xbba6f04a	-0.0050945627
204	0x3ba65647	0.005076203
205	0xbacc9884	-0.0015609418
206	0x3c910750	0.017703682
207	0x3c6b2447	0.014351911
208	0xb91bf90d	-0.0001487473
209	0xbc3c6eda	-0.011501038
210	0xbb6147f7	-0.003437517
211	0x39623aa0	0.00021574879
212	0x3c657652	0.014005261
213	0xbc1395b3	-0.009007859
214	0xbc74713a	-0.014919573
215	0x3bd0aa53	0.0063679605
216	0x3c9b0d9c	0.018927388
217	0x3b825498	0.0039773695
218	0xbbd5b5b8	-0.0065219067
219	0x3c1ef2b2	0.009701418
220	0x3a2dcc10	0.0006629834
221	0x3bceec1d	0.006314768
222	0xbae9442a	-0.0017796804
223	0xbc6fafb8	-0.014629297
224	0xbb8db72d	-0.004324815
225	0x3c68315f	0.014171927
226	0xbafed722	-0.0019442777
227	0x3c82f9c5	0.01598824
228	0xbc3c4943	-0.011492076
229	0xbab81507	-0.0014044353
230	0x3c6bd0ef	0.014393075
231	0x3c1e242b	0.009652178
232	0xbbfbdda5	-0.007686334
233	0x3ad35ca8	0.0016125636
234	0xbc53c602	-0.012925627
235	0x3ab6a068	0.0013933303
236	0xbae6335d	-0.0017562915
237	0xbb1c43cb	-0.0023844119
238	0x3b52b813	0.0032153174
239	0x3affae7b	0.0019506955
240	0xbb7f23aa	-0.003893117
241	0x3b4497e7	0.0029997767
242	0xbca43f17	-0.020049615
243	0x3b90b6cb	0.004416322
244	0x3c711cfb	0.014716382
245	0x3c71b133	0.01475172
246	0xbc2d684e	-0.01058395
247	0x3a85685f	0.00101782
248	0xba29ffef	-0.00064849755
249	0x3c41a43e	0.011818944
250	0xbc194300	-0.009354353
251	0xbbce1873	-0.0062895357
252	0x3b882f4d	0.0041560293
253	0x3c2283ff	0.009919166
254	0x3c312e1b	0.010814215
255	0x3cab3660	0.020899951

action_model._discrete_distribution.branches.1.bias f4 [3]
0	0x00000000	0.0
1	0x00000000	0.0
2	0x00000000	0.0

network_body._body_endoder.seq_layers.0.weight f4 [128, 11]
0	0x3e809e25	0.25120655
1	0xbc28bb82	-0.010298612
2	0xbe4efefb	-0.20214455
3	0x3ebcd316	0.36879796
4	0xbe0a5fc7	-0.13513099
5	0x3c8d74a4	0.017267533
6	0x3dc26d3e	0.094934925
7	0x3e53072f	0.20608209
8	0x3cc937fd	0.02456283
9	0xbec1387a	-0.377384
10	0xbdbda3b2	-0.09259738
11	0x3d7cd1fd	0.061723698
12	0xbdff4f73	-0.124663256
13	0x3d9058ef	0.07048213
14	0xbe41addb	-0.18913977
15	0xbf0bf2bd	-0.54667264
16	0x3e21539a	0.15754548
17	0xbc541e64	-0.012946699
18	0x3e7648a4	0.24051148
19	0xbe4ecf99	-0.2019638
20	0x3eb342a3	0.35011777
21	0x3f145262	0.57938206
22	0x3ecf98a4	0.40546143
23	0x3ec928ab	0.3928884
24	0xbea45d73	-0.32102546
25	0xbec7fd87	-0.39060614
26	0x3e2cf512	0.16890362
27	0x3d42c10a	0.047547378
28	0x3e62582d	0.22103949
29	0x3db1cf46	0.086821124
30	0x3e4de918	0.2010845
31	0xbe9481dc	-0.29005325
32	0x3e879c73	0.2648655
33	0x3e2752ad	0.16340132
34	0x3eb7d916	0.3590781
35	0x3e680cfa	0.226612
36	0x3c632225	0.013863121
37	0x3eec1d31	0.4611602
38	0x3ce71916	0.028210204
39	0x3eac4b49	0.33651188
40	0xbe0cd4eb	-0.13753097
41	0xbe77671c	-0.24160427
42	0xbe57b8ac	-0.2106654
43	0xbd08e202	-0.033418663
44	0xbeeeac48	-0.46615815
45	0xbe68fc76	-0.22752556
46	0xbec07215	-0.37587038
47	0x3eebcb59	0.4605358
48	0xbe9618f3	-0.2931591
49	0x3e1e33d7	0.15449463
50	0xbc96caa2	-0.01840717
51	0xbf51e1a7	-0.81984943
52	0xbdf6f16d	-0.12057767
53	0x3b21d27f	0.0024692116
54	0x3e4a0d8f	0.19731735
55	0xbe8fa6e1	-0.28057006
56	0x3e5c0d6f	0.214895
57	0xbf47d568	-0.7806001
58	0xbdc1d89f	-0.09465145
59	0x3ea028e2	0.3128119
60	0x3eaaca56	0.33357495
61	0x3e2ab0eb	0.16669051
62	0x3e26a80b	0.16275041
63	0x3ec4163f	0.38298222
64	0xbdae03c9	-0.08496816
65	0xbed2a532	-0.4114166
66	0x3eb8a236	0.36061257
67	0xbe8a922a	-0.2706464
68	0xbf487609	-0.7830511
69	0x3f1a7faf	0.6035108
70	0xbee9af16	-0.45641392
71	0xbf170a6a	-0.59000266
72	0xbe7c6698	-0.24648511
73	0xbd3c61f2	-0.045991845
74	0xbe845730	-0.2584777
75	0xbebbcde1	-0.3668051
76	0x3e819291	0.25307134
77	0x3e985680	0.29753494
78	0xbe7714ae	-0.24128982
79	0x3e4c58ee	0.19955799
80	0xbe8a2cc7	-0.26987287
81	0xbdf19a8b	-0.11797055
82	0x3d3a281b	0.045448404
83	0xbd2ba645	-0.041906614
84	0xbdd391ad	-0.1033052
85	0xbdc95a2f	-0.09831654
86	0x3e7a5ed2	0.24450234
87	0x3e87f089	0.265507
88	0x3ef6f55e	0.48234075
89	0xbcf03595	-0.029322425
90	0x3d3a9fe0	0.045562625
91	0x3db110ad	0.08645759
92	0x3bd275f9	0.006422755
93	0xbdf77107	-0.12082105
94	0x3d9b4531	0.075815566
95	0xbe1ae5fa	-0.15126792
96	0xbd880842	-0.066422
97	0xbeaea638	-0.3411119
98	0x3e3394cd	0.17537232
99	0xbedf1c4f	-0.43576285
100	0xbe8cec25	-0.27523914
101	0x3e5169a3	0.20450453
102	0x3ceea79f	0.029132662
103	0x3edf5c0a	0.43624908
104	0xbe955404	-0.2916566
105	0xbeca98b3	-0.39569625
106	0x3dcdde38	0.100521505
107	0x3ed14492	0.40872627
108	0x3cd58f55	0.026069323
109	0x3f012a58	0.50455236
110	0x3d9e5edc	0.07732937
111	0xbed27962	-0.41108233
112	0xbe4ed003	-0.20196538
113	0x3ea0532e	0.3131346
114	0xbe555751	-0.2083409
115	0x3d68f7b9	0.05687687
116	0x3eb1ab52	0.3470102
117	0x3dbb71da	0.09152575
118	0xbee82e77	-0.4534795
119	0x3e9f250a	0.31082946
120	0xbea89c14	-0.32931578
121	0x3ea24fdf	0.31701562
122	0x3e177cbb	0.14793675
123	0x3e3c55c5	0.18392093
124	0x3f45f68e	0.7732934
125	0xbe756c7d	-0.23967166
126	0x3de773f3	0.113014124
127	0x3ded7ef9	0.11596484
128	0xbdefddaf	-0.11712205
129	0x3e30fc37	0.17283712
130	0x3db84b38	0.08998722
131	0x3ef8d66f	0.486011
132	0xbe336b80	-0.17521477
133	0xbd0b7f2d	-0.03405683
134	0x3e8b357b	0.2718924
135	0xbeea2151	-0.45728543
136	0xbf39517b	-0.72389954
137	0xbf10c7f2	-0.5655509
138	0x3e129c49	0.1431743
139	0xbe941b73	-0.28927192
140	0x3e7f6a30	0.24942851
141	0xbf02c75e	-0.5108546
142	0xbe1737a2	-0.14767316
143	0xbecad47b	-0.39615235
144	0x3e25b895	0.16183694
145	0x3e9a68ac	0.30157983
146	0x3e979715	0.29607454
147	0x3f0dfb0d	0.554612
148	0xbc62198f	-0.013800039
149	0x3d503650	0.050833046
150	0xbe64f2fe	-0.22358319
151	0xbdb3d02c	-0.0877994
152	0xbf19b3d6	-0.6004003
153	0x3ec7bd04	0.39011395
154	0x3ea56645	0.32304588
155	0xbe6236c8	-0.2209121
156	0xbe1c1c41	-0.15245153
157	0xbedb3510	-0.4281392
158	0xbdc793b2	-0.097449675
159	0x3d2f30da	0.042771198
160	0xbcafc1c4	-0.0214547
161	0x3ba09ff4	0.0049018804
162	0xbce4b400	-0.027917862
163	0x3ef3c649	0.47612217
164	0xbd0e87c5	-0.03479745
165	0xbe9def8e	-0.30846828
166	0x3d02ff11	0.03198153
167	0x3dde94fc	0.1086826
168	0x3f292ab7	0.660808
169	0xbe2fd344	-0.17170435
170	0x3f0f080c	0.55871654
171	0xbeea6767	-0.45782015
172	0x3e6e50ea	0.23273054
173	0x3dc23505	0.09482769
174	0xbec83636	-0.3910386
175	0x3ee86870	0.4539218
176	0x3daa0ae1	0.08302856
177	0x3d3928ae	0.04520481
178	0x3eab39ec	0.33442628
179	0xbdb833b6	-0.08994238
180	0xbde97b69	-0.11400492
181	0xbc944f7b	-0.018104305
182	0x3e0f5d9a	0.1400055
183	0xbd5350dc	-0.051590785
184	0x3f04b774	0.5184243
185	0x3dac27ac	0.08406004
186	0x3f09e527	0.53865284
187	0x3d939ccc	0.07207641
188	0xbea0e35a	-0.31423455
189	0xbdf2ccc2	-0.11855461
190	0x3ed48585	0.41508117
191	0xbdb4f748	-0.08836228
192	0x3d36433b	0.04449771
193	0x3f0875de	0.5330485
194	0xbe764151	-0.24048354
195	0xbe8dcb5d	-0.27694216
196	0xbd19a7ba	-0.037513472
197	0x3e32b648	0.17452347
198	0xbe49911e	-0.19684264
199	0xbe1b9f97	-0.15197597
200	0xbd2fdd70	-0.04293579
201	0x3e596084	0.21228224
202	0x3d397db6	0.045285903
203	0x3ebbd2b5	0.36684194
204	0xbeb26bc4	-0.34847844
205	0x3e1890aa	0.14898935
206	0xbe7d2e51	-0.247247
207	0xbe480f13	-0.19537
208	0x3f68594b	0.9076125
209	0xbe928144	-0.28614247
210	0xbe7471f6	-0.23871598
211	0xbe97e063	-0.2966338
212	0xbeb039e5	-0.3441917
213	0xbe0218c9	-0.12704767
214	0xbba0854a	-0.004898702
215	0x3dea5299	0.114415355
216	0xbd101d3b	-0.035184126
217	0x3ec668f3	0.38751945
218	0xbeca08c7	-0.39459822
219	0x3eb276eb	0.34856352
220	0x3da7bbde	0.0819013
221	0x3e9bc75b	0.30425534
222	0x3f37ec3f	0.7184486
223	0xbc93cb76	-0.018041354
224	0x3dfbdbc0	0.12297773
225	0xbd6ba4e9	-0.057530317
226	0x3ebf3d11	0.37351277
227	0xbdb4dd81	-0.08831311
228	0xbd864d74	-0.06557742
229	0xbd58d14e	-0.052933984
230	0x3e834fea	0.25646907
231	0xbcd4a1b0	-0.025956005
232	0x3ee81526	0.45328635
233	0x3e2bfa6c	0.16794747
234	0x3d143283	0.036180984
235	0x3ecfe80c	0.40606725
236	0x3d818141	0.06323481
237	0xbe33b3a9	-0.17549004
238	0xbd736e92	-0.05943162
239	0x3e69600b	0.22790544
240	0x3e9eb4ab	0.30997214
241	0x3f489f82	0.7836839
242	0xbc889553	-0.016672766
243	0x3e0086ab	0.12551372
244	0xbd407fda	-0.04699693
245	0x3e82fe1f	0.25584504
246	0x3e00cfd4	0.1257928
247	0x3ec78c09	0.38974026
248	0xbd1bec7b	-0.038067322
249	0xbeb75797	-0.35809013
250	0xbe5b274f	-0.21401714
251	0x3e9dcddb	0.30821118
252	0x3e8c1dba	0.2736643
253	0xbcf42872	-0.029804442
254	0x3c57d1fa	0.013172621
255	0xbe594a79	-0.21219815

network_body._body_endoder.seq_layers.0.bias f4 [128]
0	0x00000000	0.0
1	0x00000000	0.0
2	0x00000000	0.0
3	0x00000000	0.0
4	0x00000000	0.0
5	0x00000000	0.0
6	0x00000000	0.0
7	0x00000000	0.0
8	0x00000000	0.0
9	0x00000000	0.0
10	0x00000000	0.0
11	0x00000000	0.0
12	0x00000000	0.0
13	0x00000000	0.0
14	0x00000000	0.0
15	0x00000000	0.0
16	0x00000000	0.0
17	0x00000000	0.0
18	0x00000000	0.0
19	0x00000000	0.0
20	0x00000000	0.0
21	0x00000000	0.0
22	0x00000000	0.0
23	0x00000000	0.0
24	0x00000000	0.0
25	0x00000000	0.0
26	0x00000000	0.0
27	0x00000000	0.0
28	0x00000000	0.0
29	0x00000000	0.0
30	0x00000000	0.0
31	0x00000000	0.0
32	0x00000000	0.0
33	0x00000000	0.0
34	0x00000000	0.0
35	0x00000000	0.0
36	0x00000000	0.0
37	0x00000000	0.0
38	0x00000000	0.0
39	0x00000000	0.0
40	0x00000000	0.0
41	0x00000000	0.0
42	0x00000000	0.0
43	0x00000000	0.0
44	0x00000000	0.0
45	0x00000000	0.0
46	0x00000000	0.0
47	0x00000000	0.0
48	0x00000000	0.0
49	0x00000000	0.0
50	0x00000000	0.0
51	0x00000000	0.0
52	0x00000000	0.0
53	0x00000000	0.0
54	0x00000000	0.0
55	0x00000000	0.0
56	0x00000000	0.0
57	0x00000000	0.0
58	0x00000000	0.0
59	0x00000000	0.0
60	0x00000000	0.0
61	0x00000000	0.0
62	0x00000000	0.0
63	0x00000000	0.0
64	0x00000000	0.0
65	0x00000000	0.0
66	0x00000000	0.0
67	0x00000000	0.0
68	0x00000000	0.0
69	0x00000000	0.0
70	0x00000000	0.0
71	0x00000000	0.0
72	0x00000000	0.0
73	0x00000000	0.0
74	0x00000000	0.0
75	0x00000000	0.0
76	0x00000000	0.0
77	0x00000000	0.0
78	0x00000000	0.0
79	0x00000000	0.0
80	0x00000000	0.0
81	0x00000000	0.0
82	0x00000000	0.0
83	0x00000000	0.0
84	0x00000000	0.0
85	0x00000000	0.0
86	0x00000000	0.0
87	0x00000000	0.0
88	0x00000000	0.0
89	0x00000000	0.0
90	0x00000000	0.0
91	0x00000000	0.0
92	0x00000000	0.0
93	0x00000000	0.0
94	0x00000000	0.0
95	0x00000000	0.0
96	0x00000000	0.0
97	0x00000000	0.0
98	0x00000000	0.0
99	0x00000000	0.0
100	0x00000000	0.0
101	0x00000000	0.0
102	0x00000000	0.0
103	0x00000000	0.0
104	0x00000000	0.0
105	0x00000000	0.0
106	0x00000000	0.0
107	0x00000000	0.0
108	0x00000000	0.0
109	0x00000000	0.0
110	0x00000000	0.0
111	0x00000000	0.0
112	0x00000000	0.0
113	0x00000000	0.0
114	0x00000000	0.0
115	0x00000000	0.0
116	0x00000000	0.0
117	0x00000000	0.0
118	0x00000000	0.0
119	0x00000000	0.0
120	0x00000000	0.0
121	0x00000000	0.0
122	0x00000000	0.0
123	0x00000000	0.0
124	0x00000000	0.0
125	0x00000000	0.0
126	0x00000000	0.0
127	0x00000000	0.0

network_body._body_endoder.seq_layers.2.weight f4 [128, 128]
0	0x3d0f01f0	0.034913957
1	0xbc23ba65	-0.00999317
2	0x3d96e6fd	0.07368276
3	0x3d4fcde7	0.050733473
4	0x3d8eb0fb	0.0696735
5	0x3cb1b2ef	0.021691767
6	0x3c1ebe3b	0.009688909
7	0xbadc3304	-0.0016799872
8	0xbd916b59	-0.07100553
9	0xbb413816	-0.0029482893
10	0xbe0ce71b	-0.13760035
11	0x3e130627	0.14357816
12	0x3cc85d1f	0.024458466
13	0xbe655e92	-0.22399357
14	0xbe314d44	-0.17314631
15	0xbdc4fed7	-0.09618919
16	0xbd52bbf7	-0.05144879
17	0xbca3f308	-0.020013347
18	0x3d21905c	0.039444312
19	0xba5f7286	-0.000852384
20	0xbdd73d46	-0.10509734
21	0x3c50e887	0.012750751
22	0xbd9960cc	-0.07489166
23	0x3dafe046	0.08587699
24	0x3daeb0b8	0.085298
25	0xbdced0d4	-0.100984246
26	0x3dacc324	0.084356576
27	0x3d35abf4	0.04435344
28	0xbe20661b	-0.1566395
29	0x3d87d810	0.066330075
30	0x3d775c33	0.060390662
31	0x3c3680fa	0.011139149
32	0xbe15096a	-0.14554372
33	0x3db316c5	0.08744577
34	0xbd6a901d	-0.057266343
35	0xbd0ac710	-0.033881247
36	0x3d9ad142	0.07559444
37	0xbcf32bdd	-0.029684002
38	0xbe4d49c6	-0.20047674
39	0x3df8e549	0.12153108
40	0x3dcd34e0	0.10019851
41	0x3e09d306	0.13459405
42	0xbd8f52c0	-0.06998205
43	0x3d19f68f	0.037588652
44	0x3cbd321b	0.023095181
45	0x3dbcbc4d	0.09215603
46	0x3dc5c5fc	0.09656903
47	0xbdeb7e36	-0.11498682
48	0xbd248ce7	-0.040173437
49	0xbd31b525	-0.043385644
50	0x3c8fd906	0.01755954
51	0xbd22a8f8	-0.039711922
52	0x3e06b4fd	0.13154979
53	0xbc2dabc6	-0.010600036
54	0xbc69b528	-0.014264382
55	0x3d9557c3	0.0729213
56	0xbe06ddf2	-0.13170603
57	0x3d2d6fe6	0.042343043
58	0xbd81873f	-0.06324624
59	0x3dfa2026	0.12213163
60	0xbc24e9ab	-0.010065476
61	0x3d0e2b23	0.034709107
62	0x3dc3ce3b	0.0956082
63	0x3d8d1efd	0.06890676
64	0xbdea6543	-0.114450954
65	0xbdec7a14	-0.11546722
66	0x3e13a6e7	0.14419137
67	0xbdb646df	-0.08900236
68	0x3c2549f8	0.010088436
69	0xbdb6cfe1	-0.089263685
70	0x3d7ca1ef	0.06167787
71	0x3e22fa76	0.15915856
72	0x3d0c8502	0.034306534
73	0xbdc566dc	-0.096387595
74	0x3c993fda	0.018707205
75	0xbc958bae	-0.018255081
76	0x3d6829df	0.056680556
77	0xbc5b0cc4	-0.013369743
78	0x3be9cccb	0.007135009
79	0xbd14698e	-0.036233477
80	0x3d6e972a	0.05824963
81	0xbd645021	-0.05574048
82	0x3e233bb6	0.15940747
83	0x3d735e6d	0.059416223
84	0xbdd21d61	-0.1025951
85	0xbd8eebf0	-0.06978595
86	0x3e1fb6fe	0.1559715
87	0x3db91768	0.090376675
88	0x3e37ed03	0.17961507
89	0xbdce2fdc	-0.10067722
90	0x3d9f6e97	0.07784765
91	0xbd7b3470	-0.061329305
92	0x3e016fae	0.12640259
93	0x3d59ffdc	0.053222522
94	0x3d916fdf	0.07101416
95	0xbe094ec8	-0.13408959
96	0x3d90140a	0.07035072
97	0x3d2a2753	0.04154141
98	0x3d79ec86	0.061016582
99	0x3da018c6	0.07817225
100	0x3df6241e	0.120186076
101	0x3db7911e	0.08963226
102	0xbd96ca99	-0.07362861
103	0x3d139247	0.036028173
104	0xbdf723cb	-0.12067374
105	0xbd8503d4	-0.06494871
106	0xbd987f6c	-0.07446179
107	0x3de60a40	0.11232424
108	0x3d922c48	0.07137352
109	0x3db92050	0.09039366
110	0xbdf313d2	-0.11869015
111	0x3de25e9f	0.11053204
112	0xbe166297	-0.14686047
113	0xbdcb9d12	-0.09942068
114	0x3ccd44dc	0.025057249
115	0x3e082977	0.13297068
116	0xbdd8e63d	-0.105907895
117	0xbdde4d2f	-0.10854565
118	0x3d79846c	0.060917303
119	0x3d0af50c	0.0339251
120	0xbd1d6092	-0.038422175
121	0xbd931f73	-0.07183733
122	0x3e471cda	0.194446
123	0xbdb31523	-0.08744266
124	0xbdcb6a81	-0.099324234
125	0x3c24f5c3	0.01006836
126	0x3dfe2bc4	0.124106914
127	0xbd9eeafb	-0.07759663
128	0x3e80a692	0.25127083
129	0x3d4ed8f5	0.050499875
130	0x3e09fe14	0.1347583
131	0x3d969d69	0.07354242
132	0xbde0831a	-0.10962506
133	0xbd43299a	-0.047647096
134	0x3e597ad7	0.21238266
135	0xbd9aacc6	-0.07552485
136	0x3db67867	0.08909684
137	0x3dad1e45	0.08453039
138	0xbdc489db	-0.09596606
139	0x3b3f08f2	0.002914962
140	0xbdcda349	-0.1004091
141	0x3e0fe0ec	0.14050645
142	0xbe0728ca	-0.13199154
143	0x3d49d8fa	0.04927919
144	0x3d849972	0.0647458
145	0x3dd07ce3	0.1018007
146	0x3cc85967	0.024456693
147	0x3a55b7a0	0.00081526674
148	0x3d864664	0.06556395
149	0x3cefb759	0.029262232
150	0xbd6ea65a	-0.058264114
151	0x3e2d4566	0.16921005
152	0x3d078ddd	0.033094276
153	0x3e2c6a7c	0.16837496
154	0x3d568570	0.05237335
155	0xbd9e7881	-0.07737828
156	0x3c34012e	0.010986609
157	0x3c82ae67	0.015952302
158	0x3cb1d82a	0.02170952
159	0x3db9508a	0.09048565
160	0xbdc11b11	-0.09428991
161	0x3d9f02c8	0.07764202
162	0x3dcfb3ec	0.10141739
163	0xbe4e2c2f	-0.20134042
164	0xbb847891	-0.004042693
165	0x3e7e9a54	0.24863559
166	0x3bda52e2	0.0066627124
167	0xbc7bd1ed	-0.015369874
168	0x3c93077a	0.017947901
169	0xbdcd1bc8	-0.100150645
170	0xbd6e4702	-0.058173187
171	0x3d2a5345	0.04158332
172	0x3dc54558	0.09632367
173	0xbc07eada	-0.008295739
174	0x3d9639c3	0.07335236
175	0x3c6a1151	0.014286355
176	0xbdbbca32	-0.09169425
177	0xbdacaecf	-0.084317796
178	0x3e18d2ba	0.14924136
179	0x3d83ec33	0.06441536
180	0xbd2f6c7f	-0.04282808
181	0xbd401295	-0.04689272
182	0xbdcddcfb	-0.10051914
183	0xbcc06c05	-0.023489008
184	0xbc682891	-0.014169828
185	0x3d6b919a	0.057511903
186	0xbbf05127	-0.007333893
187	0x3dae87de	0.08522008
188	0x3d861f9f	0.06549
189	0xbe095c8e	-0.13414213
190	0xbe355022	-0.1770635
191	0xbe0696cc	-0.13143462
192	0x3d867693	0.06565585
193	0x3d3b6dde	0.045759074
194	0xbd508e40	-0.05091691
195	0x3da7d35e	0.08194612
196	0xbc7a1e1f	-0.0152659705
197	0x3cf2a89f	0.02962142
198	0xbe2047c1	-0.15652372
199	0xbb0d4148	-0.0021553803
200	0x3dc00427	0.09375792
201	0xbd57a2dc	-0.05264555
202	0xbc8ec8ad	-0.017429674
203	0xbd3244d1	-0.04352266
204	0x3d18c061	0.03729284
205	0xbc340b8e	-0.010989083
206	0xbca19733	-0.019725418
207	0xbd13bc2d	-0.03606813
208	0x3dd100b5	0.10205213
209	0xbc87aad8	-0.016560957
210	0xbdf892a0	-0.121373415
211	0xbc191499	-0.00934329
212	0x3ca3feba	0.020018924
213	0x3cba94d9	0.022776054
214	0x3d1cd1f3	0.03828616
215	0x3e13f469	0.14448704
216	0xbdae4333	-0.08508911
217	0x3db50f5a	0.08840819
218	0xbda091b1	-0.078402884
219	0x3d81f341	0.06345225
220	0x3d95663c	0.0729489
221	0x3daf8f49	0.08572251
222	0xbde7d85f	-0.113205664
223	0x3da266e2	0.079297796
224	0x3d20f49b	0.039295774
225	0xbe30176c	-0.17196435
226	0xbd06db8f	-0.03292423
227	0xbc3cdddb	-0.011527504
228	0xbb8004f8	-0.0039068423
229	0xbdb7d083	-0.08975317
230	0x3d6ff98f	0.058587607
231	0x3cef9b86	0.029248964
232	0x3be7dfeb	0.0070762536
233	0xbdcbcc4c	-0.09951076
234	0x3dc29783	0.09501555
235	0xbcd24f20	-0.025672495
236	0xbd48eb0a	-0.049052276
237	0xbc6162dd	-0.013756481
238	0xbe126b9f	-0.14298867
239	0x3d055427	0.032550957
240	0x3a9acb21	0.0011809805
241	0x3c1f23f3	0.009713161
242	0xbdb9c006	-0.09069829
243	0xbd90ce54	-0.07070604
244	0xbcaa13a8	-0.020761326
245	0x3c2bacbc	0.010478195
246	0x3d8e87b1	0.06959475
247	0xbde0f5ef	-0.10984408
248	0xbdea362a	-0.11436112
249	0x3d136f50	0.035994828
250	0x3db63dec	0.088985294
251	0xbd7ce4d3	-0.06174166
252	0x3dc5d184	0.096591026
253	0xbb580015	-0.0032959033
254	0x3dfa512e	0.12222515
255	0xbdc1c8c5	-0.09462122
