results/ppo/ControlCar/ControlCar-1024.onnx (onnx, 82117 bytes, 7 tensors)

discrete_act_size_vector f4 [1, 2]
00000000: 0000 4040 0000 4040
3.0 3.0

network_body._body_endoder.seq_layers.0.weight f4 [128, 11]
00000000: 17f8 19be 9ea2 aa3e df11 b33e 0980 8b3d
00000010: 213b 663e 9946 23be dea4 f43e 8e66 62be
00000020: cc17 9bbe 6204 0fbe 53f9 98bc 3f7f 113e
00000030: 09e4 e6be 7403 b5be f053 2b3e b789 d33e
00000040: 83ee 02be e081 36bf 0b20 d0bd ae07 5c3f
00000050: 998c d4be 2ea8 373e 0395 f13e 71c4 043d
00000060: c71f 2a3e 1bdf 713e c6ae cd3d 5135 99bd
00000070: 6ab5 4dbe 04fd c6be 68d7 b5bd 7e63 bc3e
00000080: 2761 243e 6ffd b9be 72ce 323e 53d0 bc3e
00000090: 960b fa3c c8ee 3c3d fda5 83bd 909c e3bd
000000a0: bab6 33bd 892a c53e 795b 523d 9d8d 8cbe
000000b0: fa8e c3be 4651 a33e 9968 103e 6462 8d3e
000000c0: d78e 6f3e 5c8c 9b3e 7d10 373f f0f2 a5bd
000000d0: 8d76 c4be b99a 623d b6cd 863c 67af 8a3e
000000e0: 2504 a23d aac6 e53d 058b 233f 892f 453f
000000f0: 26ba 84bd 3d2a 2ebe 96f3 f4bd 6a2a e4bd
00000100: 2e35 8dbd 1c29 f53e 1b57 bb3e 3e01 6b3e
00000110: 1837 8abe 5b91 dcbd 55be 0f3f 2d5a 9ebd
00000120: 6440 893e 300d 823d 450b 3dbe c2da d1be
00000130: 543a e53d f9f5 373b d654 5e3e 947d e2bd
00000140: 9986 3dbe eefa 11be b75f 8f3e 1b61 80be
00000150: cd97 86bc 6073 a0bc edbf 8dbe 204a 0b3f
00000160: 4dae a8be 618b b53d 4298 1d3e 09df 263e
00000170: 8a63 ca3e 243e cfbe 35af 843e e193 543e
00000180: 2501 b03e 3be2 94bd 8a63 293e 304a 91bd
00000190: 104c 7abe 59af e5be d99d 943e 3cc2 753c
000001a0: 46b3 423e 58a4 d6be bbbc 243f aed0 0f3e
000001b0: 5a00 123e 54c9 8f3c 6169 7bbe 732b 95be
000001c0: dafb 26be bf2b b5be c9d8 9fbc f9d7 52be
000001d0: 85bb 44bf f2bd 2abe cb92 ec3d 3533 993d
000001e0: 4b20 b83d 6c17 cfbc 5be6 17be ff60 643e
000001f0: 3bd0 8ebc 8ab4 a6bd b103 9a3e b571 cf3e
00000200: 6e77 b63e c948 b1be f9b5 213e ff84 52bd
00000210: 98e0 0fbf 47f3 ffbe 68de e8be 0f9d 703e
00000220: b331 f7be a970 193f 906d b33e 89f5 b5be
00000230: dc63 40bd 990e c63e 90c7 adbb 9b5b 8f3e
00000240: 0505 4dbf 8da9 b13d 4b61 c0bd 9a48 eebd
00000250: 120e 24bd 0e4a b83e 74fb bd3e 4edc e9bd
00000260: 3d77 c13c 0f9b 1ebe b6ec 3fbe 98eb 9bbd
00000270: a1a9 7cbe 60a9 283e 2b99 c93c a8bd 7b3e
00000280: 2cdd 2c3f f72b e4bd 4961 2ebe 0397 0fbe
00000290: 0459 c1be c355 a03d 727c 82be 3f83 f2bd
000002a0: 525c acbe 9bb7 d33a c5d2 dc3e b8cf 0fbe
000002b0: a3c6 f6be a6f7 3c3d c9a3 aa3e d1d2 903e
000002c0: d076 71be ee94 8c3e 9266 a53e 657e 0b3f
000002d0: 3955 093f f1e3 dabd 0202 463f 98bc 1f3e
000002e0: 4a4c 343b af3f 833d 8b6d 923e 5b5b 1ebe
000002f0: be28 84be 0306 9d3e 0a91 38be 4123 5a3d
00000300: 2b69 a0bc 067f 17bf 8490 94be 8502 a23e
00000310: c419 353f 6f04 b13d f2bd 333e db4b 94be
00000320: b4e5 d3bd d874 80bc 5972 07bf 9968 8abd
00000330: 480b 35bf a492 a0be b0f0 8a3e d26a 683d
00000340: a0c0 e63e 79d0 4d3e a814 333b c0cb b0be
00000350: 626e d2bd 1f49 5e3d 20dd 1abf f2b9 a83d
00000360: e25e b13e 93cc fc3e d49d 503c 60e0 91be
00000370: 1f9b 9dbd 0184 0e3e 4c95 903e 3681 96be
00000380: 0783 c13d bf50 5939 9e06 6abe 10b8 6cbe
00000390: c1f1 45bd baa7 903c 0f3c 843e 6613 c23d
000003a0: 2343 80bd c106 5cbd 9480 d13e 91d4 033f
000003b0: 51f7 253d 9283 d53c 1fb4 ac3e ab59 8cbe
000003c0: 737a 3dbc e1f4 f8bd abd8 203d 15b9 3c3e
000003d0: 8dfa 7c3d a46e 123f 75c1 713e 8ffe c53c
000003e0: 04c6 a1bd c334 fc3c 3a69 9fbe 424c 813f
000003f0: ebe7 b03e 90d0 a6bd 7101 e5ba 72c8 33be
-0.15036045 0.33327192 0.34974572 0.0681153 0.22483493 -0.159449 0.47782034 -0.22109434
-0.30291593 -0.13966516 -0.018673575 0.14208697 -0.45095852 -0.35354197 0.16731238 0.41316006
-0.12786298 -0.71291924 -0.10162362 0.8594922 -0.41513517 0.17935249 0.47184 0.032413904
0.16613685 0.23620264 0.10043101 -0.074808724 -0.20088735 -0.3886491 -0.08878976 0.36794657
0.16052686 -0.36326167 0.17461565 0.3687769 0.030523103 0.046126157 -0.06428144 -0.11113846
-0.043875434 0.38509014 0.051356766 -0.27451792 -0.3819502 0.31897944 0.14102401 0.2761413
0.23394333 0.30380523 0.71509534 -0.08102977 -0.38371697 0.055323336 0.016455512 0.27086946
0.07910947 0.11219533 0.63884 0.7702566 -0.064808175 -0.170083 -0.11960523 -0.11140902
-0.06894909 0.47882926 0.36589894 0.22949693 -0.26995158 -0.10769912 0.561498 -0.077320434
0.2680694 0.063501716 -0.1846133 -0.4098721 0.11192766 0.0028070195 0.2171205 -0.110591084
-0.18508376 -0.14255878 0.28002712 -0.25074086 -0.016429806 -0.019586265 -0.2768549 0.5440998
-0.3294548 0.08864475 0.15390113 0.16296019 0.39529067 -0.40477097 0.25914922 0.20759536
0.34375873 -0.072697125 0.16541877 -0.07094228 -0.24443078 -0.44860342 0.29026678 0.014999922
0.190137 -0.4192226 0.6435048 0.14044449 0.14257947 0.017552055 -0.24551918 -0.29134712
-0.16307011 -0.35384938 -0.01951255 -0.205902 -0.7684863 -0.16674021 0.11551436 0.0748047
0.089905344 -0.025279723 -0.14833967 0.22302626 -0.017433276 -0.08139904 0.3008094 0.4051644
0.35637993 -0.34625843 0.15792073 -0.051396366 -0.5620208 -0.49990293 -0.45482183 0.23497413
-0.48280105 0.5993753 0.35044527 -0.3553889 -0.046970233 0.38683012 -0.0053033307 0.27999577
-0.80085784 0.08674917 -0.09393557 -0.116349414 -0.04005248 0.35994 0.37105906 -0.11418973
0.023616428 -0.15488838 -0.18742642 -0.07613295 -0.24674083 0.16470861 0.024609169 0.24584067
0.6752498 -0.11141198 -0.17029299 -0.1402245 -0.37763226 0.07828858 -0.2548557 -0.118414395
-0.33664185 0.0016152741 0.43129554 -0.14044082 -0.48198423 0.046134613 0.33328083 0.2828584
-0.2358048 0.27457374 0.32304817 0.5448974 0.53645664 -0.106880076 0.77346814 0.15599287
0.0027511292 0.06408631 0.285992 -0.15464537 -0.25812334 0.3066865 -0.18024078 0.053256277
-0.019581398 -0.591782 -0.29016507 0.31642547 0.7074244 0.08643424 0.17552927 -0.28964123
-0.10346547 -0.015680715 -0.52908856 -0.06758232 -0.7072034 -0.31361878 0.27136755 0.056742497
0.45068836 0.20099057 0.0027325545 -0.3453045 -0.1027496 0.054268952 -0.6049366 0.08238591
0.34642702 0.49374828 0.012732942 -0.28491497 -0.076956026 0.13917543 0.28238904 -0.29395455
0.094488196 0.00020724813 -0.22854087 -0.2311709 -0.048326258 0.017658103 0.2582707 0.09476356
-0.06262805 -0.05371738 0.4091841 0.51496226 0.040519062 0.026063714 0.3373117 -0.2741216
-0.011564839 -0.12156082 0.03926913 0.18429978 0.06176238 0.57200074 0.23608954 0.024169235
-0.078990966 0.030786877 -0.3113497 1.0101397 0.3455194 -0.08145249 -0.0017471743 -0.17556933

network_body._body_endoder.seq_layers.0.bias f4 [128]
00000000: 0000 0000 0000 0000 0000 0000 0000 0000
00000010: 0000 0000 0000 0000 0000 0000 0000 0000
00000020: 0000 0000 0000 0000 0000 0000 0000 0000
00000030: 0000 0000 0000 0000 0000 0000 0000 0000
00000040: 0000 0000 0000 0000 0000 0000 0000 0000
00000050: 0000 0000 0000 0000 0000 0000 0000 0000
00000060: 0000 0000 0000 0000 0000 0000 0000 0000
00000070: 0000 0000 0000 0000 0000 0000 0000 0000
00000080: 0000 0000 0000 0000 0000 0000 0000 0000
00000090: 0000 0000 0000 0000 0000 0000 0000 0000
000000a0: 0000 0000 0000 0000 0000 0000 0000 0000
000000b0: 0000 0000 0000 0000 0000 0000 0000 0000
000000c0: 0000 0000 0000 0000 0000 0000 0000 0000
000000d0: 0000 0000 0000 0000 0000 0000 0000 0000
000000e0: 0000 0000 0000 0000 0000 0000 0000 0000
000000f0: 0000 0000 0000 0000 0000 0000 0000 0000
00000100: 0000 0000 0000 0000 0000 0000 0000 0000
00000110: 0000 0000 0000 0000 0000 0000 0000 0000
00000120: 0000 0000 0000 0000 0000 0000 0000 0000
00000130: 0000 0000 0000 0000 0000 0000 0000 0000
00000140: 0000 0000 0000 0000 0000 0000 0000 0000
00000150: 0000 0000 0000 0000 0000 0000 0000 0000
00000160: 0000 0000 0000 0000 0000 0000 0000 0000
00000170: 0000 0000 0000 0000 0000 0000 0000 0000
00000180: 0000 0000 0000 0000 0000 0000 0000 0000
00000190: 0000 0000 0000 0000 0000 0000 0000 0000
000001a0: 0000 0000 0000 0000 0000 0000 0000 0000
000001b0: 0000 0000 0000 0000 0000 0000 0000 0000
000001c0: 0000 0000 0000 0000 0000 0000 0000 0000
000001d0: 0000 0000 0000 0000 0000 0000 0000 0000
000001e0: 0000 0000 0000 0000 0000 0000 0000 0000
000001f0: 0000 0000 0000 0000 0000 0000 0000 0000
0.0 0.0 0.0 0.0 0.0 0.0 0.0 0.0
0.0 0.0 0.0 0.0 0.0 0.0 0.0 0.0
0.0 0.0 0.0 0.0 0.0 0.0 0.0 0.0
0.0 0.0 0.0 0.0 0.0 0.0 0.0 0.0
0.0 0.0 0.0 0.0 0.0 0.0 0.0 0.0
0.0 0.0 0.0 0.0 0.0 0.0 0.0 0.0
0.0 0.0 0.0 0.0 0.0 0.0 0.0 0.0
0.0 0.0 0.0 0.0 0.0 0.0 0.0 0.0
0.0 0.0 0.0 0.0 0.0 0.0 0.0 0.0
0.0 0.0 0.0 0.0 0.0 0.0 0.0 0.0
0.0 0.0 0.0 0.0 0.0 0.0 0.0 0.0
0.0 0.0 0.0 0.0 0.0 0.0 0.0 0.0
0.0 0.0 0.0 0.0 0.0 0.0 0.0 0.0
0.0 0.0 0.0 0.0 0.0 0.0 0.0 0.0
0.0 0.0 0.0 0.0 0.0 0.0 0.0 0.0
0.0 0.0 0.0 0.0 0.0 0.0 0.0 0.0

network_body._body_endoder.seq_layers.2.weight f4 [128, 128]
00000000: df3a 203d d8e7 823d 44d5 1abd 5077 cc3d
00000010: ac0e 083b 684b b8bc f93c a7bc ae4b 943d
00000020: e398 dbbb 264e ab3d 8424 53bd 8e1b 9cbc
00000030: 4203 8cbd ddf9 c6bc 8a96 a83c 5fb0 b0bd
00000040: 88b8 b7bd bd86 4d3d 53b4 1f3d 5cde a6bd
00000050: fa18 9cbc 4412 06bd 8050 89bd 2edb 8fbd
00000060: 6356 96bc 75d0 4a3e 595f 993d aa5d d2bd
00000070: c476 96bc a5f3 3dbb 25bc 83ba ea50 c9bc
00000080: 17a2 253d e4ba 10bd a6f2 0d3e 6446 5d3e
00000090: f655 253d 5a85 ffbd d6fc 8dbd 82a3 84b9
000000a0: ace5 8abb 5f06 373d c96d 493c e8c1 983d
000000b0: 61d1 b0bd 0327 4e3a 49c7 333d 0d98 a23c
000000c0: 4bb0 68bc 5190 1fbe 42ae 5a3d d1bd c3bd
000000d0: e90c f23d 8ee1 b4bc 32f4 dc3b 9346 613d
000000e0: 41b9 40be affd a93d 0e25 16bd 2997 ec3d
000000f0: db6f 603d 667b c63d 9868 8b3d 5e2d 4c3d
00000100: 1598 1cbd 7ea3 43be 4bf1 c8bd 92b2 d33d
00000110: 8b94 afbd b74e 9d3d 2592 0a3e 59c0 2b3d
00000120: 8741 f1bd b971 f9bd 9700 fd3d 20f8 a8bd
00000130: babc aa3d 4339 543d 6232 68bd d7f1 49bd
00000140: c59d c03b 1424 ae3d f326 8abd 8846 a93d
00000150: 043f 473d efcf 333d f83a e43c 1257 26bd
00000160: 7c1e 19bd dcc9 ac3d 8cd8 e7bc 80f3 373d
00000170: 6354 043d e113 c6bd 8f9c 09be 6133 e53c
00000180: 65c9 05bd 2dec 84bd e5e0 383d a8f2 26bd
00000190: ef93 1b3e 827a 4ebd 53c4 edbb 96da a4bd
000001a0: 45ff b0bd 09c0 b9bc bfc8 503d fa1f c03d
000001b0: 65b8 b13d 654a 1abd ecd7 92bc 4b18 1bbe
000001c0: ebf1 9c3c ce5a 223c ffa5 7f3d b9d8 a43d
000001d0: 1072 783d ee99 163d 364d 2dbc 9658 943d
000001e0: 2230 093d bc1a 933c 6451 1abd 0706 3c3e
000001f0: aa4d c33d f973 f33d fd71 5fbb 0178 b83b
00000200: d6c4 a9bc 60cb 193e 3abe 6c3d 6064 1f3e
00000210: d8e6 34bd 061b 2dbd 2301 493e 83f4 7fbd
00000220: b345 1a3c 4d7b 4ebc cb3d 5ebd acdb 823d
00000230: 2cc5 183e f23b 983d ab4f 86bd a6ec 083e
00000240: 0634 7abc 02da 963d ae7e 1ebd a9c0 23bd
00000250: 18cd 193e 5afe 3bbd e38c d13c 3bbd 7fbd
00000260: fa9b a3bd 8aa7 9c3d 103c b3bd 8572 2f3e
00000270: 7b11 f7bd 3fa4 02bc 71cd b83c 8ded 55bd
00000280: c3ab d1bd e994 87bd 1f8f 563d 711d 41be
00000290: 62ed cfbd b505 0ebe eaf3 2b3e 7acf 8fbc
000002a0: 57a3 003c 0a37 b43d bc5d 70bd 5991 f5bb
000002b0: fa1f 8cb9 7271 a2bd f578 203d b510 c3bc
000002c0: 8cf7 29be f685 c73d 8d44 ce3d 16d0 33be
000002d0: 7f81 053c 7805 453d 3d97 5ebd a072 cfbd
000002e0: 34df a73d 1f1f e73d 8850 0bbe 8e9a 10be
000002f0: e9fc 363d cd1e 0dbe 2382 98bd 8349 0e3d
00000300: f681 873d a3a7 ee3d 6c24 1f3e a192 88bd
00000310: 3d2b 313e 5df1 393e b95e be3b c5a9 16bd
00000320: f11d 88bc a38a 393d b4ba 353d 40c0 33be
00000330: 149f 3ebd fe54 e73d b741 8bbd 7171 503d
00000340: a491 a13d d71f d1bc 8767 8e3c 2546 28bc
00000350: bbf7 b3bd 824b e2bd b756 adbd 3093 573d
00000360: 6732 5e3d 9b0f 05bd 08ba f73b 3abb ddbd
00000370: 3b8f aa3d ad4d 983d ce95 94bd 11ee 1cbe
00000380: 22ec 72bb 7c7f 383e b0f0 2abc 3971 1d3e
00000390: 0ece 423c 3dba 013b 587b b3bb 05a2 093d
000003a0: 2c03 78bd 72d8 a33d 0dce 3c3d 3016 39bd
000003b0: 0a74 18bc e915 74bd f3be 57bd d531 a63c
000003c0: a06c 373d 232b 6c3d d765 e0bd cdf0 1f3d
000003d0: 5b51 023e a6cd 63bd f429 2e3d 2939 bfbd
000003e0: e5ba fd3c 4cdc ef3c 6131 43bc 159b c3bd
000003f0: 98f0 0cbe 9961 0c3c cd90 8ebd 40b9 a83d
0.039118644 0.06391877 -0.037801042 0.099836946 0.0020760698 -0.022496894 -0.020414816 0.07240997
-0.006701575 0.08364515 -0.051548496 -0.019056108 -0.06836559 -0.024289066 0.020579595 -0.0862739
-0.089707434 0.050177325 0.03899033 -0.081478804 -0.019054879 -0.032732263 -0.06704807 -0.07024227
-0.01835174 0.19806083 0.07488889 -0.10271771 -0.018367179 -0.0028984335 -0.0010050578 -0.024574716
0.040437784 -0.035334483 0.13862094 0.21608883 0.040365182 -0.12476607 -0.0693299 -0.00025298825
-0.004238805 0.04468381 0.012294241 0.0745886 -0.08633686 0.00078640896 0.043891225 0.019847894
-0.014202188 -0.15582396 0.05338884 -0.09557689 0.11818869 -0.02208021 0.0067429775 0.054998945
-0.18820669 0.083003394 -0.03665643 0.11552269 0.054794174 0.09691505 0.06807059 0.049847953
-0.038230974 -0.19105336 -0.09811648 0.10336794 -0.08573254 0.07681029 0.13532312 0.041931484
-0.117800765 -0.12179894 0.12353628 -0.08250451 0.08336778 0.05181242 -0.056688674 -0.049302902
0.0058781826 0.08502975 -0.0674571 0.08265406 0.04864408 0.043899473 0.02786015 -0.04061038
-0.037382588 0.08436939 -0.0283015 0.044909954 0.03230704 -0.0967176 -0.13438629 0.027978601
-0.032662768 -0.064903595 0.04513635 -0.04075876 0.15193151 -0.0504098 -0.0072560697 -0.080495045
-0.08642439 -0.022674577 0.050972696 0.09381099 0.086777486 -0.037668604 -0.017925225 -0.15145986
0.019158324 0.009909345 0.062414166 0.08049149 0.060655653 0.036767893 -0.010577491 0.07243459
0.03349317 0.017957084 -0.037675276 0.18361674 0.095362976 0.118873544 -0.0034095042 0.00562954
-0.020723742 0.15018988 0.0577986 0.15565634 -0.044165462 -0.0422621 0.1962934 -0.062489044
0.009416032 -0.012602639 -0.05425815 0.06389555 0.14918965 0.07433309 -0.06558164 0.13371524
-0.015271192 0.073658004 -0.03869503 -0.039978657 0.15019643 -0.045896865 0.025579875 -0.062436324
-0.079887345 0.07649143 -0.087516904 0.1713353 -0.12063881 -0.00797373 0.0225589 -0.0522285
-0.10237839 -0.06620199 0.052382585 -0.18858887 -0.10152699 -0.13869365 0.16792265 -0.017554987
0.007851443 0.0879956 -0.058683142 -0.0074941334 -0.00026726705 -0.07931794 0.039177854 -0.023811677
-0.16598338 0.09742348 0.10071669 -0.17559847 0.00814855 0.04810092 -0.05434345 -0.10129285
0.081968695 0.11285233 -0.13604939 -0.14121458 0.044674788 -0.13781281 -0.074466966 0.034738075
0.06616585 0.11653068 0.15541238 -0.06668592 0.1730165 0.18158479 0.0058096317 -0.036783
-0.01661584 0.04529823 0.044367507 -0.17553806 -0.046538427 0.11295508 -0.067996435 0.050889436
0.07889107 -0.025527878 0.01738335 -0.01027063 -0.08787485 -0.11049558 -0.08463805 0.052630603
0.054247286 -0.032485586 0.0075600185 -0.10826726 0.083281 0.074366905 -0.072551355 -0.1532519
-0.0037067016 0.18017381 -0.010433361 0.15375222 0.011889948 0.0019794845 -0.00547735 0.03360178
-0.0605499 0.08000268 0.046094943 -0.045187175 -0.00930501 -0.059591208 -0.052672338 0.020287434
0.044781327 0.057658326 -0.109569244 0.039048005 0.12726347 -0.055616044 0.04252048 -0.09337074
0.030972907 0.02927985 -0.011913628 -0.09551064 -0.13763654 0.008568191 -0.06961212 0.08238459

action_model._discrete_distribution.branches.0.weight f4 [3, 128]
00000000: f5fd c2ba 53db 3b3c e721 f23b d0d5 5f3b
00000010: ea1e 59bb 9248 7d3b 3ba0 03bc 382a eb3b
00000020: 38c2 06bc 78e0 593a bb23 813c 1ce5 12b9
00000030: 8e4d bdba 92cb 21bc 562f 063b b78f e33a
00000040: f01f 17bb 2221 deba 3b97 a9bc bd03 a63a
00000050: dca0 c7ba 85c2 b33a 39c1 c4bc ba5f 713a
00000060: 28c1 df3a ad01 153c 27ed b0bc 0353 7fbb
00000070: c85b f83b b0aa fbbb 1484 09bc eb1e a13b
00000080: b299 fbbb 2bf5 54bb 7f52 663c 5ca5 c7bc
00000090: 4f67 6e3c 53cd b43b 16db 9dbb 8fa6 39bc
000000a0: 3bab 71b9 b762 aebc 7d16 eebb d7d0 d73b
000000b0: 746e 9abb 771d 96bb 21cb 12bc 4dfc 1ebb
000000c0: 47d8 12bc a3ac 52bb f8af f63b 6c52 46bc
000000d0: c379 a03b a78d 703b cbf2 993b 3bb1 283c
000000e0: 3b41 bd3b c8f5 9f3c dd85 a63b 9341 a33b
000000f0: c2fa 803b 33e4 543c 8360 22bc a990 45bc
00000100: 8da9 cc3b 1bdc 12bc 076a bcbb 21ab 063c
00000110: 7d43 5bbc c0dc ae3a 5b57 263c 84a7 03bc
00000120: 6bf3 f8b9 7bc2 b9bc 63aa 3bbc afaa a5bb
00000130: 08a9 6b3a d737 303b a71d 363c ef22 b03b
00000140: f617 8cbb ed08 093c 0e4c 89bb c627 10bc
00000150: 5f90 76bc 0b0c 0b3c 27cd d7bb 3ae8 7bbb
00000160: 60bc 7ebb 9d29 77bb ad01 53bc 2a24 efbb
00000170: 2813 893b ffb4 e5bb b366 28bb 25eb 263c
00000180: 2571 a1bc bfb3 54bb 2bf0 babb 88fc 843b
00000190: 87e8 883a 4273 d33c 475e 373b d74d 80b8
000001a0: 70ba 93bb 1f4c 9bbb 525f 713b 2a7d 1e3c
000001b0: e828 09bc c9ce 9a3c 6a6a 1cbc 458a b63b
000001c0: 92a8 e8bb 9e1d 82bc a4f7 42bb 6e7c cabc
000001d0: 1560 2abc 4b4c c93a 8753 d9bb d3ec c8bb
000001e0: b793 e4bb 57ca 01bc b766 1a3c 4063 26ba
000001f0: ef4f 63ba df3a ee3b f1b6 a1bc 4f5a 59bc
00000200: cfd8 88bb 90ab e3bc 86fc 82bb 608d 733b
00000210: 9d4f 023a 208d 243b 3487 0bbc 4b5e 32b8
00000220: 214f a63a cb0e 11bc c6e9 28bc 5f67 42bb
00000230: ce06 44b9 3b53 873b e0fd ebbb a621 38bb
00000240: 1330 233a 355c 043c 69e5 01bc 9534 6fbb
00000250: 3dc1 d6ba ac07 b33b 677e 153a eba6 17bc
00000260: 52ea 433a ad51 19bc 0235 d2ba 2790 b339
00000270: c34f 123c 6b52 263b 9081 efb9 2d14 f33b
00000280: 8853 d839 5c5c 2b3c 399c 8abc 9b1f e13b
00000290: dcb6 0ebc 028c 64ba 60a6 1e3c ab0c feb8
000002a0: 8fc1 02bc 6bae 833a a720 96ba 0738 b63a
000002b0: ad24 9c3b fa8c 4d3b 43c1 4abc 554f 113c
000002c0: f5df 81bc 271f deba e42a 82bb 9b4c 14bb
000002d0: 8bba 36ba 971c 30bc 28a4 56bb 9958 b8bb
000002e0: b22e 78bb 723d 8bbc d518 8abb da31 103c
000002f0: 2fee 5a3a b0c8 23bc e5fe bbbb 07df 45bc
00000300: ef14 b3bb d1bf 2c3b 2f44 003b a9b1 463c
00000310: 5394 343c 4a81 bd3a 3182 17bc d795 143b
00000320: f574 3fbc d32d fd3b 3a86 a2ba d779 22bb
00000330: 077e 6cbb c82f 18bc 69e1 9a3b 3b9c 24bb
00000340: e78c 1a3c f3bd 86bc 98cd 1e3c ed77 4aba
00000350: 7d6d 223b 3bde 01bb 5d68 743c c3b8 9d3b
00000360: df67 acbb cd72 c83a c7b6 d73a b480 2fba
00000370: 2f66 8a3b 3016 e63b 40c7 f13b a330 323c
00000380: 25a4 fe3b fcb9 16bc 8eb9 843c 0f3b b33b
00000390: a75f 64bb 46f1 bdbb fe32 9b3a 6916 98bb
000003a0: ffc0 cf3b 43f0 523c a1b0 b4bb 9b57 633b
000003b0: 3be8 233c 6bab d0b8 c7e0 11ba 3319 d7bc
000003c0: 9248 023b 7b0f 90bb 7486 b8bb 1912 813c
000003d0: cbeb 9339 676a b53b 1a1d 123c 9b15 a03b
000003e0: 714f 923b c885 063c 4671 0c3c 5335 c2bb
000003f0: 129a f7bb 2892 6b3a d244 6a3c 1542 fd3b
-0.001487671 0.011465865 0.0073892954 0.0034154542 -0.0033129998 0.0038647992 -0.008033807 0.0071766637
-0.008225016 0.00083113415 0.015764108 -0.00014008995 -0.0014442669 -0.009875195 0.0020474992 0.0017361556
-0.0023059808 -0.001694713 -0.020701995 0.0012665909 -0.0015230435 0.0013714588 -0.024017917 0.0009207685
0.0017071115 0.009094638 -0.021597458 -0.003895939 0.0075793006 -0.0076802596 -0.008393306 0.004917016
-0.007678234 -0.0032494764 0.014057755 -0.024370842 0.014550998 0.0055176406 -0.004817377 -0.011331215
-0.0002304734 -0.021287305 -0.0072658644 0.006586175 -0.004712874 -0.004581149 -0.0089595625 -0.002425927
-0.008962697 -0.0032146357 0.0075283013 -0.012104612 0.0048973276 0.0036705525 0.0046981326 0.010296161
0.0057755983 0.019526377 0.0050818757 0.0049821823 0.0039361427 0.01299386 -0.0099107055 -0.012058415
0.006245798 -0.00896361 -0.005749944 0.008219511 -0.01338279 0.0013340935 0.010152663 -0.008035544
-0.00047483607 -0.022675743 -0.011454198 -0.0050557475 0.0008989726 0.0026888752 0.011115468 0.005375258
-0.0042753173 0.0083639445 -0.0041899746 -0.008798545 -0.015049069 0.008486758 -0.0065857354 -0.0038437978
-0.0038869604 -0.0037714012 -0.0128788175 -0.0072980123 0.004183192 -0.007010102 -0.002569598 0.010187899
-0.019707272 -0.003245577 -0.0057049 0.0040584244 0.0010445275 0.025811795 0.0027979778 -6.1180144e-05
-0.004508309 -0.004739299 0.0036830497 0.009673396 -0.008371569 0.018897431 -0.009546855 0.005570682
-0.0071001733 -0.015883263 -0.0029749656 -0.024717536 -0.010398884 0.001535782 -0.0066322717 -0.0061317473
-0.006975617 -0.007921777 0.009423903 -0.0006347187 -0.0008671274 0.0072702016 -0.019740554 -0.01326616
-0.004176236 -0.027791768 -0.0039973883 0.0037163123 0.000497097 0.002510853 -0.008516122 -4.2526324e-05
0.0012688377 -0.008853625 -0.010309642 -0.0029663665 -0.00018694552 0.004129795 -0.007201895 -0.0028096228
0.000622512 0.0080786245 -0.007928231 -0.0036499847 -0.0016384494 0.005463561 0.00057027343 -0.009256105
0.0007473576 -0.009357852 -0.0016037526 0.00034248942 0.0089301495 0.0025378715 -0.00045682164 0.0074181766
0.00041260966 0.010459032 -0.016920196 0.0068702227 -0.008710589 -0.00087183726 0.009683222 -0.000121140234
-0.007980718 0.0010046487 -0.0011453823 0.0013902195 0.0047651143 0.0031364546 -0.012375179 0.008869012
-0.015853861 -0.001694654 -0.003972398 -0.0022628668 -0.0006970546 -0.010749004 -0.0032751653 -0.005625796
-0.003786963 -0.016997073 -0.004214386 0.008800948 0.0008351532 -0.009996578 -0.005737173 -0.0120771
-0.005465142 0.0026359449 0.001957189 0.012127318 0.011021691 0.0014458087 -0.009247349 0.002267232
-0.0116856 0.00772641 -0.0012399622 -0.002479186 -0.003608586 -0.009288736 0.004726578 -0.0025117535
0.009433008 -0.016447997 0.009692572 -0.0007723559 0.0024784498 -0.0019816298 0.01491746 0.004813285
-0.005261406 0.0015293002 0.001645767 -0.00066948985 0.004223607 0.007021688 0.007378489 0.010875854
0.0077710324 -0.009199616 0.01620176 0.005469687 -0.0034847052 -0.0057965843 0.0011840758 -0.0046413434
0.0063401456 0.012874666 -0.00551422 0.0034689668 0.0100040985 -9.950142e-05 -0.00055648055 -0.026257133
0.001987968 -0.0043963767 -0.0056312624 0.0157557 0.00028213704 0.005536366 0.008918071 0.004885388
0.0044650366 0.008210607 0.008571928 -0.005926767 -0.0075562084 0.00089863176 0.014298635 0.007728825

action_model._discrete_distribution.branches.0.bias f4 [3]
00000000: 0000 0000 0000 0000 0000 0000
0.0 0.0 0.0

action_model._discrete_distribution.branches.1.weight f4 [3, 128]
00000000: b0df 90ba d752 f1ba 1aba c53b 5e31 2f3c
00000010: fd12 fdbb 6a5a b33a 05f2 3abc a7de 203c
00000020: 9aff cd3b b97d 153c ff16 3bbb af84 c33a
00000030: cf33 8dbb 5119 b3bb 690c 403a db34 50bb
00000040: 8ba3 d33b c797 bebb 2680 8abc 03e9 51b8
00000050: a8df a83b e756 a7bb acfa 84bb 6822 f1ba
00000060: 1db0 ab3b c897 56bb 5328 6f3b 8407 18b8
00000070: 74f3 aabc 027c 7ebb 3910 3abc aeb0 0fbc
00000080: 2569 5ebb c89f ee3b 5cfd 413b 0f20 113c
00000090: 4892 8a3b 537e 493c 4f57 1ebc 6b4b 54bc
000000a0: 3104 82bb d4a6 063c 9b08 79bc 7267 5dba
000000b0: 47e7 93ba 00e4 5a3b 08d6 823a a896 d93b
000000c0: 0aaa 0b3b efcb 54bb 6018 173b e0f2 7b3c
000000d0: 0b9e b7bb 2708 5b3c ea8f 8abc bbe1 d13b
000000e0: be0b 283c 8b0b be3a c5f1 f43b 4ffa 55bc
000000f0: db7b 153b 334d ccbb 57b8 c83b fde3 68bc
00000100: e23d e0bb 2387 1dbc 27ef 3ebc c31e d4bb
00000110: 1b24 2c3c 5af4 98bb 43c5 72bb 5644 b1bc
00000120: 8e38 3c3b 3329 863c 52df 9d3b 7013 0fbc
00000130: cb02 8b3b d844 5ab9 477c 85ba c700 24bc
00000140: 0693 0abc 38e1 9539 f713 7c3c bf56 9eba
00000150: e01c 2cbc c0b5 07bc b525 6dbc f9b2 0b3c
00000160: 9893 25bc 29e8 c5bb 3745 aaba f550 b3ba
00000170: fa79 303c 15b4 3abc 235b e5bb b5d4 a03b
00000180: dbb0 a33b 6d21 ae3b 5a57 e8bb 946a 3e3c
00000190: 1a2b 5f3b 407b ddba 6bbf 13bc 07ad 0d3c
000001a0: 7b95 db3b 63d8 86bc 4571 f6ba 9356 203b
000001b0: eecc 4b3c 5a53 cd38 2a79 04bc 129b 5fba
000001c0: 2de6 d4bb 8210 f4bb ecbb 8cbc fbae 043c
000001d0: a257 cb3b 2aac cd3b ff9d 6d39 6971 88bc
000001e0: a589 febb d92e 4a3b 33be d2bb e5ca febb
000001f0: 8c77 173c a0a8 a13b 35e1 663a 77ae 2dbb
00000200: 5ba0 f9bb 7ae3 f2bb 8ad7 5f3b 478f 5dba
00000210: 386f ca39 2521 303c 20cb d43b f842 03bc
00000220: 744d 15bc 5aee cdba bfdc 17bc 617b 2ebc
00000230: 9a00 e83b 46ac 453c 1472 c53b 1964 043c
00000240: 9816 963b 8ace eb3b dfb1 2a3b b5e5 953b
00000250: 3a25 14bc eb31 74bc d63f aaba 7f02 aabb
00000260: 6dbf 8aba 9ba8 6e3c 1bd4 aa3b 6c68 34bc
00000270: 757f 9e3b 533b 8fbb 5ae9 67bc d482 a6bb
00000280: dda3 72ba 60c9 05bc c06d 4a3c 0e0f 193c
00000290: 190d 2b3c 9639 ae3c b17b a0ba 05cf 34bc
000002a0: 4f4c cf3b 7737 aaba 821e 8f3b 7df1 b23a
000002b0: 2517 cd3b 463b 92bb c5bf 5cbc eb90 b6bb
000002c0: d395 123c f766 3a3c 0dff dabb e2bd 653b
000002d0: 60a4 e3bb 35ef b93b 1023 79bb 45ed ba3c
000002e0: 73d9 b83b 0052 13bc 83ba 22bc 7003 173b
000002f0: c624 043b fbe3 bbba 2753 4e3b c1ea b03b
00000300: 61bc b93b 02be 513c e93d 02bb e067 8fbb
00000310: b455 383c b7d9 dabc 63a5 e53b 0dc6 56bc
00000320: 62e6 c43b bcde c0bb 633e eb3b da28 4cbc
00000330: 2a18 1e3b f221 063b ef75 c73b 6d3f e0bb
00000340: daf8 49bc b5eb 4cba f8de c4bb f68a 2c3b
00000350: dc6f c93b 92f1 8d3a 6350 a63a 5323 8d3b
00000360: 77fe 2fbb d05d 0e3c 3c07 bebc 68a1 693b
00000370: 6e64 a4bb 1f25 123c 6ea0 163c 6035 9d3b
00000380: d529 993c 97b7 16bc e0b7 30bb aa39 bb3a
00000390: 0bed 513c 17b6 56bb 75e3 ec3a 736b 76ba
000003a0: f6b7 193b e657 b2bb 13c9 d4bb 3934 c1bb
000003b0: 1233 e2bb 3320 acbb 373f f93b 1fd4 8a3c
000003c0: 28ab 50ba 580b 7dbb e846 0bbb c313 64ba
000003d0: 82fb 7bba 0465 c2b9 f937 263a bfe0 203b
000003e0: 700a 963c 68c2 93bb 1d57 6f39 dff8 28bc
000003f0: aa6d 15bc e79a 583c 706d 4e3b f17d 38bb
-0.0011052992 -0.0018411529 0.006034148 0.010692922 -0.007723211 0.0013683562 -0.011410241 0.009818709
0.0062865736 0.009124213 -0.0028547642 0.0014916862 -0.0043091546 -0.0054656644 0.0007326068 -0.0031769786
0.006458705 -0.005816433 -0.016906809 -5.0046492e-05 0.005153615 -0.005106795 -0.0040582027 -0.0018397095
0.0052395 -0.0032744277 0.003649254 -3.6246623e-05 -0.02086804 -0.0038831239 -0.011356407 -0.008770151
-0.0033937183 0.007282231 0.0029600477 0.008857741 0.004228864 0.012298184 -0.009664371 -0.012957434
-0.003967785 0.008218486 -0.015199806 -0.00084458955 -0.0011284136 0.0033400059 0.0009981999 0.006640274
0.0021311068 -0.0032470187 0.00230553 0.01537773 -0.005603557 0.013368643 -0.016914327 0.006405083
0.010256706 0.001449929 0.0074751102 -0.0130601665 0.002280942 -0.006234789 0.0061254906 -0.014214513
-0.0068433145 -0.009614739 -0.011653698 -0.0064733936 0.010506655 -0.004667801 -0.0037043847 -0.02163903
0.0028720233 0.016377067 0.0048178816 -0.008732662 0.0042422763 -0.00020815746 -0.0010184132 -0.010009951
-0.008457905 0.00028587296 0.015385619 -0.0012080296 -0.010504931 -0.008283079 -0.014474322 0.008526557
-0.01010599 -0.0060396385 -0.0012990598 -0.0013680743 0.010771269 -0.011395474 -0.0069993897 0.004908169
0.004995448 0.0053140433 -0.0070904912 0.01162209 0.003405279 -0.0016897693 -0.009017806 0.00864721
0.006701169 -0.016460603 -0.0018802067 0.0024465665 0.012438996 9.790687e-05 -0.008085528 -0.0008529882
-0.0064971657 -0.007448257 -0.017179452 0.008098359 0.006205515 0.006276627 0.0002266094 -0.01665564
-0.0077678734 0.0030850677 -0.006431365 -0.0077756518 0.009244811 0.0049334317 0.0008807362 -0.0026501694
-0.007617993 -0.007412371 0.003415557 -0.0008451831 0.00038611307 0.01075009 0.006493941 -0.008011572
-0.009112705 -0.0015711293 -0.009268939 -0.010649533 0.00708015 0.012064999 0.006025562 0.008080506
0.00458033 0.0071962522 0.002604596 0.0045745024 -0.009042079 -0.0149044795 -0.0012988995 -0.005188286
-0.0010585614 0.014566566 0.005213273 -0.011011224 0.0048369714 -0.0043710857 -0.014154756 -0.005081514
-0.0009255985 -0.008165687 0.012355268 0.009341968 0.010440134 0.021267693 -0.0012243894 -0.011035685
0.0063262354 -0.00129865 0.0043676505 0.0013652291 0.0062588626 -0.0044626324 -0.013473456 -0.005571475
0.008946854 0.011377088 -0.0066832365 0.0035055806 -0.0069470853 0.0056742677 -0.0038015284 0.022818217
0.0056411563 -0.008991718 -0.009932163 0.002304282 0.002016352 -0.0014334911 0.0031482668 0.0053990786
0.0056682085 0.012801649 -0.0019873327 -0.0043763965 0.011250902 -0.026715143 0.007008241 -0.013108742
0.006008909 -0.005885927 0.007179068 -0.012460912 0.002412329 0.002046701 0.006087057 -0.0068434984
-0.012327397 -0.00078171055 -0.0060080253 0.0026327944 0.006147368 0.001082944 0.0012688752 0.0043071895
-0.0026854554 0.008689359 -0.023196809 0.0035649184 -0.005016855 0.008919983 0.009193523 0.0047976226
0.018696705 -0.009199045 -0.0026965067 0.0014284153 0.012812863 -0.0032762343 0.0018073159 -0.00094001665
0.0023455597 -0.005442607 -0.0064936965 -0.005896118 -0.0069030607 -0.005252862 0.0076064127 0.01694685
-0.00079600746 -0.0038611498 -0.002125198 -0.00087004545 -0.0009612368 -0.00037077826 0.0006340738 0.0024548022
0.018315524 -0.004509259 0.00022825268 -0.010313242 -0.009120384 0.013220525 0.0031498335 -0.0028151239
